p1_navigation/drafts/checkpoint20.pth (torch_old, 28451 bytes, 6 tensors)

fc1.weight f4 [64, 37]
0	0x3cadb5de	0.021204885
1	0xbe1639f1	-0.1467054
2	0x3d19f1d6	0.03758415
3	0xbe8221a4	-0.2541629
4	0x3d99b8a7	0.07505923
5	0x3e51f40c	0.20503253
6	0xbd258434	-0.04040928
7	0xbcd9b68b	-0.026576301
8	0xbda32312	-0.079656735
9	0xbea40ec8	-0.32042527
10	0x3e27e94c	0.1639759
11	0xbef34873	-0.47516212
12	0xbdabb0ec	-0.083833545
13	0xbe956fbe	-0.29186815
14	0x3ddef977	0.108874254
15	0xbd90e40d	-0.07074747
16	0xbcea9506	-0.028635513
17	0xbc888f40	-0.01666987
18	0x3db874b3	0.090066336
19	0xbe1219b5	-0.14267619
20	0x3e287c51	0.16453673
21	0x3d0856c6	0.03328588
22	0x3dba3a82	0.09093191
23	0xbd78bc7a	-0.06072662
24	0xbde833a5	-0.113379754
25	0x3c8f0216	0.01745705
26	0x3d5d4bd9	0.054027412
27	0x3ccf7645	0.02532495
28	0xbe9a2955	-0.3010966
29	0xbef11f7d	-0.47094336
30	0x3e36136a	0.17780843
31	0xbe821782	-0.2540856
32	0x3e0a9e59	0.13536967
33	0xbece915d	-0.40345278
34	0xb8a0f8b0	-7.675716e-05
35	0xbc8ce222	-0.017197672
36	0xbe4e4fe4	-0.20147663
37	0x3d6b11e2	0.0573901
38	0x3dcc724b	0.09982737
39	0x3d3f38aa	0.0466849
40	0xbd64914e	-0.055802636
41	0xbecb95e5	-0.39762798
42	0x3c0ddd52	0.008658724
43	0xbe4137f0	-0.18868995
44	0xbdbdee64	-0.09273985
45	0xbe403a36	-0.18772206
46	0xbf108883	-0.564583
47	0x3c90dfc8	0.017684832
48	0xbdd1e9e7	-0.102496915
49	0x3d110bd7	0.035411682
50	0x3df3c710	0.119032025
51	0xbd03d225	-0.03218283
52	0xbc133b20	-0.0089862645
53	0xbe18397d	-0.1486568
54	0x3d7b2f19	0.061324213
55	0x3dc9cd00	0.09853554
56	0x3d8fb127	0.07016211
57	0xbd6912da	-0.056902744
58	0xbe1286c9	-0.14309229
59	0xbe6fb411	-0.23408534
60	0x3d1887a3	0.03723873
61	0x3e509a42	0.20371345
62	0xbc83292b	-0.016010841
63	0xbe996204	-0.29957592
64	0xbd173502	-0.036915787
65	0x3e103798	0.14083707
66	0x3ea292b5	0.31752554
67	0x3d4ba2ff	0.049715992
68	0xbc5d018f	-0.013489141
69	0x3ca31bbe	0.01991069
70	0x3e4bc51b	0.19899409
71	0x3e57a568	0.21059191
72	0xbccb7d66	-0.024840068
73	0x3d0c977e	0.03432416
74	0xbbf300ee	-0.0074158823
75	0x3e0e55db	0.13899939
76	0x3dd471b0	0.10373247
77	0x3d667126	0.05626025
78	0xbda5874e	-0.08082448
79	0xbf54b74d	-0.83092195
80	0x3e770e55	0.24126561
81	0x3e833b77	0.25631306
82	0x3d317973	0.043328714
83	0xbe93452a	-0.28763705
84	0xbdb62f9c	-0.088957995
85	0xbd85ea30	-0.06538808
86	0xbc94f424	-0.018182822
87	0x3d53627f	0.051607605
88	0xbc173e57	-0.009231172
89	0xbd950b20	-0.072775126
90	0x3e6f7202	0.23383334
91	0x3c270c6b	0.010195832
92	0xbeb8876e	-0.36040825
93	0xbbd24a0b	-0.006417518
94	0xbe8c506d	-0.2740511
95	0xbdc229b7	-0.09480613
96	0x3dadf304	0.08493617
97	0xbd16e325	-0.036837716
98	0x3c8a0d74	0.016852118
99	0xbf17d3f0	-0.59307766
100	0x3ee2ca21	0.44294837
101	0x3e3b9a09	0.18320478
102	0xbdd5b123	-0.10434177
103	0xbe898c5d	-0.268649
104	0xbf35fb1c	-0.7108629
105	0x3e162f63	0.14666514
106	0x3d73e242	0.05954195
107	0xbe443e90	-0.1916449
108	0x3d02c653	0.031927418
109	0xbd4742a9	-0.048647556
110	0xbcfcda92	-0.030865941
111	0x3d445208	0.047929794
112	0xbae18713	-0.0017206393
113	0x3dd437b6	0.103621885
114	0x3d4ea072	0.05044598
115	0xbc6d5a47	-0.014486856
116	0xbe0135bf	-0.12618159
117	0xbe806d98	-0.25083613
118	0x3e6676a8	0.22506201
119	0xbe0e1cb1	-0.13878132
120	0xbf378949	-0.71693856
121	0xbdcd23c0	-0.100165844
122	0x3d8e6f45	0.06954817
123	0xbc23960e	-0.009984506
124	0xbe211974	-0.15732366
125	0x3e6a7f1b	0.2290005
126	0xbe73028e	-0.23731443
127	0xbc9e0f13	-0.019294297
128	0x3d9729b6	0.073810026
129	0xbdb9de1a	-0.09075566
130	0xbe6de636	-0.2323235
131	0x3e06d3d2	0.1316674
132	0xbdddc8ed	-0.10829339
133	0xbd82d976	-0.06389134
134	0xbe95855a	-0.29203302
135	0x3e1166da	0.14199391
136	0xbeb530cc	-0.35388792
137	0xbe8a1232	-0.26967007
138	0x3e8fcac8	0.28084397
139	0x3df8e963	0.1215389
140	0xbe7bf5d2	-0.24605492
141	0x3cad1536	0.021128278
142	0x3e9dc55c	0.30814636
143	0xbe3d9316	-0.1851314
144	0x3da0e5bf	0.078563206
145	0xbf03858b	-0.51375645
146	0x3e395db1	0.18102147
147	0x3cc4d88d	0.02402904
148	0xbc502664	-0.012704466
149	0xbee08dcc	-0.43858182
150	0xbce194a6	-0.027536701
151	0xbda3978a	-0.07987888
152	0xbd3f51d6	-0.046708904
153	0xbe92588d	-0.28583184
154	0x3ec695fc	0.38786304
155	0x3cda844f	0.026674418
156	0xbd2188e7	-0.0394372
157	0xbe1e6756	-0.15469107
158	0xbb98086e	-0.004639677
159	0xbe0e45c1	-0.13893797
160	0x3b6e8f8f	0.0036401486
161	0xbe68c8be	-0.22732827
162	0xbf2cb008	-0.674561
163	0xbe71681b	-0.2357487
164	0xbca45815	-0.020061532
165	0xbd8d6cf4	-0.06905547
166	0x3e5ab6b9	0.21358766
167	0x3edb0c72	0.42782933
168	0xbd68b0ee	-0.05680936
169	0x3e4db3d7	0.20088135
170	0xbe5e9c38	-0.2173928
171	0xbdbf9143	-0.09353878
172	0x3c9072ce	0.017632868
173	0x3d8a47db	0.067519866
174	0x3e6ce73e	0.23135087
175	0xbddf03c6	-0.108893916
176	0xbe9359e5	-0.28779522
177	0xbebdfaf8	-0.37105536
178	0x3e233af1	0.15940453
179	0x3d846098	0.06463736
180	0x3d467034	0.04844685
181	0xbf0a7c30	-0.54095745
182	0x3dc739a3	0.0972779
183	0x3c9f3678	0.019435152
184	0x3bb2331b	0.005438221
185	0x3d033886	0.032036327
186	0xbcb54610	-0.022128135
187	0xbcc78254	-0.024354137
188	0xbed0be70	-0.40770292
189	0xbd0934e5	-0.03349771
190	0x3e883b9c	0.26607978
191	0xbd273546	-0.04082229
192	0xbcc2e297	-0.023789687
193	0xbe70fd6a	-0.2353417
194	0xbfaec2f3	-1.3653244
195	0xbda3692a	-0.07979043
196	0xbe59043a	-0.21193019
197	0xbcf84b03	-0.030309206
198	0xbe31dac7	-0.17368613
199	0xbd264153	-0.04058964
200	0xbc9a8682	-0.018862966
201	0x3daaedb4	0.083461195
202	0xbea0126f	-0.31264064
203	0xbce6bdee	-0.028166737
204	0xbedb212b	-0.42798743
205	0x3db61bff	0.088920586
206	0xbe68c6b0	-0.22732043
207	0x3e25c39c	0.161879
208	0xbc953f3e	-0.018218633
209	0x3dbbfe3b	0.0917935
210	0xbdf329c3	-0.118732
211	0xbe3620b8	-0.17785919
212	0x3d92eccd	0.071740724
213	0x3dd798a2	0.10527159
214	0x3c08fa66	0.008360481
215	0xbea09015	-0.31359926
216	0xbd9c8423	-0.076423906
217	0x3e0c02f3	0.13673
218	0x3e865443	0.26236162
219	0x3df29ede	0.11846708
220	0xbce13600	-0.02749157
221	0x3cb4cc3a	0.022070039
222	0xbe44b65f	-0.19210194
223	0xbd48a7ab	-0.048988026
224	0xbde9ee07	-0.11422353
225	0xbe3156bf	-0.17318247
226	0xbe68b460	-0.22725058
227	0xbe89871d	-0.26860896
228	0xbea58509	-0.3232806
229	0x3cb9d609	0.022685068
230	0xbdc29f91	-0.09503091
231	0x3e032e43	0.12810616
232	0x3d5d88ae	0.054085426
233	0x3d5fc564	0.054631606
234	0xbdf4ee3a	-0.119595006
235	0xbd162761	-0.03665865
236	0x3e84db2e	0.2594847
237	0xbe2e8629	-0.17043366
238	0xbe7d892d	-0.2475936
239	0x3db5b2be	0.08871983
240	0xbb26cbbf	-0.0025451032
241	0x3ee4fc33	0.44723663
242	0x3d093a42	0.033502825
243	0xbe4d35b5	-0.20040019
244	0x3d91aeca	0.071134165
245	0xbebaf3eb	-0.3651422
246	0xbd867c8e	-0.06566726
247	0xbe671cf2	-0.22569636
248	0xbe9bb6a7	-0.3041279
249	0x3da56169	0.0807522
250	0xbe195f28	-0.14977705
251	0x3e81c5ab	0.2534612
252	0xbcb049e7	-0.021519614
253	0xbdc99678	-0.09843153
254	0xbc9fc497	-0.019502921
255	0xbe9861e1	-0.29762176

fc1.bias f4 [64]
0	0x3dd0307b	0.10165497
1	0xbdc51574	-0.096232325
2	0xbe226c53	-0.15861635
3	0xbe1a4bb2	-0.15067938
4	0x3e405c21	0.18785144
5	0xbdbda477	-0.09259885
6	0xbe76a3dc	-0.24085945
7	0xbcdabff2	-0.026702855
8	0xbd386274	-0.045015767
9	0xbe9d65fa	-0.30741864
10	0x3de0f959	0.10985059
11	0x3e6396a7	0.22225438
12	0x3e7d41db	0.24732153
13	0x3e99fbe1	0.3007498
14	0xbe27cf48	-0.16387665
15	0xbe0ce8fa	-0.13760749
16	0x3d7014fd	0.058613766
17	0x3d4bf4a3	0.04979385
18	0x3cd6c066	0.02621479
19	0xbe4f7a4b	-0.20261495
20	0xbb9848bc	-0.0046473425
21	0xbceea64d	-0.029132033
22	0xbc5b7beb	-0.013396244
23	0xbd996b3b	-0.07491156
24	0xbe1145b7	-0.1418675
25	0xbc7dc899	-0.015489721
26	0xbdb9eece	-0.090787515
27	0xbe33a6ca	-0.17544094
28	0x3e0ff476	0.14058098
29	0x3e179cbf	0.14805888
30	0xbd9aa00d	-0.075500585
31	0xbdb4ba65	-0.088246144
32	0xbd3e416a	-0.046449102
33	0x3d4940b2	0.049133964
34	0xbe1bda12	-0.15219906
35	0x3e08bb70	0.13352752
36	0xbd0412d0	-0.032244503
37	0x3d1c6874	0.03818555
38	0x3d4f886a	0.050667204
39	0xbe37e232	-0.1795738
40	0xbd8a2feb	-0.06747421
41	0xbcabcd95	-0.020972053
42	0xbe8a2ebd	-0.26988783
43	0x3e2a12b0	0.16608691
44	0x3e568572	0.20949343
45	0xbd9c7b42	-0.07640697
46	0xbd50790c	-0.05089669
47	0xbda643bc	-0.08118388
48	0xbe08370a	-0.13302246
49	0x3dad0b4f	0.084494226
50	0xbe283c63	-0.16429286
51	0x3db00e1e	0.08596443
52	0xbd05e000	-0.032684326
53	0xbcd27919	-0.02569251
54	0xbea71b97	-0.32638237
55	0xbd908700	-0.07056999
56	0x3e05ed93	0.13078909
57	0xbe3bfea0	-0.1835885
58	0xbcd8abe2	-0.026449148
59	0xbd302285	-0.04300167
60	0x3d3a01e3	0.045411956
61	0xbbb857cb	-0.0056257
62	0x3d3d0bcb	0.046153825
63	0x3d6cbd78	0.05779788

fc2.weight f4 [64, 64]
0	0x3db6b086	0.08920388
1	0xbd9115b0	-0.07084215
2	0xbcb7ea30	-0.022450536
3	0xbcb0acb0	-0.021566719
4	0x3cd809b0	0.026371807
5	0x3ac03ad0	0.0014665965
6	0x39e0d866	0.0004288584
7	0x3e0c1825	0.13681085
8	0xbe1b2f59	-0.1515478
9	0xbc2f0988	-0.010683425
10	0x3e30d8bb	0.17270176
11	0xbecac171	-0.3960071
12	0xbe3e13d5	-0.18562253
13	0x3db3e08e	0.08783065
14	0xbe63cb7b	-0.2224559
15	0xbd528a97	-0.0514017
16	0xbd76aad0	-0.060221493
17	0xbcc6c6dc	-0.024264745
18	0x3d01a76d	0.03165381
19	0x3de05873	0.1095437
20	0xbd04c29b	-0.032412153
21	0x3e347120	0.17621279
22	0xbdc96168	-0.09833032
23	0xbe325480	-0.17415047
24	0xbe017775	-0.12643225
25	0x3e5a5e4f	0.21325038
26	0x3e44be1f	0.1921315
27	0x3d4650d1	0.048416916
28	0x3cea1ac4	0.028577216
29	0xbe3edde4	-0.18639332
30	0xbd51891e	-0.051156156
31	0x3e0a42a4	0.13501984
32	0xbcdc237a	-0.026872385
33	0x3f511f22	0.8168813
34	0x3d3097a2	0.04311336
35	0xbf161a23	-0.5863363
36	0xbe8a8d25	-0.2706081
37	0x3e2f8c3c	0.17143339
38	0x3db145fe	0.08655928
39	0x3db2e774	0.087355524
40	0xbeb50665	-0.3535644
41	0xbe6561d0	-0.22400594
42	0x3d894198	0.06701964
43	0xbb780e51	-0.003785033
44	0x3d580d60	0.05274713
45	0x3e328626	0.17433986
46	0xbe06aa7d	-0.13150974
47	0xbf083ef5	-0.53221065
48	0x3d6025eb	0.05472366
49	0xbe3d28bf	-0.18472575
50	0xbd0e5bd3	-0.03475554
51	0xbf093649	-0.5359846
52	0xbce2e937	-0.027699096
53	0xbf20c6af	-0.6280317
54	0xbdf34e59	-0.11880178
55	0xbd54620f	-0.05185133
56	0xbea3740a	-0.31924468
57	0xbe10c6f0	-0.14138389
58	0x3d8e4193	0.06946101
59	0x3da9733e	0.08273934
60	0x3d7dcdc0	0.061963797
61	0x3e824dd1	0.25449994
62	0x3e81fe9d	0.25389567
63	0xbec9e9ec	-0.3943628
64	0xbe4b76b4	-0.198695
65	0x3bf03ddc	0.007331593
66	0xbec90853	-0.39264163
67	0x3d10efae	0.035384826
68	0x3e344ba5	0.17606981
69	0x3e110ba3	0.14164595
70	0x3d1ddea2	0.038542397
71	0x3cfe995c	0.031078987
72	0xbdfbcbb3	-0.12294712
73	0x3e5250a5	0.20538576
74	0xbca29754	-0.01984755
75	0x3ed0c6c6	0.40776652
76	0xbede111e	-0.43372434
77	0x3d502a1b	0.050821405
78	0xbd591350	-0.052996933
79	0x3d8b4a91	0.06801332
80	0x3c097030	0.008388564
81	0xbe6fd065	-0.2341934
82	0x3c9c65ad	0.019091452
83	0x3e8b75c1	0.27238277
84	0x3dc97125	0.09836034
85	0x3e2e2d09	0.17009367
86	0x3c996468	0.018724635
87	0xbc8b2335	-0.016984561
88	0xbe0e03d0	-0.13868642
89	0x3ddfe6bc	0.10932681
90	0xbcaa454a	-0.020784993
91	0xbe433e4f	-0.19066738
92	0x3d50f95a	0.05101905
93	0x3e846978	0.25861716
94	0x3da587a5	0.08082513
95	0x3e71099c	0.23538822
96	0xbead5c5d	-0.3385953
97	0xbdeb7bb4	-0.11498204
98	0xbd8d7b99	-0.0690834
99	0xbdf96b1d	-0.12178633
100	0xbd2dc454	-0.04242356
101	0x3dd97467	0.10617905
102	0xbe09637d	-0.13416858
103	0xbe558c0d	-0.20854206
104	0xbed48c4e	-0.41513294
105	0x3d97a18b	0.07403859
106	0x3dcea5e5	0.100902356
107	0xbc518798	-0.012788676
108	0xbe0bb7ab	-0.13644283
109	0x3d1be21e	0.03805744
110	0xbdb039db	-0.08604785
111	0xbdbd61ae	-0.092471465
112	0xbc011906	-0.007879501
113	0x3dd47b5a	0.1037509
114	0xbe56b0f4	-0.2096594
115	0x3da6931f	0.0813353
116	0xbe41e4db	-0.18934958
117	0xbe3551d9	-0.17707004
118	0xbdf5957e	-0.11991404
119	0xbe7b6592	-0.24550465
120	0x3db57b59	0.08861417
121	0xbe8959f1	-0.26826432
122	0x3e9e155d	0.30875674
123	0x3e5089d4	0.20365077
124	0xbe34a26f	-0.17640088
125	0xbd80ddac	-0.062922806
126	0x3cb9f73d	0.0227009
127	0xbd9c36de	-0.076276526
128	0xbdc5668c	-0.096387
129	0xbd6591be	-0.056047194
130	0xbc0cf0bf	-0.00860232
131	0x3cb88c04	0.022527702
132	0xbcde6ca8	-0.02715142
133	0xbd3e796a	-0.04650251
134	0x3dd9e9e5	0.10640315
135	0x3dc15a09	0.09441001
136	0xbdf4f8e3	-0.11961534
137	0x3e077859	0.13229503
138	0x3cb608bb	0.02222096
139	0xbe889e74	-0.2668339
140	0x3de9578e	0.11393653
141	0x3d4968b2	0.04917211
142	0xbe027a6c	-0.12742013
143	0x3e244f16	0.16045794
144	0x3d2c9f37	0.042144027
145	0x3e375e24	0.17907006
146	0x3c9e4a9b	0.019322684
147	0xbe4ffc2a	-0.20311037
148	0xbf0f2eac	-0.5593059
149	0x3daeccf2	0.08535184
150	0xbd4da565	-0.05020656
151	0xbe7230ce	-0.2365143
152	0x3db813fb	0.08988186
153	0x3e12abec	0.14323395
154	0xbd93f08a	-0.072236136
155	0xbdee3d9c	-0.11632845
156	0x3ca357f0	0.019939393
157	0xbec7be56	-0.39012402
158	0x3e44f21d	0.19232984
159	0x3e36f48b	0.17866723
160	0xbe5460c2	-0.20740035
161	0x3da908e2	0.082536474
162	0xbda5fbc7	-0.08104663
163	0xbe882cee	-0.2659678
164	0x3da1cf0b	0.079008184
165	0x3d96f345	0.07370619
166	0x3e10655d	0.14101167
167	0xbd717227	-0.058946755
168	0x3e90ae0f	0.28257796
169	0xbe1c1599	-0.15242614
170	0x3cd844d6	0.026400011
171	0x3c30ec37	0.0107985055
172	0xbdbd1318	-0.092321575
173	0x3d41e811	0.047340456
174	0xbcd730f1	-0.026268454
175	0xbeb7ee9c	-0.35924232
176	0xbdb572af	-0.08859765
177	0xbd36ed1d	-0.044659723
178	0xbcd95ca3	-0.02653343
179	0xbeb48451	-0.352572
180	0xbe678d33	-0.22612457
181	0x3f1bffaf	0.6093702
182	0x3ea70006	0.32617205
183	0xbdadcbb9	-0.08486123
184	0xbdd8a42d	-0.10578189
185	0xbdef773c	-0.11692664
186	0xbecceceb	-0.40024504
187	0x3c1d0f45	0.00958616
188	0xbd628a4d	-0.055307675
189	0x3c586135	0.01320677
190	0x3d919ad3	0.071096085
191	0xbde68f30	-0.112577796
192	0x3d2ef558	0.042714447
193	0xbe149ecf	-0.14513706
194	0x3dad7209	0.08469016
195	0xbe0897a8	-0.13339102
196	0x3edbc5ad	0.42924252
197	0xbec37a49	-0.38179234
198	0xbe481b19	-0.19541587
199	0xbf1f986d	-0.6234196
200	0xbe9be792	-0.30450112
201	0x3e2dc2ca	0.16968837
202	0xbc8264b2	-0.015917156
203	0xbab8be1a	-0.0014094741
204	0xbe2b88d7	-0.16751419
205	0xbdd431e2	-0.10361077
206	0x3d69dcdc	0.057095394
207	0xbdb10672	-0.086438075
208	0x3d6888ac	0.056770965
209	0x3ddac45b	0.10681983
210	0x3ba36037	0.004985835
211	0xbe0786f0	-0.13235068
212	0x3dede617	0.11616152
213	0xbf0b92a0	-0.54520607
214	0x3e51f9cb	0.20505445
215	0xbe80eb63	-0.25179586
216	0xbd96afb7	-0.07357734
217	0x3f01e1e3	0.507353
218	0xbd559487	-0.0521436
219	0x3e8907b2	0.26763684
220	0x3e889f38	0.26683974
221	0xbe83f24e	-0.257708
222	0xbe361d8e	-0.17784712
223	0x3ce286a5	0.027652094
224	0xbddb73b4	-0.10715428
225	0x3e3f0dfd	0.1865768
226	0x3df04d96	0.11733548
227	0x3e0f4b3e	0.13993546
228	0xbe069d99	-0.13146056
229	0xbda788d7	-0.08180397
230	0xbe2bfd9a	-0.1679596
231	0xbe33da69	-0.17563786
232	0xbe0db562	-0.13838723
233	0x3d753b11	0.059870783
234	0xbce8cbc4	-0.028417476
235	0x3c4f2a6c	0.0126443915
236	0xbdeea133	-0.1165184
237	0xbe5bce1a	-0.2146534
238	0xbb7dc881	-0.0038724246
239	0xbee00600	-0.43754578
240	0xbe19393c	-0.1496324
241	0xbe2fc63c	-0.17165464
242	0xbe33ec59	-0.17570628
243	0xbe1007cf	-0.14065479
244	0x3b82ce66	0.00399189
245	0x3d5a1d2c	0.053250477
246	0x3e7c2e8c	0.24627131
247	0xbebda886	-0.37042636
248	0xbd69fedb	-0.057127815
249	0x39d0f3b3	0.00039854422
250	0x3d5d1c35	0.05398198
251	0xbe97d5af	-0.29655215
252	0x3bb7458b	0.005593007
253	0x3e7a5cbd	0.2444944
254	0x3eab1725	0.33416095
255	0x3e7c685b	0.24649183

fc2.bias f4 [64]
0	0xbe18db21	-0.14927341
1	0x3d6babe7	0.057536986
2	0x3e3dbd32	0.18529204
3	0xbb54aced	-0.0032451705
4	0x3e97ca32	0.2964645
5	0xbebafbaf	-0.36520144
6	0x3d82b83f	0.063827984
7	0x3cca8c01	0.024724962
8	0x3ef1e22d	0.4724287
9	0x3f213426	0.629702
10	0xbe1a42f8	-0.15064609
11	0x3d993c51	0.074822076
12	0x3e82bb91	0.25533727
13	0xbd36e931	-0.044655982
14	0xbdb59e53	-0.088680886
15	0x3da4966a	0.08036502
16	0x3e182a5e	0.14859912
17	0xbddb951c	-0.107218
18	0xbe5378e0	-0.20651579
19	0x3e6e895c	0.23294586
20	0x3eedacfd	0.46421042
21	0x3f1f1519	0.6214157
22	0xbdf10ef2	-0.11770429
23	0xbe162859	-0.14663829
24	0xbe5752af	-0.21027635
25	0xbdaa2474	-0.08307734
26	0x3d9e4fc5	0.077300586
27	0xbd5da95c	-0.05411659
28	0xbc6d2aa8	-0.014475502
29	0xbe0a4a0c	-0.13504809
30	0x3db18feb	0.08670028
31	0x3de6c861	0.11268688
32	0x3db33f0a	0.08752258
33	0x3df56117	0.11981409
34	0x3d18f66c	0.03734438
35	0xbdb2eb8b	-0.087363325
36	0x3c66fa21	0.014097721
37	0xbe45a8a3	-0.19302611
38	0xbdfcca22	-0.12343241
39	0x3cdc1ee9	0.026870208
40	0xbdc3cad8	-0.09560174
41	0x3f38040d	0.7188118
42	0x3f15cac2	0.5851251
43	0xbda06840	-0.07832384
44	0x3db0f65e	0.08640741
45	0xbe17bb04	-0.14817435
46	0x3f0624e4	0.5240004
47	0xbd772c0a	-0.060344733
48	0x3e1088e5	0.14114721
49	0x3d6b2d3b	0.057416182
50	0xbd49e36f	-0.049289163
51	0x3f293f77	0.66112465
52	0x3e19bf1c	0.15014309
53	0xbe7484f7	-0.23878847
54	0x3eaa0eed	0.33214512
55	0xbe421865	-0.18954618
56	0xbe987a78	-0.29780936
57	0xbdfc17f1	-0.12309254
58	0xbcbfdbfe	-0.02342033
59	0x3d2502ed	0.040285993
60	0x3dda46a5	0.106580056
61	0x3e3e456e	0.18581173
62	0x3dce1a2c	0.10063586
63	0xbe3c564f	-0.18392299

fc3.weight f4 [4, 64]
0	0x3e9fdef0	0.31224775
1	0x3e4d86bc	0.20070928
2	0x3ea10433	0.31448516
3	0x3dbed519	0.09317989
4	0x3e6c528e	0.23078367
5	0xbe474339	-0.19459237
6	0x3e8c5b4e	0.2741341
7	0xbe914c4b	-0.2837852
8	0x3e311360	0.17292547
9	0x3e3e5e26	0.18590602
10	0xbe7ffdda	-0.2499918
11	0xbc833642	-0.016017083
12	0x3dae4cb3	0.08510723
13	0x3f0f4a22	0.5597249
14	0xbdd0f93c	-0.10203788
15	0xbdf994c9	-0.12186582
16	0x3e9631ae	0.29334778
17	0x3e1b6ef3	0.15179043
18	0xbe972a06	-0.2952425
19	0x3e2debcc	0.1698448
20	0x3e16de27	0.14733182
21	0x3e7136a8	0.23556006
22	0xbcb78c3c	-0.022405736
23	0xbe06b74b	-0.13155858
24	0xbd1d6eaa	-0.038435616
25	0xbe888d33	-0.26670226
26	0xbe164c20	-0.14677477
27	0xbe08839d	-0.13331456
28	0x3ec33e72	0.3813358
29	0xbeac76e2	-0.3368445
30	0xbf2e2919	-0.6803146
31	0x3dbc15ec	0.09183869
32	0x3eff7670	0.49895048
33	0x3e49fe4e	0.19725916
34	0x3c12320a	0.008923063
35	0x3c522194	0.012825388
36	0x3e66817b	0.2251033
37	0xbe19963b	-0.14998715
38	0xbe2e975b	-0.17049925
39	0x3e878769	0.26470497
40	0xbf13e23c	-0.5776708
41	0x3e5aab0d	0.21354313
42	0x3e2da092	0.16955784
43	0xbf25cb8c	-0.6476371
44	0x3e6f23bc	0.23353475
45	0x3c9b7ad1	0.018979462
46	0x3e81848e	0.25296444
47	0x3ebf2d1a	0.37339097
48	0x3e33ed40	0.17570972
49	0x3e35277f	0.17690848
50	0x3f04b2bf	0.51835245
51	0x3e40b71a	0.18819848
52	0x3dd8b6d7	0.10581749
53	0xbe3ee684	-0.18642622
54	0x3e06fae8	0.1318165
55	0x3c4d503d	0.012531337
56	0xbe1c4394	-0.15260154
57	0xbdc27dde	-0.094966635
58	0xbca9c0eb	-0.020721873
59	0x3d39f081	0.045395378
60	0xbebaf039	-0.365114
61	0x3cd8c177	0.026459439
62	0x3e781ef3	0.24230556
63	0xbe2c475e	-0.168241
64	0x3f22d524	0.63606477
65	0x3e40c63e	0.18825623
66	0x3e4b0af9	0.19828404
67	0xbcbf1cb1	-0.02332911
68	0x3e1cc36b	0.15308921
69	0xbdf84ee5	-0.12124423
70	0x3e410a97	0.18851696
71	0xbdc69c01	-0.09697724
72	0x3e158f71	0.146055
73	0x3e49d2cf	0.19709323
74	0xbe1283c1	-0.14308073
75	0xbb56fcc4	-0.0032804469
76	0x3d1ac258	0.037782997
77	0x3e9e7a24	0.3095256
78	0x3ca3c227	0.01999004
79	0x3d3b1472	0.045673795
80	0x3e918cf0	0.2842784
81	0x3da10dd9	0.07863969
82	0xbe286d68	-0.16447985
83	0x3e081010	0.13287377
84	0x3e38d77e	0.18050954
85	0x3e8facce	0.28061527
86	0xbd94ec2b	-0.07271608
87	0xbe2e1490	-0.17000031
88	0x3e806669	0.25078133
89	0xbec496d7	-0.38396332
90	0xbd621bbc	-0.05520223
91	0xbf0b3e25	-0.543917
92	0x3e04cbe8	0.12968409
93	0xbe03b52b	-0.12862079
94	0x3c9ac8d6	0.018894594
95	0x3d525c32	0.051357456
96	0x3eb60b57	0.35555527
97	0x3f51ea35	0.81997997
98	0x3d7a057e	0.061040394
99	0xbd9f3d02	-0.07775308
100	0x3e950120	0.2910242
101	0xbdea3ae7	-0.11437016
102	0xbe39d01b	-0.18145792
103	0x3e947714	0.289971
104	0xbea534a9	-0.3226674
105	0x3e81e2e4	0.25368416
106	0x3e0c794b	0.13718145
107	0x3e0a614a	0.13513675
108	0x3e491c21	0.19639637
109	0xbe33ab0a	-0.17545715
110	0x3e7a616a	0.24451223
111	0x3eeafd2e	0.45896286
112	0x3e9fc4c2	0.31204802
113	0x3e399811	0.18124415
114	0x3ef7ee04	0.4842378
115	0x3e07b003	0.13250737
116	0x3d5a7344	0.053332582
117	0xbdfcc39d	-0.12341998
118	0x3de57492	0.11203875
119	0x3e15a141	0.14612295
120	0xbe1fb75a	-0.15597287
121	0xbcebef14	-0.028800525
122	0x3cf27fc2	0.029601935
123	0x3dba338c	0.09091863
124	0x3d939320	0.07205796
125	0x3dfe0d9c	0.124049395
126	0x3d30a82b	0.043129127
127	0x3d12c471	0.035831872
128	0x3f14d24d	0.58133394
129	0x3ea6afae	0.32555908
130	0x3d5b47d0	0.053535283
131	0x3e891b78	0.2677877
132	0x3e6794ad	0.22615309
133	0xbe7b979b	-0.24569552
134	0x3e87b0eb	0.26502165
135	0xbe8301af	-0.25587222
136	0x3e1042dd	0.14088006
137	0x3e2fc952	0.17166641
138	0xbef59a6d	-0.4796938
139	0x3e40b7e5	0.1882015
140	0x3e848a29	0.25886658
141	0x3e167b85	0.14695556
142	0xba72abb1	-0.00092571514
143	0x3e47480c	0.19461077
144	0x3e2b1807	0.16708384
145	0xbe9eb78f	-0.3099942
146	0xbde2b51a	-0.11069699
147	0xbd6e9ff8	-0.058258027
148	0x3ddb1ae5	0.10698489
149	0x3e9c7a70	0.30562162
150	0x3dc9711d	0.09836028
151	0x3cc42ab1	0.023946138
152	0x3f3808ef	0.7188863
153	0xbd4816e2	-0.048849948
154	0xbe5ab8dc	-0.21359581
155	0x3d1c6268	0.038179785
156	0x3e7b1574	0.24519902
157	0xbea4289d	-0.32062235
158	0xbdfa63df	-0.1222608
159	0x3d02a1b2	0.031892486
160	0x3e4c6070	0.19958663
161	0xbd80a108	-0.06280714
162	0x3e42b284	0.19013411
163	0x3d994645	0.07484106
164	0xbdea6792	-0.11445536
165	0xbef33ebb	-0.47508797
166	0xbe791a6d	-0.24326487
167	0x3de99ba1	0.11406637
168	0x3d687767	0.056754496
169	0x3e6e95f7	0.23299395
170	0x3e4f4884	0.20242506
171	0xbe71950f	-0.23592018
172	0xbc7567f9	-0.014978402
173	0xbe89733b	-0.26845726
174	0x3e50784d	0.20358391
175	0x3ee6c56c	0.45072496
176	0x3ec43ab0	0.38326025
177	0x3e01ef80	0.12689018
178	0x3ec72d24	0.38901627
179	0x3e84c42d	0.2593092
180	0x3d8acd0a	0.06777389
181	0x3e6c480d	0.2307436
182	0x3e6a8d6a	0.22905508
183	0x3ea23d29	0.31687286
184	0xbea530ce	-0.32263798
185	0x3e3d0fa3	0.18462996
186	0x3e360f13	0.17779188
187	0xbc5a312d	-0.0133173885
188	0x3e049cf6	0.12950501
189	0x3e077bf4	0.13230878
190	0xbf013ef1	-0.50486666
191	0xbe19a6fd	-0.15005107
192	0xbdf48747	-0.119398646
193	0x3e378fe7	0.17925988
194	0x3d7fbb38	0.062434405
195	0xbe46c963	-0.1941276
196	0x3d6a05d6	0.05713447
197	0xbe6d3237	-0.23163687
198	0x3e38b2a9	0.18036903
199	0xbd0d2112	-0.034455366
200	0x3e02b6ad	0.12764998
201	0x3e8b3505	0.27188888
202	0xbc903ec2	-0.01760805
203	0xbe9c8542	-0.30570418
204	0x3e28a543	0.16469292
205	0x3dcba37e	0.09943293
206	0x3d4bf688	0.049795657
207	0x3e271438	0.16316307
208	0x3e9c385d	0.30511752
209	0x3e28cce8	0.16484416
210	0xbd352114	-0.044221
211	0x3e250e82	0.16118816
212	0x3dc7fdff	0.09765243
213	0x3ead37d4	0.33831656
214	0xbe913738	-0.2836244
215	0x3cc2817b	0.023743382
216	0x3caae60d	0.02086165
217	0xbedb25e9	-0.4280236
218	0xbf33e967	-0.7027802
219	0x3e8cd96f	0.2750964
220	0x3f3aeeba	0.7302052
221	0xbdce1722	-0.10063006
222	0xbeefee60	-0.46861553
223	0x3e4eac83	0.20182995
224	0x3ecb4241	0.39698985
225	0x3f30b92f	0.6903257
226	0xbd974e75	-0.07388011
227	0x3c7e8003	0.01553345
228	0xbe2c2a31	-0.1681297
229	0xbdd1809b	-0.10229608
230	0x3d99dd25	0.07512883
231	0x3e57badb	0.21067373
232	0xbe73df5b	-0.23815672
233	0x3e6926a4	0.22768646
234	0x3e5071e3	0.20355944
235	0xbe34d96b	-0.17661063
236	0x3eb4420e	0.35206646
237	0xbe5159de	-0.20444438
238	0x3e443555	0.1916097
239	0x3d8f9e92	0.07012667
240	0x3d372a4f	0.044718083
241	0x3d6cd6cf	0.057822045
242	0x3f187a81	0.59561926
243	0x3e5c8284	0.21534163
244	0x3da98a8f	0.08278381
245	0xbdc7d916	-0.09758203
246	0x3de82249	0.113346644
247	0x3e88afb6	0.26696557
248	0xbea80cb3	-0.3282219
249	0xbe254507	-0.16139613
250	0xbe0a46c4	-0.13503557
251	0xbdb56236	-0.08856623
252	0xbf09ead6	-0.53873956
253	0x3e915d19	0.2839134
254	0x3e33324f	0.1749966
255	0x3e3d5d03	0.18492512

fc3.bias f4 [4]
0	0x3eff290f	0.49836013
1	0x3ec511ce	0.38490146
2	0x3e9db75d	0.30803958
3	0x3ea2b08c	0.3177532
