p3_collab-compet/src_submission/checkpoints/checkpoint_actor_x67success.pth (torch_old, 52324 bytes, 18 tensors)

fc1.weight f4 [128, 24]
00000000: cb14 c0be 634e 4f3f a46e 953c 7762 51be
00000010: 6522 9dbf 65c1 7d3e 2d5a 3cbc ed1c 53be
00000020: 2ef9 d83c a36f f63e 35d6 2abd 49bd 50bd
00000030: 523d 1f3f 556b bc3f f184 563c 7c8b e93b
00000040: fa25 973f 2a67 aa3f daf4 a63c 9568 3f3f
00000050: 4996 0640 07ad e3bd a505 6dbd 05f5 493f
00000060: 8144 08bd 749b d4bf 604c 92bc e25e 34bd
00000070: 4328 0d40 8422 de3f 853e 023c c954 8abd
00000080: 71e1 df3d 5706 39bd d359 c9bb c883 88bd
00000090: 1dcd 80be 803a 0f3f 752c 70ba cd76 113d
000000a0: 5537 f33d dae8 093f 61db cd3c d33f 7abe
000000b0: 5ab2 09c0 52da 80bf a309 4cbc 4d88 febd
000000c0: ff07 c2bf 40bd c6be ec39 56bd 93f3 00bf
000000d0: 121e 933f 6d65 09bf da8b e7bd 9652 f4be
000000e0: 99a5 6abf a037 12bf 7afe 503d 2276 ad3e
000000f0: 2b97 873f d6e4 fbbf bec5 193e a093 723e
00000100: 83fd 4cbf 4ab3 70bf b931 153e cf90 85bf
00000110: 0b20 53bd 21a6 1ec0 51ed 503e 7076 85bf
00000120: 51e6 3ebe 103a b83e 1394 08bb 4a9b d8ba
00000130: 7971 bc3f e8ff 483f 9f41 7fbc 612a 53bb
00000140: b98e 1cbe 8a74 e83e e5f9 84bc ba4f c83d
00000150: a05a ffbe 49ff 96be fe0b 833c d2b7 803c
00000160: 36d4 b83f 0361 a23e 8f55 cdbb 4719 853e
00000170: 03f5 09c0 4732 29c0 9b35 7a3c 4619 953e
00000180: 5e21 2a3e 9aa1 b93f 386a 8cbc c0d9 d93d
00000190: 4c7f 473f ba1e 0740 a2b6 273c 839d c13d
000001a0: 2c2d bc3d 5774 d03f 8498 823d 9daa 483f
000001b0: 65f2 a8bd 3ca9 eabd 421d 21bd 946b 363f
000001c0: 12fd 85bd 7eba e93f 3f78 49bd 9350 48bf
000001d0: 2315 54bf 3b56 3ec0 5841 863d 9909 5abf
000001e0: e70b 98bd 2c64 823f 398e 3a3d 69e7 63be
000001f0: 31e9 db3d 0984 0240 fe44 f53d a722 43be
00000200: 752b 763e 38a4 743f e7e1 ecbd 4703 07be
00000210: e6a0 5d3f c934 0140 4711 08be fddd fcbd
00000220: 01bf ed3e aaaa 643f eadb 61be d189 1ac0
00000230: 508f 873f 1b4a e03f 6e9f 8cbe 425b 19c0
00000240: a53e fe3e 6b89 2c3f 3dfe bc3c 65ba 833d
00000250: db2e 48be bd9c c2be 8a68 89bd 3172 4e3d
00000260: 6e23 703f 1869 223f 951a d4bd cc25 5d3e
00000270: 0cbd e0bd 1ed6 0ebe 0771 13bd 6a05 033e
00000280: f242 7e3f bdb1 d63e 48de c1bd 30f1 613d
00000290: 803e 983e c027 053f 3692 ff3c 177a d5bd
000002a0: e578 1cbd 8d2e 4540 aaef 103d a3ed cb3e
000002b0: 2e21 b23e c9d0 723f a54b 7ebd 50cb 873e
000002c0: 8d85 e0be 736b d53f 87f6 f2bc 7e5b 0e3f
000002d0: c8d4 3f3f 312e e73f 5b53 d43c 4cec 003f
000002e0: 913d fc3e 6db1 ef3f 335b 543b 7ff2 efbe
000002f0: 4059 f13e 84a5 4a3e c6bd debc fc92 aabe
00000300: a96b 1bbd beb2 21bf 6754 99bd 9b70 cfbb
00000310: 19e3 b7bd bc31 e03f 8735 9d3d dcc0 443d
00000320: e2d5 413f 3660 60bf eac5 813d 5bb7 babd
00000330: bd04 31bf b09b 2a40 b155 1dbd 50e3 27be
00000340: 9180 ed3f 7b26 90bf f6bc 96bc 36a6 a9bc
00000350: 6ef3 82bf 97fb b73f c3c9 90bc c279 4cbd
00000360: f257 debe 4416 f5bf 45a9 42bd 5be6 83bf
00000370: adb4 863f 8618 4ebf 4eef 57bc 8b5e 71bf
00000380: c55e 8a3e 8d64 02c0 b52a 60bd 7c6a a23e
00000390: ba43 8ebe 008a 0bbf 6b06 0bbd 16cc b63e
000003a0: 7b6a 343f 2a1d ffbf 1275 dabc f761 39bf
000003b0: 5591 e1bf af35 0dc0 5795 f9bb 365b 35bf
000003c0: 6e9d 39bf f83a e73f da3f 35bd f256 f9bf
000003d0: bc63 b73b d6ac 7dbf c764 fabd af75 fdbf
000003e0: 4a69 99be 8fcb f93f c516 55be 13e7 33bf
000003f0: 8d4a 823f 7d26 f8be 543c 51bd 393c 26bf
-0.37515864 0.80978984 0.018241234 -0.20447718 -1.2276121 0.24780805 -0.011496109 -0.20616503
0.026486006 0.48132047 -0.04170819 -0.050961766 0.6220294 1.4720255 0.013093219 0.0071272235
1.1808465 1.3312733 0.020380426 0.74768955 2.1029227 -0.11116987 -0.05786671 0.78889495
-0.033268455 -1.660994 -0.017858684 -0.0440358 2.2055824 1.7354283 0.007949476 -0.06754453
0.109316714 -0.04517206 -0.006144741 -0.0666576 -0.2515649 0.5594864 -0.0009161898 0.035513688
0.11875788 0.5387093 0.025129022 -0.2443841 -2.1515107 -1.0066626 -0.012453469 -0.12428341
-1.515869 -0.3881626 -0.052301332 -0.50371665 1.1493552 -0.5367039 -0.113059714 -0.47719258
-0.9165893 -0.57116127 0.051023938 0.3387919 1.0593008 -1.967921 0.15016839 0.23689127
-0.8007433 -0.94023573 0.14569749 -1.0434817 -0.05154423 -2.4788897 0.20403029 -1.0426769
-0.18642546 0.35981798 -0.0020840212 -0.0016525772 1.4722129 0.7851548 -0.01557961 -0.0032221305
-0.1528882 0.45401412 -0.01623244 0.09780832 -0.4987383 -0.29491642 0.01599693 0.015712652
1.4439762 0.3171464 -0.006266303 0.25995848 -2.1555793 -2.6436937 0.01527157 0.29120845
0.16614291 1.4502442 -0.017140493 0.10637236 0.77928615 2.1112504 0.010236414 0.09453871
0.09188303 1.6285504 0.06376746 0.78385335 -0.08249358 -0.1145806 -0.039334543 0.712579
-0.0654241 1.8260038 -0.04918694 -0.78247947 -0.8284475 -2.974013 0.06555432 -0.85170895
-0.07424145 1.018682 0.04554579 -0.22256245 0.10737837 2.0393088 0.1197605 -0.19056188
0.24040015 0.9556308 -0.11566525 -0.13184844 0.86573637 2.0188468 -0.13287841 -0.123470284
0.46434787 0.8932291 -0.22056547 -2.4146616 1.059061 1.7522615 -0.27465385 -2.396195
0.4965717 0.67397183 0.023070449 0.06432036 -0.19549124 -0.38010207 -0.06709392 0.05040187
0.9380406 0.6344161 -0.103566326 0.2159645 -0.10973558 -0.13948867 -0.035996463 0.12795034
0.993209 0.4193248 -0.09466225 0.055161655 0.29735184 0.5201378 0.031197648 -0.104236774
-0.03820123 3.0809662 0.03538481 0.3982974 0.3479094 0.9484983 -0.06208386 0.26522303
-0.4385189 1.6673416 -0.029658569 0.55608356 0.74934053 1.8060971 0.025918653 0.5036056
0.4926572 1.8726021 0.0032402992 -0.46864697 0.47138405 0.19789702 -0.0271901 -0.33315265
-0.03794447 -0.63163364 -0.074868016 -0.0063305623 -0.08978862 1.7515178 0.07676225 0.048035488
0.75716984 -0.87646806 0.06336577 -0.091170035 -0.69147855 2.6657524 -0.0384118 -0.16395307
1.855486 -1.1261743 -0.01840065 -0.020709138 -1.0230539 1.4373654 -0.017674332 -0.049920805
-0.43426472 -1.914742 -0.04752471 -1.0304674 1.0523888 -0.8050617 -0.013179613 -0.94284886
0.27025428 -2.0373871 -0.05472823 0.31721866 -0.27786046 -0.54507446 -0.033941668 0.3570258
0.70474976 -1.9930775 -0.026667152 -0.7241511 -1.7622477 -2.2064016 -0.0076166796 -0.708423
-0.72505844 1.8064871 -0.044250347 -1.9479659 0.005596606 -0.9909185 -0.12226253 -1.9801539
-0.29963142 1.9515246 -0.20809467 -0.70274466 1.0179001 -0.48466864 -0.051082924 -0.6493564

fc1.bias f4 [128]
00000000: 7d31 83c0 a6c4 e9bf efd5 16c0 2f1e 1b3f
00000010: b73b 3640 a6b4 d63f b216 69bf 34da 9dc0
00000020: a87a 2dbf cec1 3440 2ef1 5ac0 1d2f 16c0
00000030: 1cce 753e dec7 06bf db14 cbbf 1afd 31c0
00000040: f0f9 26c0 52a0 1640 d9b0 61bf 081d ba3f
00000050: 1703 50bf 2b3a 19c0 b15a 8dc0 e821 d0bf
00000060: 087a 00c0 35a4 c5c0 9026 10c0 17ba f6bf
00000070: b61d 68c0 28c6 b43d 6a00 78bf 5129 3cc0
00000080: d300 0e3f dcce 77bf d00b 85c0 7ac6 b73e
00000090: 9764 ccbd 2ed7 983f 963b 243f caa1 afbf
000000a0: 0c69 b7bf c892 b3c0 a2c9 71bf 59a1 81c0
000000b0: 0e44 38c0 3332 99bf e689 61be 8c81 f5bf
000000c0: 1ab8 1ec0 e120 1fc0 3a7e d0bf a59b c8bf
000000d0: 61f0 64bf cf5d e9bf 2a79 b3bf 824c c33f
000000e0: 2601 aebf f2b6 1c3f b126 833e 1996 6abe
000000f0: 2fb8 d13f 9cc9 88c0 fbaa c6be f57a 2240
00000100: 4f03 933e 6ffe 83c0 8b70 b6c0 5649 1cc0
00000110: d9b0 46c0 b332 2bc0 6272 e4bc 56d8 ebbf
00000120: 450a 0cbf 2266 63be 0dd0 84c0 66b6 713d
00000130: fac2 6fbf 47c8 1dc0 2f85 463f eefc f0be
00000140: 492f b9bf 1708 463f 535f 7cbf 03da abbf
00000150: fb38 0d3d d35a d03e 2545 7bbf 604d 8fbf
00000160: 5d04 58c0 2e82 afbf 12ed 31c0 ba6f 04c0
00000170: 899f 01c0 2e88 fcbf d8fa 9cbf 216a 87bf
00000180: b43e 5fc0 85d7 03c0 2a94 93c0 c1e9 e8c0
00000190: cc7e afc0 3c4b 19c0 964a 82c0 8d98 73c0
000001a0: bfc6 a1bf e0e4 b7bf 896a e73f d65c 2a3f
000001b0: 6f1b 85bf 0997 5bbf 75a3 edc0 2fd2 89be
000001c0: d049 9cbf 35cd 13bf 4e2b e2c0 73bb 47c0
000001d0: af4b a7bf ba5a 32bf 9038 d6bf f4a2 3bc0
000001e0: 647f e5bf cd87 2cc0 7c77 4640 25c3 1dbf
000001f0: b866 0cbf 74d1 823f 01bd dfbe be54 223f
-4.099791 -1.8263137 -2.3568075 0.6059293 2.8473947 1.677388 -0.91050255 -4.932886
-0.67765284 2.824329 -3.4209704 -2.3466256 0.24004406 -0.52648723 -1.586574 -2.781073
-2.609005 2.3535352 -0.88160473 1.454011 -0.81254715 -2.3941753 -4.4173207 -1.6260347
-2.0074482 -6.176295 -2.2523537 -1.927554 -3.6268134 0.08826858 -0.9687563 -2.9400218
0.5547001 -0.9680002 -4.157692 0.35893613 -0.099801235 1.1940668 0.6415342 -1.3721249
-1.4328933 -5.6116676 -0.9444829 -4.0509458 -2.8791537 -1.1968445 -0.2202526 -1.918016
-2.4799867 -2.4863818 -1.6288521 -1.5672499 -0.8942929 -1.8231753 -1.4021351 1.5257723
-1.35941 0.6121665 0.25615457 -0.2290882 1.6384333 -4.2746105 -0.38802323 2.5387547
0.28713462 -4.124809 -5.701238 -2.441976 -3.104544 -2.6749694 -0.027886573 -1.8425395
-0.5470317 -0.2220693 -4.150397 0.05901184 -0.93656886 -2.465349 0.7754697 -0.4706797
-1.4467555 0.77356094 -0.98582953 -1.3425907 0.03447817 0.40694293 -0.9815238 -1.1195488
-3.3752663 -1.3711603 -2.7800946 -2.0693192 -2.0253623 -1.9729059 -1.2264051 -1.0579263
-3.488202 -2.0600293 -4.6118364 -7.2785344 -5.484228 -2.395217 -4.0716047 -3.806186
-1.2638777 -1.4366722 1.8079387 0.66547906 -1.0398997 -0.85777336 -7.4262033 -0.2691817
-1.2210026 -0.57734996 -7.067786 -3.120816 -1.3069972 -0.6966969 -1.6736012 -2.9318209
-1.7929502 -2.6957886 3.1010427 -0.6162589 -0.54844236 1.022017 -0.43698886 0.63410556

bn1.weight f4 [128]
00000000: fb8b 843f ff73 a23f bb74 0b3f 8add 953f
00000010: f1f4 a43f 203c c4be 01dd 373f 93a9 f1bf
00000020: 0211 863f f3aa 163f 45bd 0a3f fdd5 0c3f
00000030: 95c3 803f 5bf8 193f 279c e33f 6eb1 933f
00000040: 0fb2 b6be 9607 0e40 4ecc 7d3f 2322 4c3f
00000050: af6d 363f 6f35 a63f 055b 4dbf ca10 313f
00000060: 9173 543f b831 48bf b6c7 0a3f 8a4f ae3f
00000070: 3e1e ebbe 76b6 843f 2ccf 92be fd2f 253f
00000080: c0fd f93e 06bf b13f eec4 323f 3fd9 b43f
00000090: 9dd2 fc3e a19d 923f 05ea 983e 77a6 a83f
000000a0: 5fb2 c8bf a100 8c3f b5fc 9a3f 3f9c 533f
000000b0: bbf6 cc3e 7c24 6d3f 1c66 133f 03ba 9b3f
000000c0: 76eb 823f 049d cf3f f38a 2b3f 3704 343f
000000d0: b4f2 5b3f 4813 913f 3eae 503f bc3c 83bf
000000e0: dff4 bc3e 7618 623f 2314 bf3e 758a 4d3f
000000f0: 1192 973f 4ec8 a93e 037f 2b3f 720d 823f
00000100: 52ee 59bf 36b3 5c3f b0aa 423f 4169 a53f
00000110: 9275 c53f 36e6 c33f 5fd0 8b3f 8665 863f
00000120: c24a 743f f965 2f3f 7565 223f fdd9 803f
00000130: d602 343e 5806 4e3f 6ea5 243f 1fd4 37bf
00000140: 97f2 383f b90a c23f 8582 ce3f 26f7 613f
00000150: 07eb 9f3f e99d 01bf 3cd1 ae3e 151d 333f
00000160: a8f9 773f bbbb 223f b15d 903f a77b 4f3f
00000170: 52d1 283f 3dbf 193f 861a 5b3e a986 333f
00000180: 3390 2f3f 1ef7 57bf ba43 6a3f e681 163f
00000190: 0e76 563f 2689 733f 70c4 293f fe76 ba3f
000001a0: 321f b33f 6118 7e3f bcdf 8d3f e1e5 863f
000001b0: 3449 813f 441b 69bf 80d8 6d3f 8f03 4c3f
000001c0: 721a 913f 7fdb 553f 0edc 5f3f 19f3 3a3f
000001d0: 7d62 573f 19fc e9be 96c5 463f 0964 c53e
000001e0: c6dd d23f 5468 543f e749 2b3f d096 663f
000001f0: 7bac e13e 17c3 1f3f 1465 d53e 8436 c53f
1.0355219 1.2691649 0.5447499 1.1708233 1.288725 -0.38327122 0.718216 -1.8879875
1.047394 0.588546 0.5419505 0.5501402 1.0059687 0.60144585 1.7782029 1.1538522
-0.35682723 2.219213 0.9913987 0.7973959 0.71261114 1.2985057 -0.8021701 0.69166243
0.8298884 -0.78200865 0.54210985 1.3618023 -0.4592151 1.0368183 -0.28673685 0.6452635
0.48826408 1.3886421 0.6983174 1.4128798 0.49379435 1.1454355 0.29866043 1.3175801
-1.5679435 1.0937692 1.210837 0.8266029 0.4003199 0.92633796 0.5757768 1.2166141
1.0228107 1.6219792 0.67008895 0.7031893 0.8591721 1.1334009 0.8151587 -1.025291
0.36905572 0.88318574 0.3732005 0.80289394 1.1841451 0.33160633 0.6699068 1.0160353
-0.8512927 0.86210954 0.760417 1.2922746 1.5426505 1.530463 1.0922965 1.0499732
0.9542657 0.6851497 0.6343606 1.0066525 0.17579207 0.8047843 0.64314926 -0.71808046
0.7224516 1.5159522 1.6133581 0.88267744 1.24936 -0.50631577 0.34144008 0.6996625
0.9686532 0.63567704 1.1278592 0.81048054 0.659444 0.6005743 0.21396837 0.7012735
0.68579406 -0.84361446 0.9150959 0.5879196 0.8377389 0.95131147 0.66315365 1.4567564
1.3993895 0.9925595 1.1083903 1.0538903 1.0100465 -0.9105723 0.9290848 0.7969293
1.1336195 0.8353805 0.8744515 0.7302719 0.84134656 -0.45700148 0.7764524 0.38552883
1.647393 0.8297169 0.6690964 0.9007387 0.44076905 0.6240706 0.4167868 1.5407262

bn1.bias f4 [128]
00000000: 59a3 4f3f a6ad 193f 3024 14bf dea5 333d
00000010: eab9 5e3f 07f3 90bf bbf8 223f c00a 5fbf
00000020: 7976 e33e 5f73 1ebf f1b4 543e aef5 013f
00000030: b318 27be bbae fe3d 42f6 1e3f ea0a 093e
00000040: 1102 473e 92f6 9fbd 2dc5 d63d 61c3 663f
00000050: 7376 d93e 4a79 203f 2f98 ab3e e594 aabd
00000060: 5c21 cc3d 644f 65be 8d26 ebbd f8ec a53e
00000070: 21ed 0fbf 689f 803f 064a 683f 0f4c a53e
00000080: c7a1 343f 916a 673f 90e3 8abe f4fd 583f
00000090: 7e8e 2cbd 804f 013f fa9c 63bd 5b41 ba3e
000000a0: cca4 7c3b 7ac8 563d 78bf fe3e a739 853d
000000b0: 2457 203f 3a63 65bd fe76 08be 1315 bb3e
000000c0: 25de 883e d0b0 afbe 7172 6bbe 6d49 0b3c
000000d0: 522d 433e bc69 123e 34f9 893e 8ed0 e13e
000000e0: bb9b 323e 0dd9 0cbe fb89 3c3e 0696 3cbe
000000f0: 0d47 8d3e 2318 cc3d 54f1 603e f585 96be
00000100: d5c3 83bf 5c28 bf3e 1f56 c6be f4f7 d13e
00000110: 749b 333f e640 243f 74a3 2e3e bccb 873e
00000120: ae85 13bf f984 053e 857e b8be 2763 cd3d
00000130: 383b 0d3c 0db6 a13d f28d 403f 0665 4abd
00000140: 9697 ff3a 0ab9 523e 66f7 c13e 7855 943e
00000150: 2730 8e3e 3304 70be e603 47b9 d58b ed3d
00000160: f2b2 0a3f e897 1ebf f29a d23e 1e62 17bd
00000170: e2d8 7b3e 0ac3 293f 3b9b 09bc 269e 9d3e
00000180: 137e b7be 7a93 293f 52cf 843d f325 9c3f
00000190: 44fd edbd 4d26 e33e 391d a03e 78cb 153f
000001a0: 363d 423f b4eb 053e a022 23be ee2e c43e
000001b0: 4f58 7a3f f984 19be 3081 c93e a9ff 28be
000001c0: 3977 013e bb02 40bf e2ee 10be 4bbb b73e
000001d0: bb5a 213f 0d66 bc3c 9139 113e 8d1a 8c3e
000001e0: e409 503e b67a a43e d471 24be 1702 123e
000001f0: 59f4 943e 489c 80be 48d4 5cbe 215d 0d3f
0.81108624 0.6003059 -0.5786772 0.043859355 0.8700243 -1.1324166 0.6366078 -0.8712578
0.44426325 -0.6189479 0.20772149 0.507655 -0.16318016 0.12435671 0.6209451 0.1338307
0.19434382 -0.078107014 0.10486827 0.90141875 0.42473182 0.6268507 0.33514544 -0.08329181
0.099673 -0.22393566 -0.11481962 0.32407355 -0.56221205 1.0048647 0.9073795 0.3228459
0.7055935 0.9039698 -0.2712674 0.847625 -0.04212808 0.5051193 -0.055569626 0.36377987
0.0038550375 0.052437283 0.49755454 0.06505137 0.62632966 -0.056002833 -0.13326642 0.36539516
0.26731983 -0.34314585 -0.22992875 0.008501393 0.19060257 0.14298147 0.2694794 0.44104427
0.17442219 -0.13754673 0.1841201 -0.18416604 0.2759327 0.09965541 0.2196706 -0.29399076
-1.0294138 0.3733548 -0.3873758 0.41009486 0.7015908 0.6416153 0.1705454 0.26522624
-0.57625854 0.13039006 -0.36034027 0.100286774 0.008620076 0.078960516 0.7521659 -0.04941275
0.0019500132 0.205784 0.37884063 0.28971457 0.27771112 -0.23439102 -0.00018979571 0.115989365
0.541793 -0.6195054 0.4113384 -0.036958806 0.24594453 0.6631323 -0.008398826 0.3078472
-0.35838374 0.66240656 0.06484856 1.2199081 -0.11620572 0.4436516 0.31272295 0.58513594
0.7587465 0.13078195 -0.15931177 0.38317055 0.97791 -0.14992131 0.39356375 -0.16503777
0.12643136 -0.75004166 -0.14153627 0.3588508 0.6302907 0.02299788 0.14182116 0.27364007
0.20316273 0.3212487 -0.16059047 0.1425861 0.29092672 -0.25119233 -0.21565354 0.5522023

bn1.running_mean f4 [128]
00000000: ae1f ba3f 7a12 3d40 0acd 5d41 2444 0b3f
00000010: cf0f 463f b612 2141 0400 0000 08e1 fe3f
00000020: 4456 fe40 c892 9d40 441d 4340 fc96 ee40
00000030: 8141 0f40 27b4 d63f e4a7 0140 6ebd 9440
00000040: e938 8140 6a2b 7140 cd5d 0f41 c068 7541
00000050: 2f40 b040 bf1a b03f f49c 2340 6150 cd40
00000060: a03f 5b3d 42ff 8c40 6a9d 8a41 f78e ce3f
00000070: 8a7b b740 0238 1441 6c36 3841 6560 d440
00000080: 632e f341 f6c9 903f 8ef7 da40 8a1f 7240
00000090: e318 b840 d8be 1940 bcd5 b841 618f 843e
000000a0: 20d8 a13f d9b9 5f3f 3803 4641 1122 343f
000000b0: 6bd4 953e 71ec 0a3f eb1e 1041 ef2a e03e
000000c0: 5754 223f 8711 1640 0a02 6b40 0400 0000
000000d0: 6b1c 1340 65a3 f940 d722 a840 73fc 7440
000000e0: e0d8 db3f 3703 fe40 3231 c341 62a2 a740
000000f0: a07f a441 ae07 aa41 f8c9 9b40 7c27 0840
00000100: 2fdf b240 35a7 a040 ad30 af40 843f 9840
00000110: 792f f33f c5e9 c73f c4bf fc40 0b4f b740
00000120: 6f69 b140 c345 f540 000a 6840 0f69 4e40
00000130: 0400 0000 79ac a83c 8f2d 8840 32ec 3e41
00000140: a110 ad40 cbd9 5f3f a4f4 f53f db09 5b40
00000150: f610 9c3f 54fe ad3f 0400 0000 bc8f d83f
00000160: 95cf 1d40 5a65 e641 2339 3a40 83b2 7040
00000170: 1223 a641 a372 513f 0400 0000 cb07 3e40
00000180: 9181 f240 e126 da3e 09c2 6f3f 150e 0c3f
00000190: 63ae 2c40 e977 2f40 a642 4141 88cb 9b3f
000001a0: 18d9 0c40 bddd 3f3f 716e 0741 2388 773e
000001b0: 18ef 7841 ad2e 2940 371f 0d3f c180 1440
000001c0: 4a40 703f 3419 8541 e4ce 3f40 d7d7 803f
000001d0: 464f 2941 a11b d441 42da c33f 2c9d 7d41
000001e0: f18a c13d d195 a53f eaab e541 f345 8540
000001f0: 3326 5b3f b58c 6a41 0400 0000 be4f 423e
1.4540918 2.9542527 13.862558 0.5440085 0.7736787 10.067068 6e-45 1.9912424
7.9480305 4.9241676 3.0486612 7.4559307 2.238373 1.6773728 2.0258722 4.6481237
4.038197 3.7682748 8.960401 15.338074 5.507835 1.3758162 2.5564547 6.416062
0.053527474 4.4061594 17.326862 1.613738 5.7338305 9.263674 11.513287 6.636767
30.39765 1.1311634 6.842719 3.783175 5.753038 2.4022732 23.104362 0.2589064
1.2644081 0.87392956 12.375786 0.7036448 0.29263625 0.5426703 9.007548 0.43782756
0.6340994 2.3448198 3.6719995 6e-45 2.2986095 7.8011956 5.254253 3.8279083
1.717556 7.9378924 24.399021 5.238572 20.562317 21.25375 4.8684044 2.12741
5.589744 5.020411 5.474692 4.7577534 1.8998863 1.5618216 7.898409 5.728399
5.5441203 7.664766 3.6256104 3.2251623 6e-45 0.020590054 4.2555614 11.932665
5.40828 0.874417 1.9215283 3.4224765 1.2192676 1.359324 6e-45 1.6918864
2.4657948 28.799488 2.9097373 3.7608955 20.767124 0.81815547 6e-45 2.9692256
7.578316 0.42607787 0.9365545 0.5470899 2.6981437 2.7416937 12.078772 1.2171488
2.2007504 0.7494772 8.464463 0.24173026 15.5583725 2.6434739 0.55125755 2.3203585
0.938481 16.637306 2.9970026 1.0065869 10.581854 26.51349 1.5300982 15.850872
0.09450329 1.2936345 28.708942 4.1647887 0.8560516 14.659352 6e-45 0.18975732

bn1.running_var f4 [128]
00000000: e4bb 1241 4f7d 3241 980e 6e43 650b 6840
00000010: e853 a140 10f1 3543 0400 0000 fdab 8e41
00000020: 9584 0143 1537 5942 9bd7 5b42 2128 1543
00000030: e27c 8740 3ec3 c541 4ed5 9941 9784 a542
00000040: b863 8242 ca7d 4041 cde1 2b43 796e d543
00000050: af9e 7e42 c0d3 8e41 5572 bd41 7e13 ea42
00000060: ffeb d23e ff30 2442 9d26 af43 5efb a541
00000070: 7707 b442 81c6 ca42 ed3b 7d43 c12d ce42
00000080: fe35 d843 cc00 1941 20c0 d442 b35a 9e41
00000090: c387 7342 15e4 ca41 d834 b243 7488 d03f
000000a0: 3a75 6041 ec87 be40 4a61 0a43 0b11 f040
000000b0: 43e7 3340 526c 9240 583a c342 4a5a fe3f
000000c0: 3171 a540 30e7 fb40 41cd 8c42 0400 0000
000000d0: 3212 d941 c9ed fa42 ef87 8a42 3b7c 0a42
000000e0: b6d9 1242 16d6 0743 3a07 3343 d889 fd41
000000f0: 5153 6743 8d9b f443 62e4 a842 bedb a841
00000100: 23ed ac42 f1a4 4c42 490a 9642 d57b f842
00000110: e942 6e41 ba55 8a41 0ad7 d342 4fc6 8042
00000120: 41d4 7442 ab05 5a42 01e0 3442 c1f2 0842
00000130: 0400 0000 a5d6 293d cc28 5542 ef52 7143
00000140: 8930 3d43 35ec f340 691a 7041 4832 7e42
00000150: 232a 9541 b397 9041 0400 0000 5d0a d640
00000160: d08e ae41 0e9b c043 e306 fc41 6aef 1842
00000170: 143a a443 68c5 d840 0400 0000 d2fe 2942
00000180: bc3d 2a43 750b 4640 0dcc d240 7917 1140
00000190: 884e a541 6090 1a42 20e3 4a43 7850 0b41
000001a0: ddb0 d241 4443 b840 a287 0343 9c40 7940
000001b0: 66d4 4443 d7d9 2b42 9a7e 4240 186c 0b42
000001c0: ea18 0741 3628 cc43 6b9f c741 8cde 0941
000001d0: 7a79 4543 ee30 d843 b4c6 a241 9c18 c943
000001e0: f608 813f c02c 5c41 03b9 1e43 3a8f 6642
000001f0: 40c4 1541 fbfb 3343 0400 0000 e643 3a40
9.170872 11.155593 238.057 3.6256955 5.0414925 181.94165 6e-45 17.833979
129.5179 54.30379 54.960552 149.15675 4.2339945 24.720333 19.229153 82.758965
65.19476 12.03071 171.88203 426.86307 63.654964 17.853394 23.680826 117.03807
0.41195676 41.047848 350.30167 20.747738 90.01458 101.3877 253.23409 103.08936
432.4218 9.562695 106.375244 19.794287 60.88258 25.361368 356.41284 1.6291642
14.02862 5.954092 138.38004 7.5020804 2.81099 4.5757227 97.61395 1.9871304
5.1700673 7.871971 70.40089 6e-45 27.133884 125.464424 69.265495 34.62132
36.71261 135.83627 179.02823 31.692307 231.32545 489.21524 84.44606 21.107296
86.46316 51.161076 75.02009 124.24186 14.8913355 17.291859 105.92 64.38732
61.20728 54.505535 45.218754 34.237064 6e-45 0.041464467 53.28984 241.32396
189.18959 7.622584 15.006448 63.549103 18.645575 18.074072 6e-45 6.688765
21.819733 385.21136 31.503363 38.233803 328.45374 6.7740974 6e-45 42.498848
170.24115 3.0944493 6.5874085 2.2670577 20.663345 38.64099 202.8872 8.707146
26.336359 5.758211 131.52982 3.8945684 196.82968 42.962734 3.0389771 34.85556
8.443583 408.31415 24.95284 8.616833 197.47452 432.38226 20.347023 402.19226
1.008086 13.760925 158.7227 57.63987 9.360413 179.9843 6e-45 2.9103942

fc2.weight f4 [64, 128]
00000000: 17f7 cebe 8734 98be 70cb a63d 08d5 d43d
00000010: 9a90 68be 189b 863e 02a3 81be 0d27 953e
00000020: fca5 893c b57f ab3d 9a79 2f3d fba4 9fbd
00000030: 7a0f 07be ad88 8ebc ae26 213d bb3b 54be
00000040: 5bc1 82bd 49bb 12be deef e6bd cb7c 80be
00000050: 41c2 903b 6448 d6be 1245 41be 7951 13bd
00000060: e736 dcbb 594e f2bd a366 bfbd 88b9 36bd
00000070: 7e56 553e 95f6 83be dd00 ecbb 506e e8bb
00000080: 2556 aabd 40f0 94bd 3b13 cabd cb7b 5cbc
00000090: 1281 8e3d a112 343e 2a9c c3bd db4e 9e3d
000000a0: 12cf 173d 0b7d 79bd 6bf1 8e3d 2637 a6bd
000000b0: fa42 c6be 1c13 47bd d0ed ba3e f2a5 bf3d
000000c0: 2e16 8abd 1b4b 8d3d ee5e d5bd 4f04 e13d
000000d0: 59c5 77be f69d e3be 660a 3c3d 0b6a 7a3d
000000e0: acc6 92be 5659 4a3d 5d8c 97be b643 333b
000000f0: 2710 cb3d 78a7 b1be ae2d 6cbd 5333 793e
00000100: f1f4 993e 7f57 bbbd 530a 773d 7f65 353d
00000110: 9ca3 94be c495 81be 405b d6bd 4166 d6bd
00000120: 4995 a63e 7970 bfbd 7a63 dd3d 0454 80be
00000130: 1986 a73d a46a 053d d522 fdbe 8f64 35bc
00000140: fbd8 30be 6eff 67be 5965 b73d fe47 1fbd
00000150: 4e77 8a3d 1e7d 5fbd fbbf de3c b7df 71be
00000160: d464 b73d 2ce8 9c3e cf71 cbbd 29c5 96bd
00000170: c56c efbd 84ba 95be 3251 863c b659 4abe
00000180: 2626 6f3e 3519 5cbe e172 8b3d ee44 b9be
00000190: f916 22be 5b45 d2be c29e bcbd c4c6 19bd
000001a0: 4ad7 74be c475 81bd 5eba 713d 2ded 4bbe
000001b0: f9dd a4be 7c76 e3bc 7b27 96be 2c5c dcbd
000001c0: 63df a13e d7a7 0a3e 0e76 56bd c664 40bc
000001d0: d259 11be 7b27 163e 1f74 17bd 54de 213d
000001e0: 295a c4bd 2aa3 09bd e0b3 023d 342e e5bc
000001f0: e0b3 4d3d abee 523e 04b9 563e 2e39 47bc
00000200: e9db e53d d350 27bf a107 ae3e 1c3f 043f
00000210: fa84 723f 3fd1 1a3d d9e7 493e e6d7 553f
00000220: 89f7 debf d354 c3be 06be 5f3c bd55 44bf
00000230: b5e7 f23e 2fd9 af3e e37c 87bf 96a0 203e
00000240: 70c1 d1be 458c d13e c3fb 433e 9abe d3be
00000250: 7b59 45bf 2e65 83be 99bc febe c472 043d
00000260: f324 2abe 525c 15be 3759 b0be db21 bd3f
00000270: 1fa4 723e c7ae c2bf 168f 0ebf b4fa b8bd
00000280: 076b 183f 301c 05bf b310 c53e 5bd6 30c0
00000290: 31bf a9be 130e 20bc 99e7 323d 7bc2 e0bf
000002a0: 749c 2f3d 7696 d63e 33c1 cfbd 5fa6 a33e
000002b0: 62f5 b13e 8ffd fe3e 6f21 523e 8ff0 093f
000002c0: 53b9 72be 5b72 d53e 7f63 c9be b278 853c
000002d0: 90f0 5cbe f11e 21bf 2a75 b23e 82b7 013c
000002e0: b5b0 9e3e 1349 56bd 7270 223e addb 80be
000002f0: b3ec ebbf c972 9c3d 7a85 8d3d 87bc 5b3e
00000300: c951 983e e3eb 8abb c893 a3be b142 a53e
00000310: f59f 09c0 6667 41bf 3458 06bf 6049 e43e
00000320: d3d8 d03e 39de f73e 7ebd fd3e d7f1 373f
00000330: 83ae 993c 0ba6 4cbe 6a71 3dbd 53f9 ae3c
00000340: a036 d9bc 5821 73bd ae20 a53e 97a6 bb3e
00000350: d670 a63f ac01 da3f 035f b2b9 47b4 143f
00000360: 6061 3ebf 666c eb3d 6283 493e cdbc 0a3e
00000370: cec6 933b d521 813e 07e6 60bb 686f 42bf
00000380: 2984 82bf c87c 0bbe 3783 a0bd bf93 de3d
00000390: 547c d1be 8bcb 623d b0f7 c43e be08 9fbf
000003a0: 37cf edbe 1620 a2be 08a3 123f d369 aabf
000003b0: 86bd 6fc0 7b65 ca3e 7738 1b3d fbb3 6ebf
000003c0: e2a9 b8bf edb4 d6be 8dda c13f 0d91 88bf
000003d0: 466a 3bbf f84c 903e 7078 113f 0d1d 31be
000003e0: 29c1 13be adef febc d6c1 02be 59d5 aabe
000003f0: 4538 6d3f b489 2cbf dd6f e23c a717 ff3c
-0.4042289 -0.29727575 0.081442714 0.10392195 -0.22711411 0.26290202 -0.25319678 0.29131356
0.01680278 0.083739676 0.042840578 -0.077951394 -0.13189498 -0.017399156 0.03934353 -0.2072591
-0.06384536 -0.14329256 -0.1127622 -0.2509521 0.004417688 -0.41852105 -0.18874004 -0.03596637
-0.006720412 -0.1183135 -0.09345748 -0.04461053 0.20833775 -0.25774065 -0.0072022513 -0.0070932284
-0.08317212 -0.072723866 -0.09866949 -0.013457249 0.06958212 0.17585231 -0.0955127 0.07729884
0.037062712 -0.060910266 0.069796406 -0.081159875 -0.38722974 -0.04860221 0.36509562 0.093578234
-0.06742512 0.06899091 -0.10418497 0.1098715 -0.24196376 -0.44456452 0.045908354 0.061136287
-0.286672 0.049401604 -0.29599276 0.0027353591 0.0991519 -0.3469808 -0.05766075 0.24335985
0.30069688 -0.09147548 0.06031258 0.044286247 -0.29031074 -0.25309575 -0.10466623 -0.10468722
0.3253577 -0.09347624 0.10809989 -0.250641 0.08179874 0.032572404 -0.49440637 -0.011071338
-0.17270271 -0.22656032 0.089548774 -0.038887016 0.06761037 -0.05456268 0.027191153 -0.23620497
0.08954778 0.30645883 -0.09933817 -0.07361824 -0.11690668 -0.29243863 0.016396139 -0.19760785
0.23354396 -0.2149399 0.06809021 -0.36185402 -0.15829076 -0.4106854 -0.09209968 -0.037543073
-0.23910251 -0.0632129 0.059015624 -0.19914694 -0.32200602 -0.027766459 -0.29326996 -0.10759768
0.31615743 0.13540588 -0.05235868 -0.011742776 -0.1419442 0.14663498 -0.036975976 0.03951867
-0.09587509 -0.03360287 0.031909823 -0.027976133 0.05022037 0.20598857 0.20969015 -0.012159629
0.11223585 -0.653577 0.33990195 0.516588 0.94734156 0.03779721 0.19717349 0.8353256
-1.7419292 -0.38150653 0.013656145 -0.76693326 0.47442403 0.34345385 -1.0584987 0.15686259
-0.40967894 0.4092733 0.19139008 -0.41356355 -0.7708966 -0.2566313 -0.49753264 0.03233601
-0.16615658 -0.14585999 -0.34443066 1.4775957 0.2369542 -1.5209588 -0.5568708 -0.09032193
0.5953831 -0.51996136 0.38489303 -2.7630832 -0.3315368 -0.009768981 0.0436779 -1.7559351
0.042873815 0.41911668 -0.10144272 0.3196287 0.34757525 0.49802825 0.20520566 0.5388269
-0.23703508 0.4168881 -0.39333722 0.016292904 -0.21576142 -0.6293784 0.34855014 0.007917287
0.30994192 -0.052315783 0.15863207 -0.251676 -1.843161 0.07639081 0.06910224 0.21458636
0.29749897 -0.0042395457 -0.31948686 0.32277444 -2.150388 -0.755484 -0.5247834 0.4458723
0.40790424 0.4841173 0.49558634 0.71853393 0.018759971 -0.19985215 -0.04625074 0.021359121
-0.026515305 -0.05935797 0.32251495 0.36650535 1.3003185 1.703176 -0.00034021595 0.5808758
-0.7436733 0.11495285 0.19679025 0.13548584 0.0045097833 0.25221124 -0.0034316794 -0.7595124
-1.0196582 -0.13621819 -0.07837527 0.10868024 -0.40915167 0.055369895 0.3847022 -1.2424543
-0.46447155 -0.31665105 0.57280016 -1.3313545 -3.7459426 0.39530548 0.037895646 -0.9324338
-1.4426844 -0.4193491 1.5144821 -1.0669266 -0.73209035 0.28183722 0.568244 -0.17296238
-0.14429154 -0.031120146 -0.12769255 -0.33365896 0.92663985 -0.6739762 0.027641231 0.031139208

fc2.bias f4 [64]
00000000: e1c1 89be f645 d7bd 8456 06bf 0f50 f0be
00000010: b184 26bf 9435 1ebf beb3 bdbe c67f 28bf
00000020: 2331 72bf f827 2dbe 7f91 c8be 0f9c 84be
00000030: 1ee4 5ebe 9b99 4dbe 1522 ee3d ffff 00bf
00000040: 2ccf 25bf 7e96 4b3e 9f54 78be e58e 28bf
00000050: 5335 34bf 8fd4 f9be 0ea2 9e3f 297b dabe
00000060: 19ef 76be 4e8b a6bc 5d2c 49be 3581 37be
00000070: 42fc a1bc 0ff4 6cbf d808 96be b4a8 c1be
00000080: c3e4 c8be a93b 14bf 07df cebe fa69 2ebf
00000090: 6f88 cbbe efec e2be 155f 11bf aa80 65bf
000000a0: 878f 47bf e4d6 ccbe cd15 05bf 3845 8fbe
000000b0: 6d33 cf3f c543 88be af11 7640 bf84 03bf
000000c0: 6fec 7bbe 09ed afbe d4be b640 467b 5bbe
000000d0: 4654 b43d d122 2dbf ae99 15bf 2f43 94bd
000000e0: c779 a5be 1bbd e3be 3684 05bf d30c 2cbf
000000f0: d93f b3be 9c1a acbe c384 cebe 42de f6be
-0.2690573 -0.10511391 -0.5247576 -0.4693608 -0.6504622 -0.61800504 -0.37051195 -0.65819967
-0.94606227 -0.16909778 -0.39173505 -0.25900313 -0.21766707 -0.20078127 0.116275944 -0.5039062
-0.64769244 0.19881627 -0.2425103 -0.6584304 -0.70393866 -0.48794982 1.2393205 -0.4267209
-0.24114646 -0.020330098 -0.1964583 -0.17920382 -0.019773606 -0.92559904 -0.29303622 -0.37824023
-0.3923703 -0.57903534 -0.4040453 -0.6813046 -0.39752528 -0.4432139 -0.5678571 -0.8964945
-0.7795338 -0.400077 -0.5198639 -0.27982497 1.6187569 -0.26614204 3.8448293 -0.5137443
-0.24601911 -0.3436053 5.7107944 -0.21433744 0.088051364 -0.6763125 -0.5843762 -0.07239377
-0.3231947 -0.44480214 -0.5215486 -0.6720707 -0.3500965 -0.3361405 -0.40335664 -0.48216444

bn2.weight f4 [64]
00000000: 11c8 fa3e 9eaf ff3e 8bdc 993f 95ff 1c3f
00000010: 8348 923f 5ee4 123f 6d40 ee3e ebaa ef3e
00000020: 66e8 7c3f 2f36 7c3e c9e2 b83e 0657 823f
00000030: ca29 733f 15e2 7fbd e773 583f 62fb ee3e
00000040: d32e 2b3f 60c8 1d3f 9d58 983e 2025 a43f
00000050: cd8c 543f f972 283f 25da 2c3f 8a21 853e
00000060: 89a3 0f3f 543b c73e 0ea7 3a3f 384f 383f
00000070: a411 783f 8346 ad3d 5188 0a3f 1488 963e
00000080: c3ae 3c3f addf ab3d 90a8 313f 8d9b 803f
00000090: cf78 543e e521 a6bf 9820 573e 20fa 1b3f
000000a0: 5eea e63c d125 1e3f c491 423f ec8c 113f
000000b0: d1f4 163f c249 b13e fbc0 523f aeb9 853f
000000c0: 4e5b 153f ddd2 62bd 137a 813f 0b67 ea3e
000000d0: dbdd 153f 9404 1f3f 3179 253f 19d0 2c3f
000000e0: f8ae 463f 9fc4 483f fbdd 083f eecc 03bc
000000f0: 1c6f 083f de2d 223f 6465 093f 6b3d 453f
0.48980764 0.49938673 1.2020429 0.6132749 1.1428379 0.5737971 0.46533528 0.46810088
0.9879211 0.24630044 0.36110523 1.0182807 0.9498564 -0.062471468 0.8455185 0.46676165
0.66868323 0.61633873 0.29755107 1.282383 0.83027345 0.65800434 0.6752036 0.2600215
0.5610891 0.3891245 0.72911155 0.7199588 0.9690192 0.08460715 0.5411425 0.29400694
0.73704165 0.08392272 0.6939783 1.004747 0.2074921 -1.2979094 0.21008527 0.60928535
0.028187927 0.61776453 0.7600367 0.56855655 0.5896731 0.34626585 0.82325715 1.044729
0.58342445 -0.055376876 1.0115379 0.4578174 0.5854165 0.6211636 0.6463805 0.6750503
0.7761073 0.7842502 0.53463715 -0.0080444645 0.5329454 0.6335124 0.53670335 0.7704684

bn2.bias f4 [64]
00000000: c85b 7b3e 2453 2c3c 3d0e b2be 5094 afbe
00000010: 52fe ab3e bc23 283e ec56 b6be 9318 a73e
00000020: 3cd2 b3bd c63a 15bf 95af e2bd e313 273e
00000030: 1c00 29be 158c a13d 289c 93bd 5b73 163f
00000040: 96e8 953d 034d 9e3d d7ab 613e 9840 63be
00000050: 0e7f abbe ee74 a5be d42a e23e 0bff fa3e
00000060: c09e 66be 499b 80be 2e9a 9e3d 63d5 06bf
00000070: 8ca5 e43e 26e5 b33e 0c48 adbd 3a04 c9be
00000080: f20f 983c 585f 89be b5e8 763e bb00 153f
00000090: 066d 203f c39c 7dbe 216c edbd ce31 123e
000000a0: 586b 7ebe 71eb a2be 2b2d aebe 0a6d 443c
000000b0: 3ee8 e2bd 84c4 90be d652 1cbf 59a3 733f
000000c0: ded6 933e 00b0 acbe 8439 693e fb63 10be
000000d0: d62a 0a3e e179 ccbe bf67 c43c 73ae 7bbd
000000e0: 05ec 4b3d 3514 63bf 3dc3 833d c702 113e
000000f0: b8e5 353c acb7 7dbe 55b4 6bbd 8668 b9bd
0.2454673 0.010517869 -0.34776488 -0.3429284 0.33592469 0.16419882 -0.3561319 0.32635936
-0.087803334 -0.58292806 -0.11068646 0.1631618 -0.16503948 0.07888047 -0.07207519 0.5876977
0.07319753 0.077295326 0.22038208 -0.2219261 -0.33495373 -0.32315773 0.441733 0.49022707
-0.22521496 -0.25118473 0.07744251 -0.5266935 0.44657552 0.35135764 -0.084610075 -0.39261037
0.01856229 -0.26830554 0.24112208 0.5820424 0.62666357 -0.24766831 -0.115928896 0.14276811
-0.24845636 -0.31820253 -0.34018835 0.011988888 -0.11079453 -0.2827493 -0.610639 0.95171124
0.28874868 -0.33728027 0.22775847 -0.1410064 0.13492903 -0.39936736 0.023975251 -0.061445665
0.049785633 -0.8870271 0.06433723 0.14161216 0.0111021325 -0.24777097 -0.057545025 -0.090531394

bn2.running_mean f4 [64]
00000000: 0400 0000 483d 283e 0400 0000 0400 0000
00000010: 38ee 6f3d 0400 0000 0400 0000 0400 0000
00000020: 22f8 a03c 0400 0000 0400 0000 734c 223e
00000030: 0400 0000 394d a230 0837 3240 0400 0000
00000040: 0400 0000 5f41 d540 0400 0000 0400 0000
00000050: 0400 0000 0400 0000 6437 2141 0400 0000
00000060: 0400 0000 1f59 a83f 6acb 9640 2f0c 1f3f
00000070: 791c 1440 0400 0000 3b7d 783f 0400 0000
00000080: 0400 0000 0400 0000 0400 0000 3908 413d
00000090: 0400 0000 e0d0 7d3d 0400 0000 0400 0000
000000a0: 0400 0000 ed60 0240 177e 7d3e 0400 0000
000000b0: c41c 6241 0400 0000 9f86 9441 bb11 f33e
000000c0: 0400 0000 0400 0000 3ada e641 0ee3 a23e
000000d0: ce61 b53f e704 d63d d71d a63d 8dbb 7340
000000e0: 0400 0000 f420 373f 0400 0000 0400 0000
000000f0: 0400 0000 0400 0000 21b9 483f 0400 0000
6e-45 0.16429627 6e-45 6e-45 0.058576792 6e-45 6e-45 6e-45
0.019649569 6e-45 6e-45 0.15849476 6e-45 1.1808999e-09 2.7846088 6e-45
6e-45 6.66423 6e-45 6e-45 6e-45 6e-45 10.076023 6e-45
6e-45 1.3152198 4.712331 0.62127966 2.3142378 6e-45 0.97066087 6e-45
6e-45 6e-45 6e-45 0.047126982 6e-45 0.061966777 6e-45 6e-45
6e-45 2.0371659 0.2475513 6e-45 14.132023 6e-45 18.565733 0.47474465
6e-45 6e-45 28.856556 0.31813854 1.4170473 0.10450154 0.0811116 3.8083222
6e-45 0.7153466 6e-45 6e-45 6e-45 6e-45 0.78407484 6e-45

bn2.running_var f4 [64]
00000000: 0400 0000 1eaa 1a3f 0400 0000 0400 0000
00000010: f821 b73e 0400 0000 0400 0000 0400 0000
00000020: c25c dc3d 0400 0000 0400 0000 460d 0e3f
00000030: 0400 0000 eab8 3e30 2dd4 9441 0400 0000
00000040: 0400 0000 22b1 2742 0400 0000 0400 0000
00000050: 0400 0000 0400 0000 c66a 8742 0400 0000
00000060: 0400 0000 2bf0 9d40 eec3 ef41 6ca7 3040
00000070: c3b2 1941 0400 0000 5d0a b140 0400 0000
00000080: 0400 0000 0400 0000 0400 0000 951a 5f3e
00000090: 0400 0000 d6c9 853e 0400 0000 0400 0000
000000a0: 0400 0000 3a9f 4841 fafc b03f 0400 0000
000000b0: 2bbe 7342 0400 0000 7d4e b742 ebac 3540
000000c0: 0400 0000 0400 0000 e5b1 1b43 bb1d f33f
000000d0: d413 0a41 3b5a a03e 4019 503e e0ef d441
000000e0: 0400 0000 6419 3440 0400 0000 0400 0000
000000f0: 0400 0000 0400 0000 14ee 3c40 0400 0000
6e-45 0.6041583 6e-45 6e-45 0.35768104 6e-45 6e-45 6e-45
0.1075988 6e-45 6e-45 0.55489004 6e-45 6.9384376e-10 18.603601 6e-45
6e-45 41.92298 6e-45 6e-45 6e-45 6e-45 67.70854 6e-45
6e-45 4.9355674 29.970669 2.7602186 9.606143 6e-45 5.532515 6e-45
6e-45 6e-45 6e-45 0.21787484 6e-45 0.2613055 6e-45 6e-45
6e-45 12.538874 1.3827202 6e-45 60.93571 6e-45 91.6533 2.838679
6e-45 6e-45 155.6949 1.8993448 8.629841 0.3131884 0.20322132 26.617126
6e-45 2.8140497 6e-45 6e-45 6e-45 6e-45 2.9520311 6e-45

fc3.weight f4 [2, 64]
00000000: c544 8c3e d1c8 4a3f 4c48 783e a5d3 813e
00000010: 376e c4bf 91d6 37bf 8a2e f23d 49dd f1bd
00000020: f9b2 ae3f 30f2 323f 202b 83be 401a 813f
00000030: 3957 823d 642a 083e dc99 1cbe d11a 5abe
00000040: 7f9d bcbe a71a 44bf 987b e1be 9e2c 89bd
00000050: 68b8 b53d b2ad afbe aa2b 55bf 09df 77be
00000060: d2a7 883e 5365 073f f84e 74bf 77c7 afbe
00000070: c918 313d 2ce6 38bf 2ece f3be 3774 bc3e
00000080: 3b6d d6be 1c65 d13e d6be d4be 65fd 2dbf
00000090: a37f 31bf 46cd e73f 6aca bd3e 8c64 a93e
000000a0: dde0 fa3d c4d6 213f ce53 643f 0cb6 e9be
000000b0: 43a3 0d3f 0641 80bd 7527 83bc 4d23 5fbe
000000c0: 9a04 27bd c211 083d c1e6 48bd fab3 1d3e
000000d0: d53b 44bf 4eb7 143f ccf6 20bf 1d5e 3f3f
000000e0: 48e7 6abe 79e0 a0bd aad4 00bf e836 413e
000000f0: 1a67 b6be 1d9b 353e 69d1 3c3f 752a a93e
00000100: e353 f2be fdaf 2d3e f3ed 913e 2c50 9bbe
00000110: 3fb5 e73e 02ad c23e 1add a9bd 1bd3 fdbe
00000120: 8707 e33b 1593 a7be 1f09 2abe b825 95be
00000130: 2d8e d3be 4bf7 c8be df27 98bf 452f 51bc
00000140: 0924 263f 5621 94be acb9 58be c697 953f
00000150: 8437 a93f 9024 88bf 2b6e 6fbe 5fb2 08bf
00000160: 87d8 06bf be38 683f 18aa 3ebe a14b 803f
00000170: ce90 c0bf 56fc 8a3e f900 573f c634 fdbc
00000180: da8f 00bf 230a aa3e da5c c33e ec18 d1bf
00000190: de2c 8bbc c680 453d f03e 96be 55f2 ebbe
000001a0: 5a62 0e3c 9452 be3d e1bc 0a3d fcae 7c3e
000001b0: 17f7 5a3f a23e f33e 999e 9b3f 309c c0bf
000001c0: 879c d2be 2076 e43e 4a72 af3f d96d 723f
000001d0: 7373 1cbe ffd1 f1bd 7f32 55be 813b 063e
000001e0: 2afe 93be e8f3 a03f 9282 a5bc 3eb4 4b3e
000001f0: 7f7c 1c3e e3f7 9a3c b276 19be 428d dbbe
0.27396217 0.7921267 0.24246329 0.25356784 -1.5346135 -0.7181178 0.11825283 -0.11809785
1.3648368 0.699008 -0.2561884 1.0086136 0.06364293 0.1329742 -0.15293068 -0.21299292
-0.3683891 -0.7660317 -0.44039607 -0.06697963 0.08873063 -0.34312207 -0.8326975 -0.24206175
0.26690537 0.52888983 -0.95432997 -0.34331867 0.043236528 -0.72226214 -0.4761824 0.36807415
-0.4188021 0.40897453 -0.41551846 -0.67964774 -0.69335383 1.810952 0.37068492 0.33084524
0.122499205 0.6321833 0.89190376 -0.45646703 0.5532724 -0.06262402 -0.016010026 -0.2179081
-0.040775873 0.03322006 -0.04904819 0.15400687 -0.76653796 0.580922 -0.6287658 0.7475298
-0.2293979 -0.07855315 -0.503245 0.18868601 -0.35625535 0.17734952 0.73757035 0.33040205
-0.47329625 0.16961665 0.28501853 -0.30334604 0.45255467 0.3802262 -0.08294125 -0.49575123
0.0069283876 -0.32729402 -0.16605042 -0.2913034 -0.4131941 -0.3925117 -1.1887168 -0.012767618
0.64898735 -0.28931683 -0.21164578 1.1686943 1.3220067 -1.0636158 -0.2338187 -0.5339717
-0.52674145 0.9071158 -0.18619573 1.002308 -1.5044191 0.27145642 0.8398586 -0.030908953
-0.502195 0.3321086 0.38156778 -1.633573 -0.016989168 0.04821851 -0.29344893 -0.46083322
0.008690441 0.09293094 0.033871535 0.24676126 0.8553328 0.47508723 1.2157775 -1.5047665
-0.41135046 0.44621372 1.3706753 0.94698864 -0.15278415 -0.11807632 -0.20820044 0.13108636
-0.2890485 1.2574434 -0.020203862 0.19892976 0.15281866 0.01891703 -0.14986685 -0.4288121

fc3.bias f4 [2]
00000000: d0e5 13be 20ee 96be
-0.14443135 -0.2947855

bn3.weight f4 [2]
00000000: a3e8 7e40 6dc0 713f
3.982949 0.94434243

bn3.bias f4 [2]
00000000: d1f9 123e ebfd debd
0.1435311 -0.10888275

bn3.running_mean f4 [2]
00000000: 9b3e a8c0 4246 d5c0
-5.2576423 -6.6648264

bn3.running_var f4 [2]
00000000: c0d3 3b41 bb8b 7a41
11.739197 15.659114
