p3_collab-compet/src_submission/checkpoints/checkpoint_critic_x67success.pth (torch_old, 52928 bytes, 17 tensors)

bn0.weight f4 [24]
0	0x3e6966c0	0.22793102
1	0x3f6d6831	0.9273711
2	0x3de7ac4a	0.113121584
3	0x3d056969	0.03257123
4	0x4018df33	2.388623
5	0x3faac3a4	1.3340955
6	0xbc089de6	-0.008338427
7	0xbd80cf5c	-0.06289551
8	0xbe954690	-0.29155397
9	0xbf7f6565	-0.9976409
10	0x3c07e138	0.008293442
11	0x3e7d7ef8	0.24755466
12	0x40152619	2.3304503
13	0x400040a1	2.0039446
14	0xbe41e36a	-0.18934408
15	0xbbaacecd	-0.005212641
16	0x3f780e7d	0.9689711
17	0x3fa3d524	1.279942
18	0x3df5b460	0.119972944
19	0x3f0354ad	0.5130108
20	0x405d648b	3.4592617
21	0x403b42cf	2.9259527
22	0x3e3b9ccd	0.18321534
23	0xbc1f73b1	-0.009732173

bn0.bias f4 [24]
0	0x400b10d5	2.1729023
1	0xbff1db0d	-1.8894974
2	0x40465aec	3.0992994
3	0x3ef2b1ef	0.47401378
4	0xbe4143e8	-0.1887356
5	0xbef63cd5	-0.48093286
6	0x40547bbf	3.3200529
7	0xc046d0d9	-3.106497
8	0xbf1f2928	-0.62172174
9	0x3f73dbae	0.9525708
10	0xbf5cc741	-0.8624154
11	0xbf942a8a	-1.1575482
12	0x3f516b42	0.8180429
13	0xc00b9a57	-2.1812952
14	0x3dba246c	0.09088978
15	0xbe63e447	-0.2225505
16	0x3fafad6b	1.3724798
17	0x40111a1d	2.2672188
18	0xbfe2a2cb	-1.770593
19	0xc072e675	-3.795316
20	0xc0010386	-2.01584
21	0x4008b07a	2.1357713
22	0xc083f1a1	-4.1232457
23	0x402e3e41	2.7225497

bn0.running_mean f4 [24]
0	0xc096a8ef	-4.708122
1	0xbfa8b988	-1.318162
2	0x40d959fe	6.7922354
3	0xbb4451e5	-0.002995604
4	0x3e739455	0.23787053
5	0x3ff433d0	1.9078312
6	0x40d959fe	6.7922354
7	0xbb4451e5	-0.002995604
8	0xc09a276a	-4.8173113
9	0xbfac4bb3	-1.3460602
10	0x40ea80d8	7.328228
11	0x3b0d4158	0.002155384
12	0x3e6dec4b	0.2323467
13	0x3ff78775	1.9338213
14	0x40ea80d8	7.328228
15	0x3b0d4158	0.002155384
16	0xc09e27d9	-4.942364
17	0xbfb00b98	-1.3753538
18	0x40e815be	7.252654
19	0xbbb874b4	-0.0056291465
20	0x3e6f96cd	0.2339737
21	0x3ff8bd4e	1.9432771
22	0x40e815be	7.252654
23	0xbbb874b4	-0.0056291465

bn0.running_var f4 [24]
0	0x418b60e8	17.422318
1	0x3f4e16d5	0.8050359
2	0x438909ec	274.0775
3	0x40909f38	4.519436
4	0x421fdbc9	39.964634
5	0x408dfec6	4.4373503
6	0x438909ec	274.0775
7	0x40909f38	4.519436
8	0x41889dba	17.077015
9	0x3f479631	0.7796355
10	0x438cb9bf	281.45114
11	0x40961e20	4.6911774
12	0x4226da65	41.713276
13	0x40908f47	4.51749
14	0x438cb9bf	281.45114
15	0x40961e20	4.6911774
16	0x418698a4	16.824532
17	0x3f413ef3	0.7548668
18	0x439214ce	292.16254
19	0x409e85fa	4.9538546
20	0x422f584a	43.83622
21	0x4096f6ec	4.717642
22	0x439214ce	292.16254
23	0x409e85fa	4.9538546

fc1.weight f4 [128, 24]
0	0xbd11f0fa	-0.035630204
1	0xbf55413e	-0.83302677
2	0x3f345cc8	0.7045407
3	0x400fbd1c	2.2459173
4	0x3f0aec90	0.54267216
5	0x40270454	2.6096392
6	0x3e5dd96e	0.21664974
7	0xbf4f6185	-0.8100818
8	0x3de7e2ae	0.113225326
9	0xbf001fdf	-0.5004863
10	0x3dd22e77	0.10262769
11	0xc09ceb75	-4.9037423
12	0xbdc8ea76	-0.09810345
13	0xbfcb4ec7	-1.5883416
14	0x3d9667f6	0.07344048
15	0x3edd5bbc	0.4323405
16	0xc0c6929a	-6.2053957
17	0xbeeafb7f	-0.45895
18	0xbfa884f2	-1.3165572
19	0xbf520107	-0.8203282
20	0xbdec77d2	-0.115462914
21	0x3fbe0d5b	1.4847826
22	0xbd96f73b	-0.07371374
23	0x3f28b4bd	0.65900785
24	0x3fc3b022	1.5288126
25	0x3f2af798	0.6678405
26	0xbef0eb05	-0.47054306
27	0xbeb31d09	-0.3498309
28	0x4034dadb	2.8258579
29	0x3f6a52fa	0.9153286
30	0x3e309749	0.1724521
31	0xbf918cd2	-1.13711
32	0xbfa799bc	-1.3093791
33	0x3fd1201c	1.6337924
34	0x3cb7eaa6	0.022450756
35	0x3f77128d	0.9651268
36	0xc04897f6	-3.134275
37	0x3f384f9f	0.7199649
38	0xbfec0e91	-1.8441945
39	0xbea2c6b6	-0.3179223
40	0xbf6aa757	-0.9166159
41	0x3fb612fc	1.4224544
42	0x4016c795	2.3559315
43	0x3dea237e	0.11432551
44	0xbfd2a168	-1.6455507
45	0xc0064f50	-2.0985909
46	0x3fa3b86e	1.2790658
47	0x3e066a79	0.13126554
48	0x401720cb	2.3613765
49	0xc020663a	-2.5062394
50	0x3f840c83	1.0316318
51	0x40a36f3f	5.10733
52	0xbe3a30c9	-0.18182673
53	0x3ed88814	0.4229132
54	0xc015373c	-2.3314962
55	0xc0eee7d2	-7.4657984
56	0xc0b63ce4	-5.694933
57	0xbed83192	-0.4222532
58	0x4040abf1	3.0104945
59	0xbefe4f2f	-0.49669787
60	0x3e5bf558	0.2148031
61	0xbebe2c39	-0.37143114
62	0xbfb099bc	-1.3796916
63	0xbdbd8b23	-0.09255054
64	0x4032aacb	2.7916744
65	0x4009c176	2.152433
66	0xbfe4f9b0	-1.7888699
67	0xc066ed8f	-3.6082494
68	0xbe8dab18	-0.27669597
69	0x3e5fbe17	0.21849857
70	0xc01a3b81	-2.4098818
71	0x3f54cfd3	0.83129615
72	0xbeeb5a9b	-0.45967564
73	0xbe92c1b6	-0.28663415
74	0xbe5fb344	-0.21845728
75	0xbdd423be	-0.1035838
76	0x3f96cb9b	1.1780885
77	0x3f9652ae	1.1743982
78	0xbe81b520	-0.253335
79	0x3fa4ecc2	1.2884753
80	0x3f0d40bd	0.5517691
81	0xbf858e23	-1.0434002
82	0x3ca03215	0.019555131
83	0xbf305128	-0.68873835
84	0x3eb4f29b	0.35341343
85	0x407f3553	3.9876297
86	0x3e69b7e4	0.22824055
87	0x3e003f96	0.12524256
88	0x3f7f4feb	0.9973132
89	0xbea8b8a8	-0.32953382
90	0xbfab98e0	-1.3406029
91	0x3e36046f	0.17775129
92	0xbd73ddc8	-0.05953768
93	0xbffcedfa	-1.9760125
94	0xbe8ed784	-0.278988
95	0xbdad97f0	-0.084762454
96	0xbbc412c3	-0.005983682
97	0xc09e75d3	-4.951883
98	0xbd8a1cfa	-0.06743808
99	0x3f9efa64	1.2420163
100	0xbfee6d69	-1.8627139
101	0xbecf02be	-0.4043178
102	0x3e1392c9	0.14411463
103	0xbfb6211d	-1.4228855
104	0xbc5fb482	-0.013653876
105	0x408d4ae8	4.415394
106	0xbca3a09a	-0.019974042
107	0xc04dd666	-3.2162108
108	0xbfb8e36b	-1.4444402
109	0xbf886173	-1.0654739
110	0x3e577496	0.21040568
111	0xbf267920	-0.6502857
112	0x3c235dbd	0.009971079
113	0x404b3222	3.1749349
114	0xbd29d560	-0.041463256
115	0xc01eb725	-2.4799283
116	0x402a0622	2.6566243
117	0x3f75bd8e	0.9599236
118	0x3d565320	0.052325368
119	0xbd2e2acd	-0.042521287
120	0xbf0cb5b1	-0.5496474
121	0xbfc3bf12	-1.5292685
122	0xbeb6032b	-0.35549292
123	0xbe8453fa	-0.2584532
124	0xbfc3fbef	-1.5311259
125	0xbf4ffcba	-0.81245005
126	0x3ef9ce1d	0.48790064
127	0x3ee00da5	0.4376041
128	0x3f739edc	0.95164275
129	0x402f2a54	2.7369585
130	0xbd4bd30a	-0.04976181
131	0xbfc20150	-1.515665
132	0xbfa1252c	-1.2589469
133	0xbfe7fb26	-1.812352
134	0x3e21b29c	0.1579079
135	0x3e8b0bb2	0.2715736
136	0x3cbffc89	0.023435848
137	0xbefc0579	-0.49222925
138	0x3efd8966	0.4951889
139	0x3f0a083f	0.5391883
140	0x401a24d8	2.4084988
141	0x40025afd	2.0368035
142	0xbef05e73	-0.4694706
143	0x3df7fd18	0.12108821
144	0x3fa89460	1.317028
145	0xc03be4a4	-2.93583
146	0x3eab1fca	0.3342269
147	0x4000cd8c	2.0125456
148	0x3ffb621a	1.9639313
149	0xbfc16fbb	-1.5112222
150	0x3ea1f72e	0.31633896
151	0xbfd82853	-1.6887306
152	0xbec90c5e	-0.39267248
153	0x3e05043e	0.129899
154	0xbc641fc9	-0.013923594
155	0xbfd6cb0d	-1.6780716
156	0x3faa85dc	1.3322101
157	0xbe0b2970	-0.13590026
158	0xbeea7b87	-0.4579737
159	0xbea8fc79	-0.3300512
160	0xbf2e3877	-0.6805491
161	0xbfbf241e	-1.4932897
162	0x3ec55c52	0.38546997
163	0xbf8686ce	-1.0509889
164	0xc086fbb0	-4.2182236
165	0x3f916c09	1.1361095
166	0x3df42891	0.119218
167	0x3d5b64cf	0.053562935
168	0x3e2e0618	0.16994512
169	0x3eef69ae	0.46760315
170	0xbe9817e0	-0.29705715
171	0xbf6c5e58	-0.9233146
172	0x3ef57cff	0.47946927
173	0xbf5d747f	-0.86505884
174	0xbce2a442	-0.027666215
175	0x3efe8e7a	0.49718076
176	0xc0272ea6	-2.6122222
177	0xbf3d5432	-0.73956597
178	0x3e4b4b8f	0.19853042
179	0x3f6e6a5a	0.9313103
180	0xbf561e4a	-0.8363997
181	0x3fe55ee3	1.7919582
182	0x3f039ad9	0.51408154
183	0x3d8c8ef7	0.06863206
184	0x406517cf	3.5795782
185	0x3f7d2a7c	0.9889295
186	0xbe3a5d17	-0.18199573
187	0x3f8fb194	1.1226068
188	0xbf6203ec	-0.88287234
189	0xc03ea92c	-2.9790754
190	0x3f2f13a1	0.68389326
191	0xbeb3a255	-0.35084787
192	0x40428313	3.0392501
193	0x3ebdd732	0.37078243
194	0x3e38a667	0.18032227
195	0xc08d54f3	-4.41662
196	0x3f312935	0.692035
197	0xbd8bda96	-0.06828801
198	0x3ef36853	0.4754053
199	0x4091ae54	4.5525303
200	0xbe8a7147	-0.2703955
201	0x3f730618	0.94931173
202	0xbeb2fd23	-0.34958753
203	0x3ead6150	0.33863306
204	0xbea7e8a2	-0.32794672
205	0xc002fa30	-2.0465202
206	0x408cfc87	4.405826
207	0x3eb85ae9	0.3600686
208	0xc04cc989	-3.1998007
209	0xc030486e	-2.7544208
210	0xc009c697	-2.152746
211	0x3eed24a5	0.4631702
212	0xc0266e35	-2.6004765
213	0xbe5d558e	-0.21614668
214	0xbf7c2254	-0.9848988
215	0x3ebf90b3	0.37415084
216	0x3f17ec4e	0.5934495
217	0xbf2aacac	-0.66669726
218	0xc09341ba	-4.6017733
219	0x402fa5c2	2.744492
220	0x3f654a73	0.89566725
221	0xbfab9d2f	-1.3407344
222	0x3ff19485	1.887345
223	0xbfd56828	-1.6672411
224	0x40071059	2.1103728
225	0x3fc6891d	1.5510594
226	0x3d77f205	0.060533542
227	0xbf7966ad	-0.97422296
228	0xbeed6d6e	-0.4637255
229	0x3f2db8ac	0.6785991
230	0x40a51bfe	5.159667
231	0xbe08bc07	-0.13352977
232	0xbfb0f758	-1.3825483
233	0xc0ef8389	-7.4848065
234	0xbf97ae1d	-1.185001
235	0x404bbeba	3.183516
236	0x3eadb044	0.33923542
237	0x3ee59316	0.4483878
238	0xbe492ac0	-0.19645214
239	0xc0591404	-3.3918467
240	0xbf52d571	-0.82356936
241	0x3fa34c68	1.2757692
242	0x3f50dc41	0.8158608
243	0x3e95a239	0.2922533
244	0x3fae9ef7	1.3642262
245	0xc0277cd8	-2.6169949
246	0x3a4c0978	0.00077833934
247	0xbf474473	-0.7783882
248	0xbf7bfd76	-0.98433626
249	0xbfce07e6	-1.609616
250	0xbe8bdd25	-0.27317157
251	0xbf1aeb43	-0.6051523
252	0xbdb3fb37	-0.0878815
253	0x4085e3db	4.1840644
254	0x3fa0afa7	1.2553605
255	0x3e5dd454	0.21663028

fc1.bias f4 [128]
0	0xbe94765e	-0.28996557
1	0x3dccf289	0.100071974
2	0xbe86e1b4	-0.26344073
3	0xbdf57ac1	-0.11986304
4	0x3f5a2d4f	0.85225385
5	0xbda899ad	-0.08232436
6	0x3e9e4a98	0.30916286
7	0xbf14fe32	-0.5820037
8	0x3d0a8d50	0.033826172
9	0xbcf54eda	-0.029944826
10	0xbeeb3d03	-0.45944986
11	0xbe9bc721	-0.3042536
12	0x3d30a96f	0.043130334
13	0x3e32e814	0.17471343
14	0x3dc86b70	0.09786117
15	0x3bcfe580	0.006344497
16	0xbf3380ca	-0.7011839
17	0x3f2a359b	0.66488045
18	0x3df9196e	0.121630535
19	0x3f0c7d17	0.5487837
20	0xbf39db5e	-0.7260035
21	0x3d9b52e3	0.07584169
22	0xbe5982bc	-0.21241277
23	0xbcb0a676	-0.02156375
24	0xbdb51d61	-0.08843494
25	0x3f1dd713	0.616563
26	0x3cea7c33	0.028623676
27	0x3cce6052	0.025192413
28	0xbed15680	-0.40886307
29	0xbcae6278	-0.021287188
30	0x3e04f70c	0.12984866
31	0x3ce55f33	0.027999496
32	0x3f969d28	1.176671
33	0xbe1d9fa6	-0.15392932
34	0xbe9d40f6	-0.30713624
35	0x3ed53978	0.41645408
36	0x3edfa602	0.4368134
37	0xbe6e7692	-0.23287418
38	0xbefd67e6	-0.4949333
39	0x3ebcf578	0.36906028
40	0xbe9e2cd9	-0.3089359
41	0x3e25fb08	0.16209042
42	0x3f0adc81	0.5424271
43	0x3fa47d2f	1.2850703
44	0x3df7295c	0.120684355
45	0xbf9d851e	-1.2306249
46	0x3d96d627	0.07365065
47	0x3d7920b3	0.0608222
48	0x3f204fab	0.62621564
49	0x3fce7f69	1.6132632
50	0xbed997e9	-0.4249871
51	0x3ef27151	0.4735208
52	0x3e3066aa	0.17226663
53	0x3e889f1d	0.26683894
54	0xbdb57aee	-0.088613376
55	0x3dd51c41	0.1040578
56	0xbf037203	-0.51345843
57	0xbe0d4299	-0.13794936
58	0x3ea6b885	0.32562652
59	0xbf0c21da	-0.54739153
60	0xbea00bef	-0.31259105
61	0x3f503634	0.8133271
62	0xbf89df6d	-1.0771309
63	0x3f0c6272	0.54837716
64	0x3e425f29	0.18981613
65	0x3c8e3538	0.017359361
66	0x3e524f0c	0.20537966
67	0x3d78d95b	0.06075416
68	0xbf038530	-0.51375103
69	0xbda306ef	-0.07960307
70	0x3f1299b0	0.5726576
71	0xbd85ad70	-0.06527221
72	0x3ef20cb1	0.47275308
73	0x3e735000	0.23760986
74	0x3e747381	0.23872186
75	0xbe348daa	-0.17632166
76	0x3e0fe303	0.14051442
77	0xbde2c007	-0.110717826
78	0xbc2d3b60	-0.010573238
79	0x3e388a39	0.18021478
80	0x3e8a3b6b	0.26998457
81	0xbe51cbba	-0.20487872
82	0x3edf6b40	0.43636513
83	0xbe8492bf	-0.25893208
84	0xbf1babb8	-0.60808897
85	0x3d2d15bb	0.042257052
86	0xbe621aab	-0.22080486
87	0x3f0012c0	0.5002861
88	0xbd7e418d	-0.062074233
89	0x3d8e96a6	0.06962328
90	0x3d89b57e	0.0672407
91	0xbe74ffe7	-0.23925744
92	0xbf84edba	-1.0385048
93	0x3e86fec3	0.26366243
94	0xbe1427c6	-0.14468297
95	0x3d907da0	0.07055211
96	0xbe1ac39a	-0.15113679
97	0xbe936a2b	-0.28791937
98	0x3f26a07d	0.65088636
99	0x3ef52304	0.47878277
100	0x3d4b0e3a	0.049574114
101	0x3f4ced53	0.8004963
102	0xbe45fc60	-0.19334555
103	0x3e2dee64	0.1698547
104	0xbd9a50bc	-0.0753493
105	0x3efed912	0.49774987
106	0x3e721ac3	0.23643021
107	0x400b5cd0	2.1775398
108	0x3de884ab	0.113534294
109	0xbec6a14d	-0.38794938
110	0xbec615fe	-0.38688654
111	0xbec5eccf	-0.38657233
112	0x3f20e561	0.62850004
113	0xbfaa41c7	-1.3301324
114	0xbc876285	-0.01652647
115	0xbec8f875	-0.39252058
116	0x3d3e3262	0.046434768
117	0x3eb8a8f3	0.36066398
118	0xbed871dc	-0.42274368
119	0xbddbffe0	-0.10742164
120	0x3d2fd6ee	0.042929582
121	0x3ed30b3b	0.41219506
122	0xbedbdbb2	-0.42941052
123	0xbde6384a	-0.11241205
124	0x3ff745f0	1.9318218
125	0xbdd91263	-0.1059921
126	0xbf0e89ce	-0.55679023
127	0xbe94030e	-0.2890858

bn1.weight f4 [128]
0	0xbf5e6e0e	-0.8688668
1	0x3ff239a3	1.8923839
2	0x3fd93460	1.6969109
3	0x3f88c3b8	1.0684729
4	0x400758cb	2.1147945
5	0x3fb9a043	1.4502033
6	0x4002b624	2.042367
7	0x3fd1a68b	1.637895
8	0xbfaa0804	-1.3283696
9	0x405a269e	3.408607
10	0x3fdaea10	1.710268
11	0x3fd0537a	1.6275475
12	0x3fccc234	1.5996766
13	0x3f8c3892	1.0954764
14	0x3ff17d19	1.8866302
15	0x3f9105f3	1.132994
16	0x3f9dd1a8	1.2329607
17	0x3f61d9d7	0.8822302
18	0x3fc2b7a8	1.5212297
19	0x3f30a58a	0.6900259
20	0x401baf6e	2.4325824
21	0xbfcb2ff9	-1.5874015
22	0xbff18168	-1.8867617
23	0x3f7b1a55	0.98087054
24	0x3fdffdd5	1.7499338
25	0x3f87d9d6	1.0613353
26	0x3fe5b35e	1.7945364
27	0x3f14eebb	0.58176774
28	0x400ac781	2.1684268
29	0xbc35de76	-0.011100402
30	0x3f9abf23	1.208958
31	0x3fc2f75f	1.5231742
32	0x3fddb0c1	1.7319566
33	0x3f1b21b0	0.6059828
34	0x3ff5f14e	1.9214265
35	0x3fcc5e2e	1.5966241
36	0x3f9045be	1.1271284
37	0x3fface36	1.959418
38	0x3f33141e	0.6995257
39	0x3fbd6ac8	1.4798212
40	0xbfadaadc	-1.3567767
41	0x3f99191c	1.1960788
42	0x3f92838b	1.1446394
43	0x3f98c961	1.1936456
44	0x3faa29d7	1.3294019
45	0x3fe87215	1.8159815
46	0x3f9c64e8	1.2218294
47	0x3faa6c90	1.3314381
48	0x3fd4d837	1.6628484
49	0x3fd63bc1	1.6736985
50	0x3fa688eb	1.3010534
51	0x3f30741a	0.68927157
52	0x3efba1a5	0.49146762
53	0x3f8d35c7	1.1032037
54	0x3fcfb926	1.6228378
55	0x3f57bad4	0.8426945
56	0x3f909d2f	1.1297969
57	0x3fadebe8	1.3587618
58	0x3f2ed8c0	0.68299484
59	0x3f87dda9	1.061452
60	0x3f75d01b	0.9602067
61	0x3f8ab797	1.0837277
62	0x3fd3e18e	1.6553209
63	0x3fa14566	1.2599304
64	0x3fbfd53e	1.4986951
65	0xbfc09a92	-1.5047171
66	0x3f9dba83	1.2322544
67	0x401f57db	2.4897373
68	0x3f981b3c	1.1883311
69	0x3f1f17ef	0.62145895
70	0x3fdfd49a	1.7486756
71	0x3f71ebe4	0.94500566
72	0x3ff5fbcf	1.9217471
73	0xbf8c6c96	-1.0970638
74	0xc092fa21	-4.5930333
75	0x3eeed414	0.46646178
76	0x3fc09f14	1.5048547
77	0x3fcc7fcc	1.59765
78	0x3e636ee1	0.22210266
79	0x3f90daa5	1.1316725
80	0x3f95e9a0	1.1711922
81	0x3f6c3335	0.92265636
82	0x40047c1a	2.0700746
83	0x3fa31e10	1.2743549
84	0x3fb8409c	1.4394717
85	0x3f96d87c	1.1784816
86	0x3f091b87	0.5355763
87	0x3f862dc4	1.0482717
88	0x3fb6896e	1.426069
89	0x3fea0582	1.8282931
90	0x3fd301c0	1.6484909
91	0x3fa94eeb	1.3227209
92	0x3f860eaf	1.0473231
93	0x3f434d08	0.76289415
94	0x3fabc787	1.3420266
95	0x3fd010a6	1.6255081
96	0x3fc17f1c	1.5116916
97	0x3f9c1da8	1.219655
98	0x3fbb2acf	1.4622439
99	0x3f72c387	0.948296
100	0x3f76584b	0.96228474
101	0x3fc0f986	1.5076149
102	0x3f89c5dc	1.0763507
103	0x3ff930ba	1.9467995
104	0x3f5a0db4	0.8517716
105	0x3fec93e0	1.8482628
106	0x3fba6416	1.4561794
107	0x3fb3882b	1.402593
108	0x3f024740	0.5088997
109	0x3ff2a160	1.8955498
110	0xbfb44a84	-1.408524
111	0xc07ff740	-3.999466
112	0x3f9137f4	1.13452
113	0x3ff75770	1.9323559
114	0x3f4c2acd	0.7975281
115	0x3fb1fcc1	1.3905259
116	0x3fc7127e	1.5552518
117	0x3fa8c762	1.3185847
118	0x3fcf0748	1.6174097
119	0x3fc1b09f	1.5132025
120	0x3f73ada0	0.95186806
121	0x3fc3de12	1.5302145
122	0xbf6dd7f5	-0.9290765
123	0xc0052c7a	-2.0808396
124	0x400f54c1	2.239548
125	0x3faeb779	1.3649741
126	0x3fd4b7f1	1.6618634
127	0x3f8a0268	1.0781984

bn1.bias f4 [128]
0	0xbe84ee6c	-0.2596315
1	0xc03f0aa8	-2.9850254
2	0xc072b29d	-3.7921517
3	0x3d930b0c	0.071798414
4	0xc00b19a9	-2.1734412
5	0xbfba14e4	-1.4537625
6	0xc002ce42	-2.043839
7	0xbfedbb6b	-1.857282
8	0xbffd36d5	-1.9782358
9	0xc0998d5d	-4.7985063
10	0xc02a8241	-2.6642
11	0xc07b69f0	-3.928341
12	0xbf7a04c5	-0.9766353
13	0xbf9daafa	-1.2317803
14	0xbfefc41a	-1.873172
15	0xbea395ad	-0.3195013
16	0xc009bb82	-2.1520696
17	0xbfc4ae98	-1.5365782
18	0xbfd2bc83	-1.6463779
19	0xbeff9a57	-0.4992244
20	0xbf86b187	-1.0522927
21	0xc029fe85	-2.6561596
22	0xbfbd6570	-1.4796581
23	0xbfce29f3	-1.6106552
24	0xc0160c28	-2.344492
25	0xbf426aa6	-0.7594398
26	0xc010146d	-2.2512467
27	0x3dca68bc	0.09883258
28	0xc01f07d9	-2.484854
29	0x3f394cfa	0.7238308
30	0xbeb929f6	-0.36164826
31	0xc00c3697	-2.190832
32	0xbf0e555b	-0.5559899
33	0xbd9bd831	-0.076095946
34	0xc0176f35	-2.3661625
35	0xc02d74c1	-2.710251
36	0xbee558a8	-0.44794202
37	0xbffe7821	-1.988041
38	0xbf20cd20	-0.62812996
39	0xc008918a	-2.133883
40	0xbfcedb1d	-1.6160618
41	0xbfae898f	-1.363573
42	0xc018908d	-2.3838227
43	0xbfc2daa6	-1.5222976
44	0xbf0ddc11	-0.5541392
45	0xbfb0b8f6	-1.3806446
46	0xc0068255	-2.1017048
47	0xbedec447	-0.43509123
48	0xc0456da3	-3.0848167
49	0xc016da73	-2.357083
50	0xbe969c7d	-0.29416266
51	0xbe8c91d8	-0.2745502
52	0x3f2fff5a	0.6874901
53	0xbf8f7c95	-1.1209894
54	0xbfa7a765	-1.309796
55	0xbe04248b	-0.12904565
56	0xbe3ff022	-0.18743947
57	0xc0118d7f	-2.2742612
58	0x3e07774e	0.13229105
59	0x3e81725e	0.25282568
60	0xbfc88341	-1.5665056
61	0xbe2e9890	-0.17050385
62	0xbeab9e7e	-0.33519357
63	0xbfa14dbd	-1.2601849
64	0xbf6ec325	-0.93266517
65	0xbfd281a9	-1.6445819
66	0x3ed04c12	0.40683037
67	0xbf95fbf1	-1.1717511
68	0xbfad7b32	-1.3553221
69	0x3f1421b8	0.5786395
70	0xbfdd9c02	-1.7313235
71	0xbf4f5546	-0.8098949
72	0xc0266508	-2.5999165
73	0xbf81fb12	-1.0154746
74	0xc11364e8	-9.212135
75	0x3f34756d	0.7049168
76	0xc01cba2d	-2.4488633
77	0xbfe38f46	-1.7778099
78	0x3fd4a927	1.6614121
79	0xbfc1864b	-1.5119108
80	0xbf480741	-0.7813607
81	0xbeec1642	-0.4611073
82	0xbff1ec61	-1.8900262
83	0xbfd211a7	-1.6411637
84	0xbf882799	-1.0637084
85	0xc08e5a06	-4.448489
86	0x3da04422	0.07825495
87	0xbe857042	-0.26062208
88	0xbeea8dce	-0.45811313
89	0xc0019a8c	-2.0250578
90	0xbf4ad4a2	-0.792307
91	0xbf976d84	-1.1830297
92	0xbf3c90ef	-0.7365865
93	0x3ecf44b3	0.404821
94	0xbfeb4ded	-1.8383156
95	0xbfdd50b5	-1.7290255
96	0xbf7e5afc	-0.9935758
97	0xbf061d2f	-0.5238828
98	0xbf02a224	-0.51028657
99	0xbfa3c953	-1.2795814
100	0xbf172804	-0.59045434
101	0xbf4aef35	-0.7927125
102	0xbf2f2a21	-0.6842366
103	0xc02a869f	-2.6644666
104	0x3e35ad7d	0.17741962
105	0xc04fdbc6	-3.247789
106	0xbfbea8fb	-1.4895319
107	0xbfebcc39	-1.8421699
108	0x3eeedda0	0.4665346
109	0xc02e4081	-2.722687
110	0xbe87de10	-0.26536608
111	0xc115af3c	-9.355282
112	0x3f4326c3	0.7623102
113	0xbfc15a31	-1.5105649
114	0xbe90d10a	-0.28284484
115	0xbf5a1952	-0.85194886
116	0xbf7e511d	-0.9934252
117	0xbfa28677	-1.2697285
118	0xbfc21f35	-1.5165774
119	0xbec7ae16	-0.39000005
120	0xbd21a59e	-0.039464585
121	0xbfcc88b8	-1.5979223
122	0xbf4daf6c	-0.803458
123	0xc005257e	-2.0804133
124	0xc00ff194	-2.2491198
125	0x3e7079bf	0.23483942
126	0xbd167738	-0.03673479
127	0x3f18710c	0.59547496

bn1.running_mean f4 [128]
0	0x41807807	16.058607
1	0xc100b8e6	-8.045141
2	0x428e53fe	71.16405
3	0xc18626fc	-16.769035
4	0x42193018	38.296967
5	0x40b72180	5.7228394
6	0x41f53960	30.653015
7	0xc15cae22	-13.792513
8	0xbfbc27be	-1.4699628
9	0xc20e7196	-35.610924
10	0xc1f300e8	-30.375443
11	0xc1808ec6	-16.069714
12	0x40b930b6	5.787196
13	0x4203a562	32.911507
14	0x419e1900	19.762207
15	0x3f95ca09	1.1702281
16	0xc25be882	-54.97706
17	0xc105a27c	-8.352169
18	0x3f871b0b	1.0555128
19	0x4280800e	64.25011
20	0x413b8caf	11.721847
21	0x41ca1fa9	25.26546
22	0xc0e3b6df	-7.116073
23	0x419d1b56	19.638348
24	0x418051b5	16.039896
25	0x41569abb	13.412776
26	0x400248fc	2.0357046
27	0x4196387a	18.777576
28	0x41d6c94c	26.84829
29	0x41f665b5	30.799662
30	0xc186c412	-16.845737
31	0xc19fc2d8	-19.970139
32	0x4021f260	2.5304184
33	0xc0fbe8a9	-7.872151
34	0x41d08563	26.06513
35	0xc0b417e7	-5.627918
36	0x41ba0a7d	23.255121
37	0x419aa028	19.328201
38	0x4005f014	2.0927782
39	0x40a39073	5.111383
40	0xc1a91036	-21.132915
41	0x42423648	48.55301
42	0x40f4e95f	7.6534877
43	0x42935534	73.66641
44	0x3fa9c5d8	1.3263502
45	0xc17ccba9	-15.799722
46	0xc0f02f35	-7.5057626
47	0xc18c6f98	-17.55449
48	0xc088702e	-4.263694
49	0x41c21c7b	24.263906
50	0x41b6f8f2	22.871555
51	0x42151658	37.27182
52	0x41831ef4	16.390114
53	0xc1ad4d52	-21.662754
54	0x41cbb4e1	25.46332
55	0x40215765	2.5209591
56	0xbe19f657	-0.15035377
57	0xc132fd8f	-11.186904
58	0xc2269c37	-41.652554
59	0x4018de70	2.3885765
60	0xc1af9aae	-21.950527
61	0x42311c04	44.27736
62	0x41b32c6d	22.396692
63	0x41d11cca	26.139057
64	0x41b8bd35	23.092386
65	0xc11c8bbc	-9.784115
66	0x3f25938a	0.6467825
67	0x414a5722	12.646273
68	0xc155c72a	-13.361124
69	0x409c020c	4.87525
70	0x41773437	15.450248
71	0xc25d7b8e	-55.37066
72	0xc1dabd81	-27.342531
73	0xc1d4b45c	-26.588066
74	0x4178d752	15.552568
75	0x407c8a88	3.9459553
76	0x40fbea47	7.8723483
77	0xc1b8d763	-23.10517
78	0xc00923f7	-2.1428201
79	0x41191f2e	9.570112
80	0x40c8be55	6.273234
81	0x4062bd8c	3.542819
82	0x41de9e5c	27.827324
83	0xc1c18e7f	-24.194578
84	0x41edcf71	29.72629
85	0x416ab6ad	14.669599
86	0xc1fc5c77	-31.545149
87	0x4072c533	3.793286
88	0xc0df0892	-6.969796
89	0xc1fdaedf	-31.710386
90	0xc11ae3ad	-9.680585
91	0x3f9b9f6e	1.2158029
92	0x420b2bf2	34.792915
93	0x40f52654	7.6609287
94	0x4186ee5b	16.866385
95	0x3ef07d45	0.46970573
96	0x4049ff69	3.156214
97	0x3f27294f	0.65297407
98	0x419c1630	19.510834
99	0xc149cad4	-12.612019
100	0x41850b6b	16.630575
101	0xc14d7e47	-12.843329
102	0x3face626	1.3507736
103	0x42379c6c	45.902756
104	0x40c50d6d	6.157889
105	0xc1acdb8d	-21.607203
106	0xc0a915f9	-5.283932
107	0x413e653c	11.899715
108	0xc20a8bfe	-34.63671
109	0x3f19ddd9	0.6010414
110	0x3f3169c0	0.69301987
111	0xc281dc08	-64.92975
112	0x40f32eb8	7.599453
113	0x41871436	16.884869
114	0x41e02522	28.018131
115	0x40d71731	6.721581
116	0xbfbb484b	-1.4631437
117	0xc0a38ccb	-5.1109366
118	0xc1b50b92	-22.63065
119	0xc083b3d5	-4.115702
120	0x4096ef92	4.7167444
121	0xc1c33166	-24.39912
122	0x41bb2d34	23.397072
123	0x40c2cfbc	6.087858
124	0x4263b019	56.92197
125	0xc0821904	-4.0655537
126	0xbe9bf34f	-0.30459067
127	0xc19ef8b8	-19.871445

bn1.running_var f4 [128]
0	0x4247049e	49.75451
1	0x42721d60	60.528687
2	0x41caf681	25.370363
3	0x4225c520	41.442505
4	0x41e0e319	28.110888
5	0x41fa712c	31.30526
6	0x429315a1	73.542244
7	0x42778d56	61.888023
8	0x430749cf	135.28831
9	0x43166c9e	150.42429
10	0x42d8a583	108.323265
11	0x42d69b9f	107.30395
12	0x41862697	16.768843
13	0x41cfdd26	25.982983
14	0x430a74f6	138.45688
15	0x42b2c948	89.39313
16	0x41897074	17.179909
17	0x42b6496f	91.143425
18	0x42439b95	48.901936
19	0x4205c837	33.445522
20	0x428dc1ec	70.87875
21	0x42668d7a	57.63816
22	0x418b6f86	17.429455
23	0x43885ba4	272.71594
24	0x42df7dce	111.74571
25	0x429255ce	73.16759
26	0x430a2240	138.13379
27	0x429ace59	77.40302
28	0x42ec3fc6	118.12456
29	0x429a6032	77.18788
30	0x42996a43	76.70754
31	0x41ab4857	21.410322
32	0x40d18a6c	6.548147
33	0x42c30edd	97.52903
34	0x41e69b42	28.82581
35	0x42912a2b	72.58236
36	0x4180e72c	16.112877
37	0x426c4960	59.071655
38	0x41c374ac	24.431969
39	0x4291d503	72.91604
40	0x41fec415	31.845743
41	0x4224a2b5	41.158894
42	0x420445d8	33.068207
43	0x4284b655	66.35612
44	0x412dd498	10.864403
45	0x41c6b68f	24.83914
46	0x4224ad96	41.169518
47	0x41df788b	27.933859
48	0x41b6a7af	22.831877
49	0x416d7838	14.84185
50	0x41e6a987	28.832777
51	0x4191d154	18.227211
52	0x421e9788	39.64798
53	0x42272054	41.78157
54	0x42651368	57.26895
55	0x41bccc2a	23.59969
56	0x416df9b9	14.873467
57	0x4206e7fb	33.726543
58	0x4272a888	60.66458
59	0x41c0b61e	24.088924
60	0x420479a2	33.118782
61	0x41938ca6	18.443676
62	0x4135c442	11.3604145
63	0x41e87ef5	29.06199
64	0x4100ea03	8.057132
65	0x422c6902	43.102547
66	0x41def984	27.871834
67	0x430f3d54	143.23956
68	0x42781547	62.02078
69	0x41b2ffe4	22.374947
70	0x420bf79c	34.991806
71	0x41d13db0	26.15512
72	0x435548e3	213.28471
73	0x429fbde2	79.870865
74	0x415fb9a1	13.98282
75	0x4270d597	60.208584
76	0x41dfdc97	27.98271
77	0x43b2fa55	357.95572
78	0x4257580b	53.83598
79	0x42698423	58.37904
80	0x4303c187	131.75597
81	0x4232d8b9	44.711643
82	0x41f06b87	30.052504
83	0x41c3be67	24.46797
84	0x4120f348	10.059395
85	0x420ba674	34.91255
86	0x42331b66	44.776756
87	0x4211a239	36.40842
88	0x41f11bb2	30.138523
89	0x429066e6	72.20097
90	0x4258032f	54.00311
91	0x43213ae0	161.22998
92	0x418546e6	16.659618
93	0x4228a375	42.159626
94	0x4225865c	41.38121
95	0x4273234e	60.784477
96	0x4125d895	10.365376
97	0x41f80c08	31.005875
98	0x41941440	18.509888
99	0x4254ccae	53.199883
100	0x42d12ee2	104.59157
101	0x426e9427	59.64468
102	0x42742ba2	61.04261
103	0x42937f05	73.748085
104	0x43209d03	160.61333
105	0x43bb862a	375.04816
106	0x42e29e38	113.30902
107	0x420ef490	35.73883
108	0x438afafa	277.96075
109	0x4369064b	233.02458
110	0x4112a968	9.166359
111	0x41bc4045	23.531382
112	0x411969ef	9.588363
113	0x4291d039	72.906685
114	0x41744826	15.267614
115	0x409fd4ab	4.9947104
116	0x41f2933f	30.321898
117	0x418ca17a	17.578846
118	0x42f25c69	121.18049
119	0x41d095d6	26.073162
120	0x41571792	13.443254
121	0x426dbbc9	59.433384
122	0x41d8bfe1	27.09369
123	0x426fe9f9	59.97849
124	0x420427fe	33.039055
125	0x418f63e1	17.923769
126	0x40f1a7e4	7.5517445
127	0x413954af	11.583175

fc2.weight f4 [64, 130]
0	0xbf2badc7	-0.6706204
1	0x3f640656	0.8907217
2	0x406cb196	3.698339
3	0xbf9b484a	-1.2131436
4	0xc000c147	-2.0117967
5	0xc059acb6	-3.4011664
6	0x3fe444da	1.7833512
7	0xbf5e12dd	-0.86747533
8	0xbf11a2c8	-0.5688901
9	0x401f760b	2.4915798
10	0x408d8993	4.4230437
11	0x40bd95d0	5.9245377
12	0xbf913eaf	-1.1347255
13	0xbfbd5e60	-1.4794426
14	0xc0bab160	-5.834152
15	0xbf0ae508	-0.54255724
16	0x3fa7b01a	1.3100617
17	0xbdddcc93	-0.10830035
18	0x3f9805a9	1.1876727
19	0x3f68609b	0.9077241
20	0x3dc6a29f	0.09698986
21	0xbfa2f7f7	-1.2731923
22	0x3ffdd2e6	1.9829986
23	0x3c7e3d8f	0.015517606
24	0x3e19bcc5	0.15013416
25	0xbf83168a	-1.0241253
26	0x3f95494d	1.1662995
27	0xc01f49c8	-2.4888783
28	0x404b3a69	3.17544
29	0xbdeb914b	-0.11502322
30	0x3ffea08e	1.9892747
31	0xc041b0c6	-3.0264144
32	0xbf4720d6	-0.7778448
33	0x400cf376	2.2023597
34	0xbf251b81	-0.6449509
35	0xbf9f508c	-1.2446456
36	0x3f88af96	1.0678585
37	0xc04ba270	-3.1817894
38	0x3d6d36e7	0.057913687
39	0x3d1fb1e7	0.03898802
40	0xbef9a521	-0.48758796
41	0x3ebafc20	0.3652048
42	0xbe9a109a	-0.3009079
43	0xbf0b8800	-0.54504395
44	0xc01e03d5	-2.468984
45	0x3f8a7df6	1.081969
46	0xbded264e	-0.11579572
47	0x3d72c4f0	0.059269845
48	0xc020e4d0	-2.5139656
49	0x400052fa	2.0050645
50	0x400c6967	2.1939332
51	0x3eb9dc3e	0.36300844
52	0xbf5ff490	-0.8748255
53	0x3f3e133a	0.7424809
54	0xbf648624	-0.8926718
55	0xbe0a7c6a	-0.13524023
56	0xbec8e563	-0.39237508
57	0xbf042801	-0.5162354
58	0x3f145776	0.57945955
59	0x3e401451	0.1875775
60	0x3f33d38a	0.7024466
61	0x3e8339fe	0.25630182
62	0x3fcc6efb	1.5971369
63	0xbee7808e	-0.45215267
64	0xc0155e4a	-2.33388
65	0xbf64704a	-0.8923384
66	0x403b8f19	2.930609
67	0x3e423d5d	0.1896872
68	0xbf05e38d	-0.5230034
69	0xc082330a	-4.0687304
70	0x3f8f32c7	1.1187371
71	0xbed0dcea	-0.40793544
72	0x3f5befdd	0.8591288
73	0xbf3d5c90	-0.73969364
74	0xbfdfb425	-1.7476851
75	0x3f93c8c9	1.154565
76	0x3faa4b22	1.3304179
77	0xc04b8abb	-3.1803424
78	0xbf96ffa0	-1.179676
79	0xbd88d064	-0.06680372
80	0x3f405593	0.75130576
81	0x3e99626e	0.29957908
82	0xc0c69716	-6.205943
83	0xbe6ec99e	-0.23319098
84	0xbebd4e07	-0.36973593
85	0x407375f3	3.804074
86	0xbfb8511f	-1.4399756
87	0x3f67ac6e	0.9049748
88	0x3eb1305b	0.34607205
89	0x3fc6b353	1.5523475
90	0x3ed56957	0.4168193
91	0x3f830c85	1.0238196
92	0x3feb0a28	1.8362474
93	0xc02f51f8	-2.739378
94	0xbece5831	-0.4030166
95	0x3fde96a2	1.738972
96	0x3e9f7d8f	0.3115048
97	0x3e214d08	0.15752041
98	0x401ae5b6	2.4202704
99	0xbeac273e	-0.3362369
100	0xbf66310a	-0.8991858
101	0xbfb51ee6	-1.4150054
102	0xbdb6c6f7	-0.08924668
103	0xc089b10b	-4.3028617
104	0x3f68af66	0.90892637
105	0xc0486773	-3.131314
106	0xbe5551db	-0.20832007
107	0xba9a5518	-0.0011774627
108	0x3dd2fe83	0.103024505
109	0x40112d81	2.2684023
110	0xbf470b8a	-0.7775198
111	0x3ed56902	0.41681677
112	0xbfe40688	-1.7814493
113	0x3f261bd3	0.64886206
114	0x3fc3a784	1.5285497
115	0xc0241e6e	-2.5643573
116	0xc00e6223	-2.2247398
117	0x3e2f588e	0.17123625
118	0x4029075b	2.641074
119	0xbe15a2e5	-0.1461292
120	0xbee8d5bd	-0.4547557
121	0xbffb5837	-1.9636296
122	0x3dad8e8c	0.08474454
123	0x3fdd4998	1.7288084
124	0xc0c115a4	-6.0338917
125	0x400c0e81	2.1883852
126	0x403ec483	2.9807441
127	0xc015d6cc	-2.3412352
128	0xbd9964db	-0.0748994
129	0x3e8d01a3	0.2754031
130	0xbf9ee569	-1.241376
131	0xc04adc11	-3.1696818
132	0xc051349e	-3.2688365
133	0x3d9db5bc	0.07700679
134	0x400658cf	2.0991704
135	0xc0034f74	-2.0517244
136	0xbf1345d1	-0.57528406
137	0xbf8dd78a	-1.1081402
138	0x406b198f	3.673435
139	0x408d4fe8	4.416004
140	0x40adf13f	5.435699
141	0xc02f642d	-2.7404892
142	0xbec8dc76	-0.39230698
143	0x3cc66ca7	0.024221731
144	0x3ee60e49	0.44932774
145	0xbf11acb8	-0.5690417
146	0x3feade11	1.8349019
147	0x3f971de5	1.1805998
148	0xc083409b	-4.1016364
149	0xbed62e52	-0.41832215
150	0xbf054cef	-0.52070516
151	0xc0b9050f	-5.7818675
152	0xbfab8651	-1.3400365
153	0xbf76c1ba	-0.96389353
154	0x3f79bb8c	0.975518
155	0xbf79fe30	-0.97653484
156	0xc02368f5	-2.553281
157	0x3f856ec1	1.0424424
158	0xbeea6186	-0.4577753
159	0x3dc58efb	0.09646412
160	0xbf4cb1d0	-0.7995882
161	0xc00737ef	-2.112789
162	0xbfa7f3eb	-1.3121313
163	0xbef4f4c6	-0.47842997
164	0xbf63f001	-0.8903809
165	0xc08a1050	-4.3144913
166	0x3fe5427c	1.7910914
167	0xbfb537a1	-1.4157602
168	0xbf4d1581	-0.8011094
169	0xc0aac0dc	-5.3360424
170	0x405aae22	3.4168782
171	0x3d4e4a8c	0.050364062
172	0xbe567e23	-0.20946555
173	0x405cdbf5	3.450925
174	0xbeb72be2	-0.35775667
175	0xbd4dfd4d	-0.050290395
176	0x3fbde3ef	1.4835185
177	0x3ea7cb8a	0.32772475
178	0x40821fd2	4.0663843
179	0xc089eb21	-4.3099523
180	0x3fdacebe	1.7094343
181	0x3f8b671e	1.0890844
182	0xc0129b0f	-2.290714
183	0x3eb520d5	0.3537661
184	0xbf39080d	-0.7227791
185	0x40414b80	3.0202332
186	0xbf43ae70	-0.76438046
187	0x3ebb7f4c	0.36620557
188	0x3f5a90e2	0.85377324
189	0xc0222c87	-2.5339677
190	0xbf3e6b26	-0.74382246
191	0xbf9ef85a	-1.2419541
192	0xbf0a99db	-0.54141015
193	0x3e5b20c2	0.21399215
194	0x4046d0ed	3.1065018
195	0x3f3cfbdf	0.73821825
196	0xbeea406b	-0.45752272
197	0xbf182f71	-0.5944739
198	0xbf736b06	-0.9508518
199	0xbe8a06ce	-0.26958317
200	0x3f197eff	0.59959406
201	0xbfc87b55	-1.5662638
202	0x4010d372	2.2629056
203	0xbf16561e	-0.58725154
204	0xc0108c6f	-2.2585714
205	0x3f6b7e8c	0.9198997
206	0x3f11f508	0.57014513
207	0xbf6810e4	-0.90650773
208	0x3e3fc624	0.18727928
209	0x40020e83	2.0321357
210	0xbe654765	-0.22390516
211	0x3f965cd0	1.1747074
212	0xc057b139	-3.3701918
213	0x400c0eb6	2.188398
214	0x3f052589	0.520104
215	0xbff88d9d	-1.9418217
216	0x3f81aaf2	1.0130293
217	0x3e3e6a59	0.18595256
218	0x3ef34d1a	0.4751976
219	0xc016dfcb	-2.3574092
220	0x40094779	2.1449873
221	0x402e5d74	2.724454
222	0x408fef3a	4.4979525
223	0x3fe5d017	1.7954129
224	0xbe422bd6	-0.18962035
225	0xbfa419f5	-1.2820421
226	0x402bb9f3	2.6832244
227	0x3f38ab57	0.72136444
228	0xbea466ae	-0.32109588
229	0x3fe5b0e9	1.7944614
230	0x3f2d4d1b	0.6769578
231	0xbfac30d9	-1.3452407
232	0x3e523abb	0.20530216
233	0xbfad66ab	-1.3546957
234	0x3f5a1d4e	0.85200965
235	0x405f2995	3.486913
236	0x3e8f46a6	0.27983588
237	0x3fefd9e3	1.8738369
238	0x3e8a6777	0.27032062
239	0xbfe6bd16	-1.8026454
240	0xbf8de86c	-1.1086555
241	0xc0848f24	-4.142473
242	0xbfd14ea3	-1.6352123
243	0xbf736740	-0.9507942
244	0x400d8ec7	2.2118394
245	0xbf8ca4f8	-1.0987844
246	0xbf08ac91	-0.53388315
247	0x3fd29e3a	1.6454537
248	0x3edc46a9	0.4302266
249	0x3dbb2558	0.09137982
250	0xbff59165	-1.9184996
251	0xbf67ee13	-0.9059765
252	0x40222789	2.533663
253	0x408437fe	4.131835
254	0x409131e8	4.537342
255	0x3f9134d8	1.1344252

fc2.bias f4 [64]
0	0xbf158e73	-0.58420485
1	0xbf2b63c8	-0.6694913
2	0xbeaded13	-0.33969936
3	0x3e591bb9	0.21201982
4	0x3de9dcd2	0.11419071
5	0x3e152da9	0.14568199
6	0x3ebe23f7	0.37136814
7	0xbe698397	-0.22804104
8	0x3f740670	0.9532232
9	0x3e161137	0.14655004
10	0xbc9ef465	-0.019403646
11	0x3e2e4233	0.1701744
12	0xbf13d63c	-0.5774877
13	0x3ec99190	0.39368868
14	0x3d8b0a4e	0.06789075
15	0xbe327f87	-0.1743146
16	0x3e97da2f	0.29658648
17	0xbc5ed11f	-0.013599663
18	0xbe9e5437	-0.30923626
19	0x3e3e67fa	0.18594351
20	0x3d9cb38b	0.076514326
21	0xbd9edb9f	-0.07756733
22	0xbed8f0ee	-0.42371315
23	0xbc9da223	-0.019242352
24	0xbf0c47d5	-0.54797107
25	0x3eea132f	0.4571776
26	0xbeaa46bd	-0.33257094
27	0xbe246f7c	-0.16058153
28	0xbd2fbd76	-0.042905293
29	0x3e8d2489	0.27566937
30	0x3de214fd	0.110391594
31	0x3e7e03b8	0.24806106
32	0xbd9dd016	-0.07705705
33	0x3e7dc562	0.24782327
34	0xbd9ba334	-0.07599488
35	0xbe9262ba	-0.28590947
36	0xbef96ebf	-0.48717305
37	0x3e588fa8	0.2114855
38	0x3ee6f2d2	0.45107132
39	0xbf4050bf	-0.7512321
40	0x3ec26d7c	0.37974155
41	0x3c2a94d9	0.010411465
42	0x3e1833e2	0.14863542
43	0x3eb8bc46	0.3608114
44	0x3dd952f3	0.106115244
45	0x3e5404b4	0.20704919
46	0x3ea15879	0.31512812
47	0x3f183bf7	0.594665
48	0x3e8c5c66	0.27414244
49	0xbd847057	-0.064667396
50	0x3e4dac12	0.20085171
51	0xbea2e5fd	-0.31816092
52	0x3f106839	0.5640903
53	0x3f1518e6	0.58241117
54	0xbe9bd1e3	-0.30433568
55	0x3e9fc2eb	0.31203398
56	0xbf2c24a6	-0.6724342
57	0xbe88aa12	-0.26692253
58	0xbe8ad770	-0.2711749
59	0x3bfeb23b	0.0077727116
60	0xbc0376a7	-0.008023894
61	0x3d920e25	0.07131604
62	0xbf8dbdaf	-1.1073512
63	0x3eb368dd	0.35040942

bn2.weight f4 [64]
0	0x422b3e1b	42.81065
1	0x4260ca06	56.19729
2	0x4259b034	54.422073
3	0x4208a9c2	34.16578
4	0x4278973d	62.147694
5	0xc216ad7a	-37.66941
6	0x41ecc6a4	29.596992
7	0x4284e927	66.455376
8	0x420c1902	35.02442
9	0x41ea1f1e	29.265194
10	0x4213aff6	36.921837
11	0x41efb175	29.961649
12	0x42060aa1	33.51038
13	0x4213d007	36.95315
14	0x421ed06b	39.703533
15	0x41d7a739	26.956652
16	0x427f055b	63.75523
17	0x421e0160	39.501343
18	0x4217e5ee	37.97454
19	0x42153738	37.303925
20	0x420d99b6	35.40011
21	0x420e75cc	35.615036
22	0x426a8c1a	58.636818
23	0x428d7142	70.72121
24	0x421eb27e	39.67431
25	0x42142171	37.032658
26	0x420893ea	34.144447
27	0x42299e9d	42.404896
28	0x42073a49	33.80692
29	0x42146841	37.10181
30	0x42064f4d	33.577442
31	0x42857da5	66.7454
32	0x41f8affa	31.085926
33	0x4210112a	36.01676
34	0x421037e4	36.05458
35	0x41e28bd4	28.318275
36	0x42074ca4	33.824844
37	0x420ab626	34.67788
38	0x427a0a64	62.510147
39	0x42004e0f	32.07623
40	0x427e8d89	63.638218
41	0x42197c29	38.37125
42	0x42879b64	67.8035
43	0x425ea1f0	55.658142
44	0x41ea09fc	29.254875
45	0x427da035	63.406452
46	0x426c8999	59.134373
47	0x420507ee	33.257744
48	0x421506e7	37.25674
49	0x420fb8e7	35.93057
50	0x4236b1b1	45.673527
51	0x420b3b02	34.807625
52	0x42981981	76.04981
53	0x41e72bfc	28.896477
54	0x42450ecc	49.26445
55	0x425c026c	55.002365
56	0x426180f9	56.37595
57	0x4227ab09	41.917027
58	0x41ea52ff	29.290525
59	0xc1f01d9a	-30.014454
60	0x4262b0a1	56.67249
61	0x422791b7	41.8923
62	0x42279f55	41.905598
63	0x427ac32b	62.690594

bn2.bias f4 [64]
0	0xc201d0ef	-32.454037
1	0xc0a71deb	-5.222402
2	0x426e8004	59.625015
3	0xc1e2c2ce	-28.34512
4	0x422567a6	41.35122
5	0xc1a2ac39	-20.334093
6	0xc2103cfe	-36.059563
7	0x4162b37a	14.1688175
8	0xc2042dd9	-33.044773
9	0xc1fdbf24	-31.71833
10	0xc1b330b0	-22.398773
11	0xc2161f2f	-37.530453
12	0xc188d90a	-17.105976
13	0xc1c9283b	-25.144644
14	0xc180593f	-16.043577
15	0xc1c38e33	-24.444433
16	0x4198872b	19.066
17	0xc12382af	-10.219405
18	0xc2639a2f	-56.90057
19	0xc16aafb1	-14.667893
20	0xc1a4fce4	-20.623482
21	0xc1d88a96	-27.067669
22	0xc216ec2e	-37.730644
23	0x42558ac8	53.38553
24	0xc1cb9b2b	-25.450766
25	0xc1cc95d4	-25.573158
26	0xc19b6e39	-19.42882
27	0x426c0513	59.004955
28	0xc1f62feb	-30.773397
29	0xc1a5a841	-20.707155
30	0xc1c3d2fc	-24.47802
31	0x40f877de	7.764632
32	0xc22f311c	-43.79796
33	0xc1d614ed	-26.760218
34	0xc1ad2c01	-21.646486
35	0xc205351f	-33.301876
36	0xc20cdec9	-35.217564
37	0xc209165a	-34.271828
38	0x413fa44d	11.9776125
39	0xc2207edb	-40.123882
40	0x41a426a1	20.518862
41	0xc1749a8b	-15.28773
42	0x4236be92	45.686104
43	0x424fdfc4	51.96852
44	0xc227ce8e	-41.951714
45	0xc16fb14f	-14.980788
46	0xc196b742	-18.839481
47	0xc1b20cc0	-22.256226
48	0x428479cb	66.23788
49	0xc1a43c57	-20.529463
50	0xc1996dbd	-19.178583
51	0xc2491584	-50.27101
52	0x412c1d59	10.757165
53	0xc1f67252	-30.80582
54	0x426f1fd0	59.781067
55	0x414d907d	12.847775
56	0xc14a2a4f	-12.635329
57	0xc2279026	-41.89077
58	0xc1ea0358	-29.251633
59	0xc2007e21	-32.123173
60	0x4278117b	62.01707
61	0xc16fa20d	-14.977063
62	0xc20d6764	-35.350967
63	0xc1cfb23b	-25.962027

bn2.running_mean f4 [64]
0	0xc0bf2567	-5.9733157
1	0xbee98b9b	-0.45614323
2	0x403db4fa	2.964171
3	0xbf2f889b	-0.6856782
4	0x4106c0aa	8.422037
5	0x4098a9c7	4.770725
6	0x40aeb249	5.4592633
7	0xbffd97e5	-1.981198
8	0xc03e65c2	-2.9749608
9	0x40c1f0b7	6.060634
10	0xbf51c379	-0.8193889
11	0x4086cb90	4.212349
12	0xc08ddefc	-4.43347
13	0xc06ffb68	-3.7497196
14	0x3f8c44a7	1.0958451
15	0x3fb5bb7e	1.4197843
16	0x4011a70b	2.2758205
17	0xbff7026a	-1.9297612
18	0x3e82b72b	0.2553037
19	0xc026debe	-2.607345
20	0xc0157450	-2.3352242
21	0x407a445a	3.9104218
22	0xc085145a	-4.1587343
23	0x400bbdb3	2.1834533
24	0xbc440114	-0.011963148
25	0x3f56eb27	0.83952564
26	0x3f948c30	1.1605282
27	0xc067f37e	-3.6242366
28	0xbf620f13	-0.8830425
29	0x3f159663	0.58432597
30	0xbf323255	-0.6960805
31	0xc11c7f5e	-9.7810955
32	0x3fc1d20f	1.514223
33	0xc0019aa7	-2.0250642
34	0x3f3e3230	0.7429533
35	0x3f1c981f	0.6116962
36	0x3f819239	1.0122749
37	0xc0aff3a7	-5.4984927
38	0xbf5d1a2f	-0.8636808
39	0x4016c68e	2.3558688
40	0xbeabde15	-0.33567873
41	0xc09af4b8	-4.842373
42	0xbf3711a6	-0.71511304
43	0xc124f05f	-10.308684
44	0x3da92073	0.08258142
45	0x3f8e2219	1.1104156
46	0x3f853326	1.0406234
47	0xc062c909	-3.5435202
48	0x411e14d8	9.880089
49	0xbf372fb8	-0.7155719
50	0x3f6cce9a	0.9250275
51	0x3f834e92	1.0258353
52	0xc051bd3b	-3.2771747
53	0xc08d9c5f	-4.4253383
54	0xbf75d99a	-0.9603516
55	0xbfe4cfe8	-1.7875948
56	0xc030feff	-2.7655637
57	0xc09a16ca	-4.815282
58	0xbfa63a90	-1.2986622
59	0x3fbe8dd5	1.4887034
60	0x3fdf47cf	1.7443789
61	0xc02b9a27	-2.6812837
62	0xc0a8e1ba	-5.2775545
63	0xbf66ae74	-0.90109944

bn2.running_var f4 [64]
0	0x4099b62c	4.803488
1	0x4193a67e	18.456295
2	0x42102852	36.039375
3	0x41160f3e	9.378721
4	0x420859d2	34.087715
5	0x4170665e	15.024992
6	0x416e2c2c	14.885784
7	0x41844da2	16.537907
8	0x40a9e109	5.30872
9	0x413343b0	11.204025
10	0x40ee844c	7.4536495
11	0x41723bf9	15.139642
12	0x41258299	10.344384
13	0x40b4f4e0	5.654892
14	0x40d6557e	6.697936
15	0x416d06c5	14.814153
16	0x419cfa0a	19.62209
17	0x410ab30f	8.6687155
18	0x410522cb	8.320994
19	0x41174525	9.454381
20	0x41259550	10.348953
21	0x41842b40	16.521118
22	0x4093dee3	4.620958
23	0x42467200	49.61133
24	0x40b2f368	5.5922127
25	0x40d4fb41	6.6556706
26	0x41239bc1	10.225526
27	0x41e992c6	29.196667
28	0x40f01fde	7.50389
29	0x40c47fe9	6.140614
30	0x40ca9292	6.330392
31	0x419332eb	18.399862
32	0x419b17f2	19.386692
33	0x410063f4	8.024403
34	0x40ef9f44	7.4881916
35	0x416cec3f	14.807677
36	0x41815bb1	16.169771
37	0x408b03bb	4.3442054
38	0x41561b9a	13.381739
39	0x40d23746	6.5692472
40	0x41c0c7c6	24.097546
41	0x41074323	8.453891
42	0x41e88deb	29.069296
43	0x421e538a	39.58158
44	0x41d97b98	27.185349
45	0x4170a5a3	15.040439
46	0x415b6449	13.711984
47	0x40e679a0	7.202347
48	0x429d2214	78.56656
49	0x4115f51d	9.372342
50	0x40f4eee6	7.6541624
51	0x4115c3f1	9.360337
52	0x41c5509a	24.664356
53	0x41231b1c	10.1941185
54	0x424352b4	48.830765
55	0x41a1eddc	20.241142
56	0x41482abc	12.510433
57	0x4109f532	8.622362
58	0x4183f0c6	16.492565
59	0x409b1683	4.846498
60	0x420b41b0	34.814148
61	0x40dd7592	6.920602
62	0x409a168f	4.8152537
63	0x4160fbda	14.061487

fc3.weight f4 [1, 64]
0	0xc2b94de6	-92.652145
1	0x428deb2b	70.95931
2	0x428b4bad	69.647804
3	0xc2a67314	-83.22476
4	0x427d0441	63.254154
5	0xc28e47c0	-71.14014
6	0xc2d2f7ba	-105.48384
7	0x42861c03	67.05471
8	0xc2b0518f	-88.159294
9	0xc2b326e6	-89.57597
10	0xc2b06677	-88.20013
11	0xc2ed4a9d	-118.64573
12	0xc2a4b8b3	-82.36074
13	0xc2a371d7	-81.72234
14	0xc29946aa	-76.638016
15	0xc2950704	-74.5137
16	0x4283350e	65.60362
17	0xc2681ae2	-58.026253
18	0x431427b5	148.1551
19	0xc290eb42	-72.45949
20	0xc280b338	-64.35004
21	0xc290b6a5	-72.35673
22	0x42c6fd0d	99.49424
23	0x429d9cdc	78.806366
24	0xc29fc0a0	-79.87622
25	0xc2b0ef33	-88.467186
26	0xc287b9c7	-67.86285
27	0x42805863	64.17263
28	0xc2c9dbc6	-100.929245
29	0xc281afad	-64.84312
30	0xc2c0aa7e	-96.33299
31	0x428afea1	69.49732
32	0xc3363eaf	-182.24486
33	0xc2a29fec	-81.31235
34	0xc2896f11	-68.71693
35	0xc2d06f81	-104.21778
36	0xc2f35a6a	-121.67659
37	0xc2ce865c	-103.26242
38	0x4286b5e7	67.35528
39	0xc2f79ce7	-123.80645
40	0x427df167	63.485744
41	0xc27c4887	-63.070827
42	0x42917d97	72.74529
43	0x4286764d	67.23106
44	0xc331d488	-177.8302
45	0x429e4fe7	79.15606
46	0x42b93b28	92.61554
47	0xc2c514a4	-98.54031
48	0x4282d547	65.41656
49	0xc298a5dd	-76.32395
50	0xc2b2ac6c	-89.33676
51	0x4300b12a	128.69205
52	0x4296a061	75.31324
53	0xc2ae84a1	-87.25904
54	0x4281196d	64.54966
55	0x42756050	61.344055
56	0x428f7085	71.719765
57	0x42a732d5	83.59928
58	0xc2ca9f4a	-101.31111
59	0xc2b514b4	-90.540436
60	0x4288c039	68.375435
61	0xc2915f9d	-72.686745
62	0xc2f5b7a4	-122.85867
63	0x42be5b8a	95.17879
