p2_continuous-control/src_submission/checkpoint_actor36.pth (torch_old, 20276 bytes, 4 tensors)

fc1.weight f4 [128, 33]
0.77268434 0.39269388 -0.057036474 -0.4021924 0.9483186 0.91584307 -0.23303579 0.35507342
-0.47299442 0.44035426 0.30737102 0.08997255 0.26315448 0.33978885 0.97947925 0.5552805
0.20691557 -0.024019467 0.32852414 0.024798932 0.42391416 -0.26297605 0.29119077 0.5194742
0.34390226 -0.069549926 0.24191403 0.7864943 -0.5811765 0.045849167 -0.8160919 -0.002833061
-0.29189256 0.036839638 0.76168364 0.18426 -0.051029008 0.15518868 -0.11127942 0.25026488
-0.3815174 -0.016206563 -0.135585 -0.13363156 -0.087080464 -0.3743639 -0.13115498 0.3067676
-0.26421818 -0.6669955 0.2958614 0.11996959 0.027066067 0.20578544 0.01028364 -0.49432212
-0.91043305 0.5205072 0.012891293 -0.4453923 1.5393416 0.14853957 -0.0022947341 -1.417584
-0.07594361 -1.1984924 0.083013594 0.43155178 -1.031855 -0.053711776 0.029285468 0.013951682
-0.2127664 0.004944944 -0.07343051 -0.08559068 -0.14301652 0.23411179 -0.38105485 0.15145035
-0.86105925 0.580532 0.035878677 0.056400623 -0.13409774 -0.1051587 -0.22057806 0.201668
0.27120632 -0.042321518 -0.84112346 0.25626862 -0.060973655 -0.1208072 -0.38665396 -0.081491485
0.0177576 -0.012611821 0.7532669 -0.27182046 -0.07679033 0.07821683 -0.051967226 -0.06457311
-0.60654753 0.081447005 0.3085706 -0.7831526 0.34411022 -0.95378137 0.21277365 0.20870017
-0.18522996 0.63223284 -0.12779565 -0.062852494 -0.06866057 -0.3750191 0.21079578 -0.05861756
0.4133718 -0.22976205 0.1463352 -0.08578094 -0.09548421 -0.49877158 0.17189924 -0.01766309
0.043619715 -0.16835526 0.024822429 -0.7680726 -0.10915766 0.14311926 -0.2859436 -0.05014064
0.024165213 0.31931385 0.36205474 0.4044742 0.24923095 0.59149957 0.040253177 0.02759496
0.089788556 -0.14259419 -0.37898785 0.028867833 -0.3003822 0.26733747 0.11603433 -0.14841601
-0.0091837505 0.2722929 0.3755956 -0.34492627 -0.16688198 -0.34076124 0.36705846 -0.11726396
-0.6137797 -0.02333638 0.09209132 -0.012639724 -2.1096103 -0.38431498 0.47985056 0.616933
-0.39352375 -0.6872341 0.2568827 -0.033622317 0.15988259 0.009688207 -0.30265838 -0.46229717
0.49423662 -0.08033562 -0.024172759 -0.70573694 -0.24597064 -0.051281266 -0.05504858 -0.24009913
-0.17108598 -0.12312649 0.08548421 0.63790566 0.04861332 -1.0898725 0.08992886 0.35013595
0.46502262 -0.26697424 0.016294658 -0.43521023 -0.018464848 -0.5017894 -0.6076109 0.42852724
-0.22171265 -0.07873731 -0.16133043 -0.20593548 -0.0334611 0.082338974 0.031057706 -0.32746643
-0.012031649 0.17454398 -0.17368005 0.2981112 0.014863136 -0.48677108 -0.39670897 0.30504426
-0.13683462 0.07074002 0.077949636 -0.09398137 -0.32012293 0.1866002 -0.134976 -0.40531644
-0.2759275 0.33742464 -0.20601839 -0.013449922 -0.32819372 0.018881127 -2.7873318 0.057699103
1.0172393 0.27389398 -0.15113042 0.03001208 0.16400136 0.12244394 0.3565839 0.36782306
0.82211286 0.44900477 0.10910833 0.03691584 0.1801818 -0.22362171 -0.42392337 0.119146496
0.06818779 -0.17336993 0.14313827 -0.14368744 0.18085866 0.45843467 0.22608694 0.117878
00000000: a4ce 453f 2c0f c93e 149f 69bd 2aec cdbe
00000010: 02c5 723f b174 6a3f efa0 6ebe 2fcc b53e
00000020: 532c f2be 1d76 e13e bc5f 9d3e 8743 b83d
00000030: 2fbc 863e cef8 ad3e 27bf 7a3f dd26 0e3f
00000040: ade1 533e 79c4 c4bc 5134 a83e 2127 cb3c
00000050: 470b d93e cca4 86be f516 953e 43fc 043f
00000060: f513 b03e 3170 8ebd 50b8 773e b157 493f
00000070: fcc7 14bf 56cc 3b3d 66eb 50bf e0aa 39bb
00000080: f172 95be 29e5 163d b3fd 423f a7ae 3c3e
00000090: cb03 51bd c8e9 1e3e 77e6 e3bd b822 803e
000000a0: 4056 c3be a0c3 84bc cbd6 0abe b6d6 08be
000000b0: 3e57 b2bd a0ac bfbe 7e4d 06be a510 9d3e
000000c0: 9b47 87be 38c0 2abf 257b 973e 9eb2 f53d
000000d0: a8b9 dd3c 6bb9 523e b67c 283c ca17 fdbe
000000e0: 2412 69bf f63f 053f 0036 533c 760a e4be
000000f0: 2509 c53f c21a 183e 4063 16bb 6473 b5bf
00000100: 5388 9bbd 3368 99bf 0803 aa3d 5bf4 dc3e
00000110: d313 84bf e100 5cbd 14e8 ef3c 9895 643c
00000120: 6fdf 59be 3209 a23b bc62 96bd 2b4a afbd
00000130: ec72 12be 00bb 6f3e 9f19 c3be cd15 1b3e
00000140: 616e 5cbf bf9d 143f 85f5 123d 5704 673d
00000150: eb50 09be 725d d7bd 37df 61be 0e82 4e3e
00000160: 8edb 8a3e 5459 2dbd de53 57bf a435 833e
00000170: 83bf 79bd c469 f7bd 82f7 c5be 02e5 a6bd
00000180: 6378 913c d0a1 4ebc 19d6 403f 0d2c 8bbe
00000190: 4044 9dbd 2530 a03d 96db 54bd e83e 84bd
000001a0: b346 1bbf b0cd a63d f7fc 9d3e b07c 48bf
000001b0: 372f b03e 042b 74bf 56e1 593e 7fb5 553e
000001c0: ecac 3dbe 03da 213f dddc 02be cfb8 80bd
000001d0: ea9d 8cbd 8102 c0be d9da 573e f718 70bd
000001e0: 78a5 d33e be46 6bbe e5d8 153e ebad afbd
000001f0: 3a8d c3bd fd5e ffbe 5b06 303e 2fb2 90bc
00000200: 96aa 323d 5265 2cbe 6858 cb3c 68a0 44bf
00000210: 0d8e dfbd db8d 123e 3367 92be 4660 4dbd
00000220: 20f6 c53c 1b7d a33e 3d5f b93e 3e17 cf3e
00000230: 6636 7f3e 846c 173f 84e0 243d d30e e23c
00000240: 10e3 b73d 3604 12be b20a c2be 3c7c ec3c
00000250: b2cb 99be 75e0 883e 68a3 ed3d 5efa 17be
00000260: 7177 16bc fa69 8b3e 114e c03e 2d9a b0be
00000270: 1ce3 2abe 4278 aebe 16ef bb3e 1628 f0bd
00000280: ab20 1dbf f02b bfbc 609a bc3d d816 4fbc
00000290: db03 07c0 efc4 c4be f9ae f53e 52ef 1d3f
000002a0: f27b c9be 93ee 2fbf 2186 833e 8eb7 09bd
000002b0: 43b8 233e 49bb 1e3c 0af6 9abe 37b2 ecbe
000002c0: 950c fd3e 0087 a4bd f305 c6bc 2dab 34bf
000002d0: badf 7bbe 4e0c 52bd 9f7a 61bd 8cdc 75be
000002e0: 2a31 2fbe be29 fcbd 5812 af3d c94d 233f
000002f0: c31e 473d f180 8bbf 9f2c b83d 0545 b33e
00000300: 7217 ee3e d9b0 88be 607c 853c e0d3 debe
00000310: 9843 97bc 4575 00bf 638c 1bbf ec67 db3e
00000320: a408 63be 0741 a1bd ce33 25be c0e0 52be
00000330: 820e 09bd 56a1 a83d bb6c fe3c aea9 a7be
00000340: 6520 45bc a8bb 323e 2fd9 31be 08a2 983e
00000350: 8384 733c 0f3a f9be 701d cbbe c32e 9c3e
00000360: 601e 0cbe 25e0 903d 0fa4 9f3d 4e79 c0bd
00000370: 27e7 a3be 1f14 3f3e 2637 0abe a385 cfbe
00000380: 5f46 8dbe ecc2 ac3e 7cf6 52be 105d 5cbc
00000390: 0209 a8be 98ac 9a3c a563 32c0 e555 6c3d
000003a0: e634 823f d53b 8c3e efc1 1abe e5db f53c
000003b0: f9ef 273e e3c3 fa3d 2a92 b63e 4e53 bc3e
000003c0: fd75 523f f4e3 e53e 3074 df3d 1035 173d
000003d0: 9481 383e 17fd 64be 7c0c d9be 1403 f43d
000003e0: 0aa6 8b3d e387 31be d792 123e cd22 13be
000003f0: 0333 393e f3b7 ea3e 5683 673e 056a f13d

fc1.bias f4 [128]
-0.9049889 -1.4253877 -0.07186915 -0.13846532 0.183886 -0.45469517 -0.2974121 -0.9251051
-0.0074976794 -0.061648484 -0.29123116 -0.42815527 -0.17869315 -0.10038524 0.21485882 -0.44527856
-1.1874406 -0.34228507 -1.0818313 -0.80037224 -0.55311996 -0.11427978 -0.3974606 -1.3323991
-0.9946838 -0.6744215 -0.11414425 0.42618006 -0.24017365 -0.15817593 -0.556258 -0.36735177
-1.1184239 0.08784784 0.38137668 0.5343457 -1.5449204 0.0423742 -0.19700645 -0.9976511
-0.68198335 -0.18094559 -0.6387797 -1.0609151 -1.224749 -0.62243265 -0.5124908 0.032290827
-0.3599251 0.106644064 -0.75143105 -0.8001247 -0.6978091 -0.64040536 -0.27542952 -0.24431695
0.034449942 0.16787493 -0.017530639 -0.14792693 0.1506137 -1.3547705 -0.11860138 -0.34726593
-0.4174618 0.3637712 -1.282365 -0.6448225 0.07410464 -0.1902844 -0.041441463 -0.95776886
-0.26048553 -0.4896261 -0.50202906 -0.080683514 -0.42458943 -0.15699483 -1.1440607 0.25445014
-0.27260384 -1.0978253 -0.2578778 0.0032572905 -1.1830324 -1.055097 -0.39072686 0.10056875
0.27463368 -0.8884055 -1.252373 0.090759225 -0.19574769 -1.2390412 0.10655252 0.46238452
-0.25758204 0.31515262 -0.42935342 -1.3887086 -0.2506489 -1.7409406 0.37388477 -1.0664612
-0.102732785 -0.5696661 -0.16024815 -0.72671354 0.21721354 -0.7654918 -0.6152617 -0.26337156
-1.075137 -1.0316538 -0.39457878 0.10786905 -1.4518746 -0.4162157 0.21023437 -0.7846814
-0.5039463 0.37130547 -0.038573213 -0.17811881 -0.2952906 0.24898395 -0.1433196 -0.36069986
00000000: 5aad 67bf 1b73 b6bf 2230 93bd dac9 0dbe
00000010: 9d4c 3c3e cecd e8be 6646 98be b0d3 6cbf
00000020: 18af f5bb 1f83 7cbd 401c 95be 2b37 dbbe
00000030: 56fb 36be c796 cdbd f303 5c3e 8dfb e3be
00000040: 0efe 97bf fd3f afbe 7379 8abf 32e5 4cbf
00000050: 4599 0dbf 840b eabd f57f cbbe 0e8c aabf
00000060: 99a3 7ebf e3a6 2cbf 76c4 e9bd 4634 da3e
00000070: 15f0 75be dff8 21be ed66 0ebf 8815 bcbe
00000080: 8428 8fbf 91e9 b33d ce43 c33e e1ca 083f
00000090: f4bf c5bf 9290 2d3d 0fbc 49be 1066 7fbf
000000a0: 7696 2ebf cd49 39be 1187 23bf 11cc 87bf
000000b0: 93c4 9cbf bf57 1fbf 9932 03bf 6343 043d
000000c0: 1a48 b8be 3468 da3d c95d 40bf f9d4 4cbf
000000d0: 9ea3 32bf 9bf1 23bf 1905 8dbe 392e 7abe
000000e0: 621b 0d3d 68e7 2b3e 6a9c 8fbc 287a 17be
000000f0: 7a3a 1a3e 1f69 adbf 48e5 f2bd d7cc b1be
00000100: 8ebd d5be 3840 ba3e 8924 a4bf 1613 25bf
00000110: 2cc4 973d ead9 42be 86be 29bd 5730 75bf
00000120: 5c5e 85be 46b0 fabe fa84 00bf 663d a5bd
00000130: c963 d9be 41c3 20be 9570 92bf 4a47 823e
00000140: bb92 8bbe 8a85 8cbf 8f08 84be 4478 553b
00000150: 9b6d 97bf 6b0d 87bf 5a0d c8be fdf6 cd3d
00000160: c99c 8c3e 8b6e 63bf c24d a0bf f9df b93d
00000170: 1572 48be e798 9ebf 3538 da3d aabd ec3e
00000180: cbe1 83be af5b a13e 36d4 dbbe 34c1 b1bf
00000190: 0d55 80be 24d7 debf d36d bf3e cd81 88bf
000001a0: 9165 d2bd a3d5 11bf 1718 24be e609 3abf
000001b0: 3a6d 5e3e 45f7 43bf ca81 1dbf a3d8 86be
000001c0: 179e 89bf 3b0d 84bf 3b06 cabe 73ea dc3d
000001d0: 07d7 b9bf 391a d5be ae47 573e e1e0 48bf
000001e0: a002 01bf c01b be3e f2fe 1dbd c764 36be
000001f0: 5430 97be a6f5 7e3e 60c2 12be a7ad b8be

fc3.weight f4 [4, 128]
-0.7830586 -0.008293729 0.18639122 -0.1615132 -0.21136054 0.018231167 0.13008456 -0.39386597
0.37329125 -0.04587301 -0.9349822 1.8666767 -1.0067205 -0.5596752 -0.6618867 0.4137829
1.6310644 0.46624142 0.47889015 -1.3851266 0.11151269 -0.009904119 0.12519841 -0.4467359
0.25516465 -0.20515195 0.9072066 -0.029327935 -0.11373787 0.3108894 -0.101817615 0.30798766
-0.5853622 -0.11420059 0.21667264 0.24288294 0.4149073 0.01933537 0.74894637 -0.94397664
-1.1800085 -0.70972186 -0.039628547 0.21310315 0.38056776 0.25736156 0.086741515 -0.41441324
0.3299115 0.53908646 0.8245541 -0.34822956 -0.5954021 -0.36804956 0.61375535 0.8103951
-0.31669238 0.123318836 -0.7706159 -1.0966873 0.4716175 0.87142175 0.045656167 -0.2793173
-1.4566075 0.34655604 -0.6042767 -0.65977937 -0.14505446 -0.10976312 0.14404954 -1.7949865
-0.26771584 0.6302376 -0.03875486 -1.1946431 -0.036204163 -0.18123715 -0.9864372 0.33034852
0.42925996 0.25187254 -0.12975128 -0.06864919 -1.2539415 0.86149275 -0.73586655 -0.19380586
-0.18717442 0.74476916 0.65425223 -0.56319207 -0.40455624 0.70519644 -0.22207315 -0.25467727
0.6230282 -0.68088156 0.51003534 1.0642353 0.17109942 0.48436704 0.06567378 -0.44960082
0.26963454 -0.47283578 -0.4938352 0.031056946 -0.3830243 -0.54801685 -0.2217183 0.50861925
-0.4507563 -0.38628572 0.9779633 0.39414266 -1.25905 -0.3129946 -1.1413519 1.2282741
-0.9671521 0.8208983 -0.6299173 -0.054047205 0.748568 0.26494682 0.06236971 -0.16771123
-0.7211798 0.9711754 0.38366374 0.23832148 0.85443026 0.4119997 -0.26040763 -1.6629714
0.42563957 -0.46916363 0.35027078 -0.14534135 -0.9423652 -0.53173715 0.40795097 -0.06940789
1.1653898 0.93469816 -1.8173844 0.5219617 -1.1895794 -0.5742931 -0.22148272 0.4776343
-0.8569897 -0.62017953 -0.31551188 0.7867062 0.60983497 0.9762807 0.090959884 0.041511696
-0.92153347 -0.7928007 -0.40399745 0.8586583 -0.42104784 0.19941051 0.18642057 -2.9528053
-0.052036896 -1.2675569 -0.9371156 -1.8220264 0.66452456 -0.66232586 -0.73045653 0.16040263
0.2896791 0.7367081 -0.35124153 -0.90844077 0.9503545 0.77235496 0.1958937 -0.7541865
-0.2076495 0.51441115 -0.23750122 0.4472639 0.08306971 -0.8792991 1.2129617 -0.60443217
-0.62836635 -0.50111985 -1.3917738 -0.21487841 -0.28433773 -0.08018175 -0.4532572 0.93812233
1.0465527 0.29594836 -0.23673347 0.50575024 -1.6625222 0.62324274 -0.06330449 -0.18405592
-0.44553736 0.0022028766 0.30343848 -1.0157658 -0.235155 0.60757846 0.26651812 -0.32310057
0.2226158 0.6263945 -0.47001672 0.29914838 -0.34349588 1.8318052 -0.027758978 0.20582998
0.5208244 -0.12337754 -1.0670046 0.18920147 -0.49370006 0.53955096 -0.07816468 -1.5591276
0.1968733 -1.1648757 0.42935976 -0.34782752 -0.14732029 0.016166728 0.5948015 0.19344209
-0.6307616 1.3575351 0.41267285 0.14059804 -0.8894123 -0.13948435 0.36795712 1.2932347
-0.09630841 0.20194244 -0.22305842 0.1487527 0.5281608 -0.5859471 -0.45132038 0.29109854
00000000: 8776 48bf 6ce2 07bc 57dd 3e3e b763 25be
00000010: e66e 58be 8759 953c e334 053e cda8 c9be
00000020: 0820 bf3e 56e5 3bbd fe5a 6fbf 43ef ee3f
00000030: 38dc 80bf e046 0fbf 6871 29bf 5adb d33e
00000040: b8c6 d03f 32b7 ee3e 1731 f53e d44b b1bf
00000050: c460 e43d e344 22bc 0334 003e 91ba e4be
00000060: f1a4 823e 5a13 52be b13e 683f 2341 f0bc
00000070: 66ef e8bd e52c 9f3e c185 d0bd 8fb0 9d3e
00000080: 4cda 15bf 00e2 e9bd 6fdf 5d3e 4eb6 783e
00000090: bb6e d43e 3665 9e3c f3ba 3f3f 74a8 71bf
000000a0: 850a 97bf 55b0 35bf 8b51 22bd b637 5a3e
000000b0: c7d9 c23e e5c4 833e 89a5 b13d f92d d4be
000000c0: 29ea a83e 9201 0a3f fa15 533f 254b b2be
000000d0: 466c 18bf fe70 bcbe 121f 1d3f 0e76 4f3f
000000e0: 8125 a2be 968e fc3d 1547 45bf 4060 8cbf
000000f0: d977 f13e 7f15 5f3f f601 3b3d ad02 8fbe
00000100: 1d72 babf cb6f b13e e1b1 1abf 4de7 28bf
00000110: 2889 14be 7dcb e0bd b981 133e 1ec2 e5bf
00000120: 0d12 89be 4057 213f 6bbd 1ebd 11ea 98bf
00000130: d14a 14bd 3b96 39be 2687 7cbf 7123 a93e
00000140: f6c7 db3e 70f5 803e 85dd 04be f297 8cbd
00000150: 2881 a0bf ca8a 5c3f c061 3cbf 0b75 46be
00000160: a7aa 3fbe 31a9 3e3f 137d 273f 5b2d 10bf
00000170: ff21 cfbe c187 343f 2567 63be 0f65 82be
00000180: c77e 1f3f 414e 2ebf ad91 023f dd38 883f
00000190: b034 2f3e f5fe f73e fa7f 863d 1432 e6be
000001a0: 8a0d 8a3e 8817 f2be f8d7 fcbe 236b fe3c
000001b0: c31b c4be d54a 0cbf 1f0a 63be df34 023f
000001c0: 88c9 e6be 3ec7 c5be ce5b 7a3f 11cd c93e
000001d0: 8d28 a1bf d440 a0be d217 92bf 1638 9d3f
000001e0: 4897 77bf 6426 523f 4342 21bf 9a60 5dbd
000001f0: 27a2 3f3f 1ca7 873e 6277 7f3d 7ebc 2bbe
00000200: 3d9f 38bf f39e 783f 936f c43e 8c0a 743e
00000210: f1bb 5a3f a0f1 d23e 2654 85be 3fdc d4bf
00000220: 6eed d93e 3736 f0be b156 b33e 5dd4 14be
00000230: d93e 71bf ed1f 08bf f3de d03e b925 8ebd
00000240: 7e2b 953f 6148 6f3f 0da0 e8bf 489f 053f
00000250: 2344 98bf df04 13bf 5ecc 62be 7c8c f43e
00000260: ad63 5bbf 16c4 1ebf c68a a1be 9465 493f
00000270: 251e 1c3f 88ed 793f 2d49 ba3d 2b08 2a3d
00000280: 9ee9 6bbf fdf4 4abf c1d8 cebe 08d1 5b3f
00000290: 9593 d7be 4532 4c3e 09e5 3e3e c3fa 3cc0
000002a0: a424 55bd 4e3f a2bf cfe6 6fbf 2938 e9bf
000002b0: 481e 2a3f 308e 29bf 33ff 3abf 9640 243e
000002c0: d250 943e e798 3c3f eed5 b3be 938f 68bf
000002d0: 6f4a 733f 0eb9 453f 5c98 483e 5e12 41bf
000002e0: 12a2 54be 73b0 033f 8533 73be c6ff e43e
000002f0: 7420 aa3d bf19 61bf 5442 9b3f 11bc 1abf
00000300: 9edc 20bf 6449 00bf a525 b2bf 1609 5cbe
00000310: b794 91be 5436 a4bd 5411 e8be c928 703f
00000320: 70f5 853f 8b86 973e 426a 72be d978 013f
00000330: 87cd d4bf d68c 1f3f c9a5 81bd 2879 3cbe
00000340: 791d e4be 235e 103b 4a5c 9b3e 9d04 82bf
00000350: 79cc 70be 438a 1b3f 1075 883e 706d a5be
00000360: 65f5 633e 645b 203f 08a6 f0be fa29 993e
00000370: b1de afbe 9878 ea3f cc66 e3bc 18c5 523e
00000380: bf54 053f 5dad fcbd 9b93 88bf 08be 413e
00000390: 41c6 fcbe 0320 0a3f ce14 a0bd 7e91 c7bf
000003a0: 2899 493e a61a 95bf 0bd5 db3e 7316 b2be
000003b0: 21db 16be 1670 843c e944 183f af15 463e
000003c0: 9879 21bf b6c3 ad3f db49 d33e eff8 0f3e
000003d0: 86b0 63bf fcd4 0ebe e064 bc3e b788 a53f
000003e0: 583d c5bd 00ca 4e3e 6d69 64be a152 183e
000003f0: 8c35 073f a100 16bf 7713 e7be de0a 953e

fc3.bias f4 [4]
-0.08505168 -0.0917573 -0.030593015 -0.08686217
00000000: 932f aebd 40eb bbbd 349e fabc cbe4 b1bd
