p2_continuous-control/src_submission/checkpoint_critic36.pth (torch_old, 61216 bytes, 7 tensors)

fcs1.weight f4 [128, 33]
-0.30518287 0.34341633 -0.4503365 0.2953225 0.3634209 0.37228173 -0.31862321 -0.037792075
0.25949 1.491463 -0.57422245 0.7215139 0.3353832 -1.2040066 1.5515308 -0.74343234
-0.27386323 0.104655296 -0.038930673 0.4320588 -0.07510908 -0.29224566 0.08811646 -0.85237867
0.9664016 -0.0630344 0.113817915 1.2024508 0.07423627 -0.04885965 -1.16561 -0.0043346956
0.19362557 -0.31583807 2.1474886 -0.5423479 -0.44596696 0.96686023 1.4872622 0.3507398
0.60478264 -0.39620695 -0.9937245 0.4862838 0.8152948 0.82847613 0.67459625 0.40729663
-0.19559114 0.32873577 -0.47354633 0.16117746 -0.17197876 -0.62271047 -0.69100934 0.31178048
0.44501284 0.075425886 0.043661263 0.38041037 1.7507774 0.36042526 -0.042194705 -1.7748374
-0.07615085 -0.40020972 -0.72619087 -0.4623852 -0.36165264 -0.5476798 -0.20104389 -0.6928328
0.08579818 -0.1703377 0.6192399 0.22870551 -0.14439659 -0.16638128 -0.21589881 0.5855949
-0.12822312 -0.027569147 -0.024857285 0.11648106 0.23883975 -0.16561839 0.071197964 -0.27572715
0.29227495 0.5151715 -0.09850967 -0.1542611 -0.5140761 0.78255945 -0.17704275 0.08419769
-0.7402483 0.07280106 -4.9885077 0.9978772 -0.66950494 0.06942908 0.38193858 0.14446723
-0.34639344 -0.20295067 0.1235055 -0.1703906 0.6496877 -0.022986785 -0.051753458 0.17413488
-0.45358756 0.3990276 0.12027885 0.12946118 -0.115299 -0.25004324 0.037061762 0.013789774
0.06367297 -0.121883996 -0.2879493 0.06362553 0.43623668 -0.049747534 -0.5152626 0.6705623
0.078775935 0.50027764 0.076351054 4.709866 0.0048187105 1.3733631 0.405204 -0.24263304
-1.712038 -0.07526661 2.7814102 -0.7135713 -3.3933268 -1.1609554 -0.86185545 0.30386275
0.14134686 -1.0371797 -0.1678792 -0.71998984 -0.05127584 -0.7867227 0.48837727 -0.028218282
0.051338598 -0.20402691 -0.074292555 -0.031979404 -0.023768608 -0.18152407 -0.026186574 1.8563215
0.27152833 0.04792077 -1.9518785 0.05147747 2.2317019 0.66834307 -0.994473 0.39270186
0.47920328 -0.015499338 0.24703152 0.18223526 0.15536621 0.053925443 -0.38882697 0.19727105
-0.096429914 0.06748423 -0.6539011 0.799914 0.039973915 0.002747273 -0.031908207 -0.11795734
0.05258191 0.009801893 0.02986504 0.031010544 -0.020676129 0.0214787 -0.111496866 0.44614843
0.5693321 -0.36484495 -0.035256185 -0.6709598 -0.068027034 5.5754967 -0.8379394 2.223755
0.23417465 -0.31454036 -1.2084035 -0.09774953 1.1572647 0.5393042 1.5790317 0.20577528
0.05531061 0.6084728 -0.97189975 -0.9817504 -0.56093013 0.026990972 0.27177542 -0.4915145
-0.35726357 -0.16667968 -0.23243138 -0.5363718 0.6563789 -0.07508728 -0.22219902 0.08812427
0.19353655 1.6756778 -0.17208256 0.056150787 -1.678535 0.0045283064 0.97144896 0.13766004
0.5581012 0.6523208 -0.3273221 0.7435067 -0.74166733 0.04723659 0.4282019 0.8629082
0.055011265 -0.11674921 -0.074836195 0.40950283 -0.16449374 -1.6557466 -0.010045178 0.58532614
0.17395425 0.25871688 -0.20840625 0.012080809 0.00093609624 0.003896814 -0.18173645 -0.26664782
00000000: ee40 9cbe 44d4 af3e 8192 e6be 8334 973e
00000010: 4e12 ba3e b69b be3e 9522 a3be ddcb 1abd
00000020: e0db 843e 42e8 be3f 3e00 13bf 23b5 383f
00000030: 59b7 ab3e e31c 9abf 9098 c63f 9551 3ebf
00000040: cd37 8cbe 8455 d63d c575 1fbd d036 dd3e
00000050: cad2 99bd 39a1 95be 6776 b43d 7d35 5abf
00000060: 1866 773f 2e18 81bd 5e19 e93d e8e9 993f
00000070: 2f09 983d 0e21 48bd b532 95bf 100a 8ebb
00000080: c845 463e 87b5 a1be 7470 0940 50d7 0abf
00000090: c855 e4be 2784 773f 9c5e be3f 2b94 b33e
000000a0: 09d3 1a3f a3db cabe bb64 7ebf 31fa f83e
000000b0: 29b7 503f 0317 543f 57b2 2c3f 2f89 d03e
000000c0: 0b49 48be 0e50 a83e aa74 f2be b40b 253e
000000d0: 331b 30be f469 1fbf fde5 30bf b1a1 9f3e
000000e0: b9d8 e33e e378 9a3d 27d6 323d 26c5 c23e
000000f0: 7919 e03f a989 b83e 5bd4 2cbd df2d e3bf
00000100: faf4 9bbd 4ae8 ccbe a5e7 39bf c1bd ecbe
00000110: 892a b9be be34 0cbf 73de 4dbe 7e5d 31bf
00000120: f5b6 af3d 026d 2ebe 8286 1e3f c731 6a3e
00000130: b3dc 13be db5f 2abe 9414 5dbe 8ce9 153f
00000140: ec4c 03be b1d8 e1bc 81a1 cbbc 9f8d ee3d
00000150: 6892 743e de97 29be 3dd0 913d 1c2c 8dbe
00000160: 10a5 953e 48e2 033f 70bf c9bd 9ff6 1dbe
00000170: 7e9a 03bf d155 483f b24a 35be d76f ac3d
00000180: ea80 3dbf b918 953d dba1 9fc0 e174 7f3f
00000190: ad64 2bbf d530 8e3d 748d c33e 38ef 133e
000001a0: 7b5a b1be 4dd2 4fbe 74f0 fc3d e07a 2ebe
000001b0: ef51 263f c84e bcbc 6ffb 53bd 6a50 323e
000001c0: a13c e8be 584d cc3e c254 f63d 7991 043e
000001d0: e221 ecbd ab05 80be 13ce 173d 81ee 613c
000001e0: f966 823d 519e f9bd 176e 93be 1a4e 823d
000001f0: 6a5a df3e 12c4 4bbd 40e8 03bf f9a9 2b3f
00000200: 4755 a13d 3212 003f f15d 9c3d 39b7 9640
00000210: 46e6 9d3b 5dca af3f e676 cf3e cc74 78be
00000220: 1024 dbbf 6125 9abd a002 3240 9cac 36bf
00000230: 442c 59c0 309a 94bf 8fa2 5cbf e693 9b3e
00000240: 3bbd 103e 4ec2 84bf 86e8 2bbe 4151 38bf
00000250: 9d06 52bd a966 49bf 960c fa3e 072a e7bc
00000260: 6c48 523d 6eec 50be b226 98bd d6fc 02bd
00000270: 62b6 c2bc 72e1 39be 3a85 d6bc f19b ed3f
00000280: c305 8b3e 9248 443d 28d7 f9bf 0ada 523d
00000290: 34d4 0e40 8818 2b3f c895 7ebf 3810 c93e
000002a0: 225a f53e eff0 7dbc d5f5 7c3e e19b 3a3e
000002b0: 5218 1f3e ede0 5c3d 5414 c7be 6c01 4a3e
000002c0: 0c7d c5bd 2c35 8a3d 1066 27bf 2ac7 4c3f
000002d0: b0bb 233d 980b 343b 2eb2 02bd 9e93 f1bd
000002e0: 2160 573d 1e98 203c 87a7 f43c d309 fe3c
000002f0: fc60 a9bc 19f4 af3c 7858 e4bd 916d e43e
00000300: c0bf 113f f5cc babe ca68 10bd 05c4 2bbf
00000310: c251 8bbd 786a b240 3283 56bf 0052 0e40
00000320: 7bcb 6f3e 6f0b a1be f7ac 9abf e830 c8bd
00000330: 4021 943f d70f 0a3f b61d ca3f c1b6 523e
00000340: 618d 623d e0c4 1b3f 6cce 78bf ff53 7bbf
00000350: 1e99 0fbf 2c1c dd3c 2626 8b3e caa7 fbbe
00000360: 40eb b6be 14ae 2abe 7e02 6ebe aa4f 09bf
00000370: 7308 283f 5cc7 99bd 2488 63be 7f7a b43d
00000380: 722e 463e 9c7c d63f 6936 30be 5efe 653d
00000390: 3cda d6bf 3062 943b e1b0 783f c1f6 0c3e
000003a0: b8df 0e3f 7ffe 263f c396 a7be 7556 3e3f
000003b0: e9dd 3dbf 287b 413d 483d db3e 8de7 5c3f
000003c0: 7e53 613d 361a efbd b843 99bd 5baa d13e
000003d0: 0c71 28be 81ef d3bf 8894 24bc efd7 153f
000003e0: 1021 323e 8a76 843e 7368 55be 96ee 453c
000003f0: 5b64 753a b161 7f3b 1f19 3abe 1086 88be

fcs1.bias f4 [128]
-1.3081397 -1.7563941 -0.8890616 0.5913677 -1.8162904 -0.6657741 -1.6798402 -1.7156017
-0.92363757 -1.3456957 -1.5992547 -0.2791247 -0.6661434 -1.2379826 -1.4568208 -1.1035618
-1.4918644 -1.6027437 -0.93291914 0.19180669 -0.92463356 -0.4120724 -2.4707203 -1.7532817
-1.7467257 -2.270919 -1.6354095 -1.1430721 -0.79003835 0.69620085 -0.34527552 -1.4929353
-0.25358757 -1.0254096 -0.4200592 -2.3492346 -1.5169775 -1.8174334 -1.1677927 -0.25626388
-1.4328382 -1.2969327 -0.34790802 -2.082941 -1.8630418 -0.0841678 -1.3529885 -0.19434774
-0.5439674 -1.0054559 -0.3343842 -2.5880249 -0.72497416 -2.0346632 -1.5515385 -0.6790556
0.6386183 -1.1499772 -0.6279081 -0.47850186 -0.52981585 -1.3165535 -0.80539185 -0.48251235
-1.8191624 -2.0361648 -0.35015464 -0.19504909 0.7189794 -2.6086786 -1.3887806 -0.50976634
0.47300234 -1.7186264 -0.9397272 -0.45813748 -0.57784146 -1.9335665 -1.0266597 -0.68036395
-3.0581634 -3.1309993 -0.8686623 -1.0455114 -2.5831308 -1.080407 0.021782884 0.092695005
-0.056191515 -1.8913078 -1.3319995 -0.98463863 -1.1208878 -2.2456443 -2.022012 -0.3669498
-0.13530067 -1.0451076 -0.83684593 -1.0345647 -0.7869743 -0.39868325 -2.265391 -1.3804723
-0.96497566 -0.13509157 -1.3926203 -1.3095927 -0.5273296 -0.855258 -1.5471748 -1.2102736
-2.6260865 0.99891657 -1.3465384 -0.8566197 -1.4485823 -0.8446727 0.29817173 -1.6725293
-0.2964772 -1.0351944 0.85708725 -0.5772497 -1.2872721 -1.8493781 -0.80980444 -2.356187
00000000: 1f71 a7bf 86d1 e0bf 8b99 63bf e063 173f
00000010: 347c e8bf 2c70 2abf 0105 d7bf d698 dbbf
00000020: 8373 6cbf c23f acbf 61b4 ccbf 6fe9 8ebe
00000030: 6088 2abf 3776 9ebf 1b79 babf 8341 8dbf
00000040: 6af5 bebf b526 cdbf cad3 6ebf f968 443e
00000050: c9b4 6cbf 27fb d2be 4820 1ec0 896b e0bf
00000060: b594 dfbf bd56 11c0 1955 d1bf 3050 92bf
00000070: f43f 4abf 383a 323f f4c7 b0be 8118 bfbf
00000080: 3bd6 81be 9f40 83bf 0012 d7be dc59 16c0
00000090: 522c c2bf a8a1 e8bf 3b7a 95bf 0535 83be
000000a0: 3e67 b7bf e401 a6bf 0021 b2be e84e 05c0
000000b0: 2778 eebf 2b60 acbd ba2e adbf 1803 47be
000000c0: 7341 0bbf c7b2 80bf 6834 abbe 33a2 25c0
000000d0: e897 39bf ec37 02c0 d098 c6bf 96d6 2dbf
000000e0: 7d7c 233f 7432 93bf 96be 20bf 32fe f4be
000000f0: 03a2 07bf d384 a8bf 292e 4ebf dc0b f7be
00000100: 50da e8bf 8650 02c0 7847 b3be f3ba 47be
00000110: 090f 383f 97f4 26c0 90c3 b1bf 0c80 02bf
00000120: 5d2d f23e f3fb dbbf f691 70bf ff90 eabe
00000130: 6bed 13bf 1b7f f7bf 9669 83bf 552c 2ebf
00000140: f3b8 43c0 4b62 48c0 a760 5ebf 51d3 85bf
00000150: 0452 25c0 c74a 8abf 0572 b23c e1d6 bd3d
00000160: 1329 66bd 6016 f2bf f67e aabf 4711 7cbf
00000170: 4079 8fbf a3b8 0fc0 a568 01c0 d8e0 bbbe
00000180: 428c 0abe 16c6 85bf 893b 56bf 9e6c 84bf
00000190: 2677 49bf 3620 ccbe 2bfc 10c0 51b3 b0bf
000001a0: a508 77bf 7255 0abe 6241 b2bf bca0 a7bf
000001b0: 13ff 06bf 30f2 5abf d309 c6bf 3fea 9abf
000001c0: cd11 28c0 ffb8 7f3f 5f5b acbf 6e4b 5bbf
000001d0: 256b b9bf 783c 58bf f7a9 983e 7115 d6bf
000001e0: dccb 97be 4081 84bf 126a 5b3f a3c6 13bf
000001f0: 55c5 a4bf 6cb8 ecbf 584f 4fbf c5cb 16c0

fc2.weight f4 [64, 132]
0.29688662 -0.07983654 -0.688268 0.5053021 -0.61188096 -0.64558315 -0.075980596 -0.26485068
0.31442818 -1.22531 0.026254682 0.12896743 -0.16265967 0.48149094 -2.1408963 -1.1745062
-0.23669162 -0.42191702 0.15398894 -0.2587419 -0.975126 -0.2219187 -1.6790111 -1.2424637
-1.1800748 0.6741931 -0.63113004 0.6407966 -0.96978074 0.2059608 0.5120696 -0.5810057
0.28238103 0.040994506 -0.58757466 -0.4971268 1.1083938 -0.5317912 -1.3443524 0.4981353
0.66945916 -0.08489269 0.06899989 1.6410756 0.7529322 0.07342735 0.5311986 -2.1720703
-1.102501 -0.08914035 0.03448162 -0.19170405 -0.4179371 -1.1472815 -0.63026303 -0.9585156
-0.04922537 -0.066087194 -1.2913221 -0.07117477 0.24106926 -1.7075081 0.8201633 0.03211906
-0.2865739 -2.4006279 -0.30503097 -0.783284 0.9218866 0.8170546 -1.0382733 -0.1839635
-0.4709313 -0.7831499 -1.2905438 -1.0103654 -1.1185573 -0.520052 -0.6009255 0.58196783
0.65822375 -1.4336346 0.20714994 -0.27084458 -1.4389557 -0.8916542 -0.16954218 0.4574953
-0.31576353 -0.5937796 -0.49653357 0.1546444 -0.9248474 -0.5712895 0.5896842 -0.12793043
-0.47977096 -0.84871453 0.9294237 -2.1388464 -0.38885698 -0.68474865 -1.4607027 -0.4092248
-0.4758901 -0.19289163 0.43768367 -1.0354434 -1.0296998 -0.22675793 -0.003649394 0.31618994
-1.3869327 -0.7513249 0.038889322 -0.77717066 0.08518028 -2.0248804 0.13762021 -0.39265984
0.056225423 -0.29061377 -2.8104987 0.7354955 0.03249871 -1.5132684 0.18123847 0.5004849
0.60832924 0.33837742 1.3851322 -1.9508066 -0.002812737 -0.13698106 -0.18376951 -0.036488082
0.0045820177 -0.053821478 -0.071893916 -0.114341676 -0.27552223 -0.076700136 0.0365422 -0.071216494
-0.09882432 -0.027692277 -0.11437283 -0.10734621 -0.07359988 -0.2672558 0.056986507 -0.007540617
-0.03873773 -0.04710993 -0.08009171 -0.075069316 0.05285912 -0.12512602 -0.13202587 -0.27419195
-0.06463101 -0.13421082 0.029238531 -0.08654883 0.031547498 -0.06652616 -0.1755609 -0.09468425
-0.037942667 0.0057507646 -0.09601018 -0.22928855 -0.11664338 -0.080728844 -0.06672139 -0.004382945
-0.01738153 -0.07620526 -0.16777496 -0.116784856 -0.1037541 -0.10178331 -0.051288035 -0.09253863
-0.17644434 0.0033915835 0.009507977 -0.107301824 -0.17753363 -0.20675734 -0.22115909 -0.16576694
-0.08588208 -0.11012214 -0.046157684 -0.109808944 -0.09425141 -0.1485445 0.0019556587 -0.13971694
-0.14906088 0.060504146 -0.0035511344 0.14126697 -0.04650326 0.07134195 -0.042044975 -0.022943314
-0.14865454 0.075584516 -0.16136229 0.07896761 0.03776225 -0.14331068 0.012654102 -0.19888765
0.058481865 -0.08567963 -0.17676362 -0.057710476 -0.14640191 -0.10479194 -0.24170317 -0.19118154
-0.12888932 -0.04502009 -0.001243119 -0.09222101 0.0960267 0.040648863 0.0050357617 0.042013686
-0.15091956 0.05850606 -0.120215185 -0.2822674 -0.05146241 -0.14966068 0.025660966 -0.035266288
0.0073705027 -0.022276182 -0.15750727 -0.065776415 0.043714635 -0.3557603 -0.024590282 0.05420614
0.065959565 -0.24510455 -0.07451215 -0.086228535 -0.06398966 -0.13850535 -0.1601968 -0.18589503
00000000: 8601 983e 5781 a3bd 5532 30bf 7a5b 013f
00000010: 3ba4 1cbf f044 25bf b79b 9bbd 829a 87be
00000020: bbfc a03e f5d6 9cbf 0f14 d73c 0a10 043e
00000030: 4290 26be fb85 f63e 7204 09c0 3856 96bf
00000040: 4a5f 72be 8205 d8be 47af 1d3e d179 84be
00000050: dca1 79bf a83e 63be d6e9 d6bf 0d09 9fbf
00000060: b10c 97bf eb97 2c3f bd91 21bf 3f0b 243f
00000070: 8d43 78bf 63e7 523e fe16 033f cabc 14bf
00000080: 3f94 903e dbe9 273d 4b6b 16bf 6787 febe
00000090: d9df 8d3f 7823 08bf bd13 acbf 970b ff3e
000000a0: ad61 2b3f 38dc adbd d04f 8d3d c40e d23f
000000b0: 2ac0 403f 1461 963d a2fc 073f 3303 0bc0
000000c0: c11e 8dbf 378f b6bd 993c 0d3d 114e 44be
000000d0: dafb d5be 1fda 92bf eb58 21bf 4761 75bf
000000e0: 8ba0 49bd b958 87bd 0b4a a5bf 14c4 91bd
000000f0: dcda 763e a08f dabf 39f6 513f 478f 033d
00000100: d0b9 92be e3a3 19c0 052d 9cbe 4d85 48bf
00000110: c300 6c3f 7e2a 513f 24e6 84bf ee60 3cbe
00000120: e81d f1be 837c 48bf 8a30 a5bf a753 81bf
00000130: e32c 8fbf 2122 05bf 41d6 19bf d8fb 143f
00000140: 5a81 283f 5781 b7bf 1d1f 543e 24ac 8abe
00000150: b32f b8bf 7343 64bf 779c 2dbe d33c ea3e
00000160: c2ab a1be f101 18bf a639 febe 1a5b 1e3e
00000170: cdc2 6cbf 0740 12bf 8bf5 163f 3200 03be
00000180: 8aa4 f5be 5b45 59bf b6ee 6d3f dce2 08c0
00000190: 4318 c7be b04b 2fbf 4ef8 babf ea85 d1be
000001a0: dea7 f3be 6285 45be 1318 e03e 6989 84bf
000001b0: 34cd 83bf 3b33 68be ac2a 6fbb a6e3 a13e
000001c0: 0387 b1bf d456 40bf 694a 1f3d a8f4 46bf
000001d0: 0073 ae3d a497 01c0 50ec 0c3e b60a c9be
000001e0: a14c 663d 54cb 94be 36df 33c0 6f49 3c3f
000001f0: 5e1d 053d c7b2 c1bf 9496 393e c71f 003f
00000200: 77bb 1b3f ce3f ad3e 034c b13f 08b4 f9bf
00000210: e555 38bb c344 0cbe 132e 3cbe 8774 15bd
00000220: c024 963b e973 5cbd 1e3d 93bd f82b eabd
00000230: 4011 8dbe f614 9dbd 46ad 153d f4d9 91bd
00000240: 6864 cabd eada e2bc 4d3c eabd 54d8 dbbd
00000250: 89bb 96bd c1d5 88be af6a 693d 4817 f7bb
00000260: 74ab 1ebd 58f6 40bd 1f07 a4bd f1bd 99bd
00000270: ce82 583d 0921 00be ca31 07be e362 8cbe
00000280: 435d 84bd 906e 09be a585 ef3c 8340 b1bd
00000290: f337 013d de3e 88bd 3dc6 33be d1e9 c1bd
000002a0: c569 1bbd e970 bc3b fca0 c4bd 9eca 6abe
000002b0: b9e2 eebd 2a55 a5bd 39a5 88bd cf9e 8fbb
000002c0: b663 8ebc 8111 9cbd 33cd 2bbe e62c efbd
000002d0: 087d d4bd c573 d0bd 6713 52bd e584 bdbd
000002e0: d3ad 34be 5445 5e3b 59c7 1b3c 0fc1 dbbd
000002f0: 60cb 35be 32b8 53be 8777 62be cfbe 29be
00000300: f2e2 afbd b787 e1bd d70f 3dbd 83e3 e0bd
00000310: e206 c1bd 0d1c 18be 822a 003b f511 0fbe
00000320: 6aa3 18be 32d3 773d 26ba 68bb 4aa8 103e
00000330: 347a 3ebd ba1b 923d 5a37 2cbd 9ef3 bbbc
00000340: e538 18be 0ecc 9a3d 283c 25be c5b9 a13d
00000350: 97ac 1a3d 09c0 12be 2753 4f3c 34a9 4bbe
00000360: ae8a 6f3d cd78 afbd 8601 35be d261 6cbd
00000370: 62ea 15be 289d d6bd 0981 77be 18c5 43be
00000380: 90fb 03be fc66 38bd 27f0 a2ba 5ede bcbd
00000390: a6a9 c43d 6c7f 263d 0803 a53b 8b16 2c3d
000003a0: a88a 1abe 0da4 6f3d 6133 f6bd 5a85 90be
000003b0: 3fca 52bd a640 19be f236 d23c 6273 10bd
000003c0: 4284 f13b 8a7c b6bc 9649 21be c9b5 86bd
000003d0: 1e0e 333d 3726 b6be 8f71 c9bc 4207 5e3d
000003e0: cf15 873d b0fc 7abe d399 98bd 9698 b0bd
000003f0: 030d 83bd 59d4 0dbe a10a 24be 445b 3ebe

fc2.bias f4 [64]
-0.57246923 -0.045093663 -0.18098815 -1.520569 -0.07982246 2.2601852 -0.5964464 2.3888369
-0.14565982 1.1946189 -0.12834167 1.5744501 -0.7031259 -0.08219998 1.0000529 -0.52376914
-0.13209511 -0.14530629 1.6587248 -0.09947279 -0.19561487 -1.4209065 -0.74648356 -1.1845907
-0.45805132 -0.9495842 -0.16700272 2.4480593 -0.22398171 2.0398061 -1.5181773 -0.08201378
1.1597489 -0.21617202 -1.3218827 0.12082034 -1.1787125 -2.1276689 -0.9666129 2.1337347
-0.07544314 2.6048746 2.2289228 -1.16812 -0.38546428 -0.9026708 -0.26414257 -1.2249134
-0.4547888 -0.20059034 -0.1759761 -2.37322 1.7933213 1.8627024 -0.73407674 0.5194637
-0.011373488 0.2832882 0.631865 -0.08210833 0.13428003 -1.3687656 -1.2793247 -0.17750834
00000000: 588d 12bf 22b4 38bd f554 39be 01a2 c2bf
00000010: f579 a3bd e0a6 1040 b6b0 18bf b4e2 1840
00000020: d927 15be 46e9 983f 006c 03be 9587 c93f
00000030: 0f00 34bf 7758 a8bd bc01 803f bc15 06bf
00000040: f143 07be 2ccb 14be 1851 d43f 64b8 cbbd
00000050: 444f 48be 44e0 b5bf 8c19 3fbf aba0 97bf
00000060: b485 eabe f317 73bf c302 2bbe 01ad 1c40
00000070: 765b 65be 2f8c 0240 a253 c2bf d7f6 a7bd
00000080: a772 943f 335c 5dbe 7433 a9bf a870 f73d
00000090: 0de0 96bf ba2b 08c0 f173 77bf 1c8f 0840
000000a0: ef81 9abd 44b6 2640 aca6 0e40 f584 95bf
000000b0: 935b c5be 6f15 67bf b23d 87be f6c9 9cbf
000000c0: 14da e8be 8e67 4dbe 1433 34be d6e2 17c0
000000d0: 8d8b e53f 086d ee3f 74ec 3bbf 93fb 043f
000000e0: de57 3abc 270b 913e e8c1 213f 6a28 a8bd
000000f0: b480 093e b633 afbf e9c0 a3bf bfc4 35be

fc3.weight f4 [32, 64]
-0.4714811 0.10836984 0.0011909143 -0.61218005 -0.014708313 -0.0014117274 -0.32951805 0.008594294
-0.08770661 0.0006968368 0.06347831 -0.07518719 0.10457372 0.011879694 -0.30094334 -0.06191761
-0.08677338 -0.10482466 -0.31137568 -0.032093752 0.13906091 -0.04610574 0.028032774 -0.3626633
-0.11819567 -0.0076460866 -0.06267762 -0.20946725 0.0899037 -0.046966992 -0.22546162 -0.15516698
-0.00988489 0.15688555 -0.123952456 -0.16638735 -0.42342606 -0.11196149 0.06992345 -0.3021376
-0.0036827216 -0.2687477 -0.1825212 -0.010506315 -0.57698256 -0.17223133 0.10823557 -0.31335732
-0.02072897 0.14821558 0.11027449 -0.39623606 -0.33109468 -0.15750271 -0.13159794 -0.09092228
0.022228012 -0.32332423 -0.05545133 -0.038380012 -0.1999772 -0.13761432 -0.098755434 0.12043191
0.15890008 0.07614751 0.054896776 -0.3431315 -0.1446887 -0.13051061 -0.45417395 -0.4600822
0.10628663 -0.12570201 0.25409618 -0.25286233 -0.45468864 -0.019582607 -0.19585365 -0.32372633
0.2664156 -0.29405746 -0.9794184 0.109775856 0.023209656 -0.93060875 -0.7074128 -0.57577777
-0.07654313 0.23345028 -0.14222015 -0.22781216 -0.14357777 -0.27584916 0.12202912 0.0429434
-0.08574282 0.06881616 -0.17475413 -0.59884924 0.035304483 -0.19399732 -0.11054611 -0.24170211
-0.4320559 -0.27904084 -0.21608053 0.24205807 -0.70777315 0.12585236 -0.2152647 0.20533037
-0.200495 -0.11617626 0.13600074 -0.035966054 -0.61066276 -0.825107 -0.27785376 -0.5076784
-0.070289515 -0.6834092 -0.56067073 0.1108367 -0.71604365 -0.10292747 -0.28746176 0.027325718
-0.36746237 -0.03649982 -0.020468494 -0.26404583 -0.039440654 -0.06582812 -0.0049915076 -0.36027762
-0.023127483 -0.09626316 -0.11878747 -0.09075929 -0.17971241 0.03690522 -0.10623988 0.034220472
0.020383036 -0.1481941 -0.26654553 -0.13862678 0.16825233 -0.27967915 0.046643965 -0.4196226
-0.16741696 -0.082903035 0.14695744 -0.12967737 -0.08412195 -0.25288615 -0.15147835 -0.013716168
-0.050314784 0.043806575 -0.14485681 -0.011591784 -0.20284346 -0.19546573 -0.18445918 -0.07849985
-0.09005933 -0.31531426 -0.019175066 -0.020474967 -0.43386385 -0.15784836 0.14190738 -0.46880642
-0.039258704 0.16849647 -0.05553561 -0.16569436 -0.2940508 -0.1955252 -0.19723475 0.02915647
0.040856376 -0.1080918 -0.04042002 -0.14133899 -0.12116461 -0.1252445 0.019666573 0.124217644
-0.067530625 -0.010373756 -0.11463422 -0.27451462 0.014240997 -0.17746574 -0.35058308 -0.092894554
0.09437951 -0.12790452 -0.053232923 -0.15727219 -0.1243886 -0.18148954 -0.10960871 -0.005003714
-0.0069754315 -0.1883056 -0.15247214 0.016537473 -0.019638076 -0.039443456 -0.14434624 -0.15047786
-0.0734537 -0.16892973 0.03855446 -0.1574413 -0.10884767 -0.18642327 -0.17561162 -0.13092048
-0.04012314 0.03489993 -0.11934949 -0.06476876 -0.36262044 -0.17353043 -0.1773533 -0.055894054
-0.09977529 -0.12349733 -0.19000854 -0.11720339 -0.31587198 -0.11232908 0.07779333 -0.07344771
-0.09825137 -0.11640669 0.018784106 -0.32806584 -0.19845802 -0.078521796 -0.28000844 -0.09543773
0.04634741 -0.12481459 -0.14261378 -0.15897313 -0.10165468 -0.15827239 -0.20338786 -0.17288743
00000000: f965 f1be 02f1 dd3d 7418 9c3a d5b7 1cbf
00000010: 23fb 70bc b609 b9ba 97b6 a8be 15cf 0c3c
00000020: 869f b3bd edab 363a eb00 823d befb 99bd
00000030: bf2a d63d 0ca3 423c 3f15 9abe 529d 7dbd
00000040: 3eb6 b1bd 50ae d6bd a26c 9fbe bd74 03bd
00000050: fc65 0e3e 5fd9 3cbd fda4 e53c 01af b9be
00000060: 9210 f2bd 068c fabb 205d 80bd 957e 56be
00000070: 6e1f b83d 7660 40bd 69df 66be 18e4 1ebe
00000080: 3cf4 21bc 9ba6 203e c9da fdbd 7261 2abe
00000090: 4dcb d8be 114c e5bd 0734 8f3d c8b1 9abe
000000a0: d159 71bb 4c99 89be d6e6 3abe ae22 2cbc
000000b0: 21b5 13bf 695d 30be 9caa dd3d 5f70 a0be
000000c0: cdcf a9bc d3c5 173e 98d7 e13d 74df cabe
000000d0: 3e85 a9be 6448 21be 9cc1 06be 7635 babd
000000e0: 8517 b63c c18a a5be ef20 63bd 5c34 1dbd
000000f0: d3c6 4cbe c5ea 0cbe 4a40 cabd 01a5 f63d
00000100: b4b6 223e 3af3 9b3d 71db 603d efae afbe
00000110: 4629 14be 93a4 05be 7d89 e8be e58f ebbe
00000120: ceac d93d 07b8 00be e518 823e 2c77 81be
00000130: f3cc e8be b46b a0bc dc8d 48be 75bf a5be
00000140: a067 883e b38e 96be 2abb 7abf 2ad2 e03d
00000150: 2d22 be3c 603c 6ebf 0119 35bf 2c66 13bf
00000160: a5c2 9cbd 970d 6f3e 29a2 11be 9747 69be
00000170: 0d06 13be 1a3c 8dbe 67ea f93d 6be5 2f3d
00000180: ee99 afbd 7def 8c3d bff2 32be 2f4e 19bf
00000190: 6f9b 103d 3ca7 46be 0066 e2bd c280 77be
000001a0: 6e36 ddbe 71de 8ebe 3744 5dbe 12de 773e
000001b0: 9f30 35bf 71df 003e 596e 5cbe 2042 523e
000001c0: 904e 4dbe d2ed edbd c743 0b3e 2451 13bd
000001d0: 6554 1cbf 363a 53bf d942 8ebe 36f7 01bf
000001e0: f3f3 8fbd e8f3 2ebf 1e88 0fbf 5afe e23d
000001f0: a34e 37bf a3cb d2bd 302e 93be 2fda df3c
00000200: 0724 bcbe d680 15bd 8bad a7bc 0431 87be
00000210: 868c 21bd e5d0 86bd cd8f a3bb 4f76 b8be
00000220: d975 bdbc 9f25 c5bd d846 f3bd 02e0 b9bd
00000230: 8806 38be ee29 173d 4b94 d9bd c42a 0c3d
00000240: 53fa a63c 32c0 17be a878 88be 2ef4 0dbe
00000250: 574a 2c3e 1b32 8fbe be0d 3f3d c6d8 d6be
00000260: 5a6f 2bbe 11c9 a9bd 037c 163e 25ca 04be
00000270: 2148 acbd 4b7a 81be 241d 1bbe c7b9 60bc
00000280: e016 4ebd 866e 333d 5855 14be 77eb 3dbc
00000290: 32b6 4fbe 2b28 48be dee2 3cbe 88c4 a0bd
000002a0: 0771 b8bd df70 a1be 0715 9dbc 1ebb a7bc
000002b0: 6723 debe 00a3 21be 2b50 113e 6507 f0be
000002c0: bccd 20bd 578a 2c3e 4f79 63bd c8ab 29be
000002d0: d48d 96be c237 48be e8f7 49be 8dd9 ee3c
000002e0: 0459 273d 3c5f ddbd 778f 25bd 2bbb 10be
000002f0: 2725 f8bd 1840 00be cb1b a13c d265 fe3d
00000300: 7f4d 8abd b0f6 29bc 59c5 eabd 2e8d 8cbe
00000310: 1253 693c 94b9 35be a07f b3be 803f bebd
00000320: 0b4a c13d 67f9 02be c40a 5abd f60b 21be
00000330: 73bf febd 65d8 39be 887a e0bd 32f6 a3bb
00000340: 2992 e4bb 2fd3 40be a821 1cbe 9879 873c
00000350: 08e0 a0bc 768f 21bd 80cf 13be de16 1abe
00000360: e56e 96bd eafb 2cbe 48eb 1d3d 4b38 21be
00000370: 87eb debd bee5 3ebe 88d3 33be 0510 06be
00000380: 2958 24bd 3bf3 0e3d 816d f4bd 7ca5 84bd
00000390: 63a9 b9be f6b1 31be 1a9c 35be 2af1 64bd
000003a0: fd56 ccbd 2bec fcbd 9991 42be 5508 f0bd
000003b0: f9b9 a1be ca0c e6bd 1c52 9f3d c16b 96bd
000003c0: 0438 c9bd a166 eebd 20e1 993c 3ff8 a7be
000003d0: 9438 4bbe 09d0 a0bd 445d 8fbe db74 c3bd
000003e0: c8d6 3d3d cb9e ffbd 5909 12be dac9 22be
000003f0: 5430 d0bd 2812 22be e844 50be 6709 31be

fc3.bias f4 [32]
-0.97969997 0.12890996 -0.6491605 -0.6236379 -1.3351843 -0.67962813 -0.7079634 -0.7097943
-0.8923996 2.313419 -1.1551211 -0.8909895 -0.72741157 -2.4184506 -0.63823885 -0.29053715
-0.5935514 -0.7422127 -0.8055849 3.4786804 -0.34613538 -0.3345087 -0.65860254 -0.568409
-0.82102925 -0.9114013 -0.92466545 -1.2304721 -0.8616273 -0.97202927 -0.81976986 -0.8403117
00000000: 9ecd 7abf f900 043e 622f 26bf bca6 1fbf
00000010: 52e7 aabf 1cfc 2dbf 173d 35bf 14b5 35bf
00000020: 4d74 64bf 0f0f 1440 02db 93bf e317 64bf
00000030: a537 3abf e5c7 1ac0 9f63 23bf 49c1 94be
00000040: fcf2 17bf a701 3ebf d03a 4ebf b3a2 5e40
00000050: a838 b1be b944 abbe 2d9a 28bf 4183 11bf
00000060: f92e 52bf 9851 69bf e0b6 6cbf 1c80 9dbf
00000070: 9b93 5cbf e9d6 78bf 70dc 51bf ab1e 57bf

fc4.weight f4 [1, 32]
-0.07514435 0.026789805 0.062112667 0.091309376 0.029261848 0.04511915 0.07440676 0.01326836
-0.028585598 0.014028573 0.040842008 -0.030405534 -0.026665526 -0.0041995733 -0.061896287 -0.053079445
-0.10233502 0.046331618 0.086345345 0.121661134 0.07645638 0.08393735 -0.0048276647 0.053297557
0.022663312 0.015625712 -0.07139932 -0.041029293 -0.017689409 -0.055790707 -0.0062378636 -0.020669114
00000000: 48e5 99bd 4b76 db3c da69 7e3d 6900 bb3d
00000010: 8bb6 ef3c dcce 383d 9262 983d 8963 593c
00000020: 582c eabc 1ad8 653c f349 273d 0715 f9bc
00000030: a971 dabc 939c 89bb f686 7dbd d569 59bd
00000040: 0695 d1bd 39c6 3d3d d4d5 b03d 7929 f93d
00000050: 2a95 9c3d 58e7 ab3d 6331 9ebb 8a4e 5a3d
00000060: 69a8 b93c 7e01 803c cf39 92bd 550e 28bd
00000070: 61e9 90bc cc84 64bd fe66 ccbb 4652 a9bc
