p2_continuous-control/src_submission/checkpoint_critic12success.pth (torch_old, 62226 bytes, 11 tensors)

bn.weight f4 [33]
0	0x3edf1572	0.4357105
1	0x3eb526ee	0.35381263
2	0x3f04e2b0	0.519084
3	0x3e6df26d	0.2323701
4	0x3e398b75	0.18119605
5	0x3e8c4db2	0.27403027
6	0x3e3e2325	0.18568094
7	0x3da60a60	0.081074476
8	0x3dc4b992	0.09605707
9	0x3dff6c34	0.1247181
10	0x3df23bcd	0.11827812
11	0x3e0d2011	0.13781764
12	0x3e22ff1f	0.15917633
13	0x3f6c758d	0.9236687
14	0x3f05a403	0.5220339
15	0x3f6182bf	0.8809013
16	0x3e360cda	0.1777834
17	0x3e1e32d2	0.15449074
18	0x3e091e25	0.13390405
19	0x3e27973d	0.16366287
20	0x3d8270e6	0.0636919
21	0x3db8ea02	0.090290084
22	0x3dae82a4	0.085210115
23	0x3ebc1a48	0.367388
24	0x3e95e93b	0.29279503
25	0x3eb28459	0.34866598
26	0x3f65430d	0.89555436
27	0x3f1c2523	0.60994166
28	0x3f55251a	0.8325974
29	0x3f1bbc64	0.60834336
30	0x3ede2346	0.43386286
31	0x3f619da1	0.8813115
32	0x3f902d48	1.1263819

bn.bias f4 [33]
0	0x3d832ee4	0.06405428
1	0xbe686e16	-0.22698244
2	0xbdf70745	-0.120619334
3	0x3d907a61	0.07054592
4	0x3c6fa807	0.014627463
5	0x3d18874f	0.037238415
6	0xbcee2bf6	-0.029073697
7	0x3cc5a132	0.024124715
8	0xbc95e754	-0.018298782
9	0x3d23a23b	0.039949637
10	0xbca5378c	-0.020168088
11	0xbdc185e0	-0.09449363
12	0xbc9b6772	-0.018970225
13	0xbdf45f11	-0.11932195
14	0x3d16a65e	0.036779754
15	0xbdd63fd3	-0.10461392
16	0x3d2586a0	0.04041159
17	0xbd3e7fc1	-0.046508554
18	0x3cd8e00c	0.026474021
19	0x3cf0ad3a	0.029379476
20	0x3d00fb98	0.03148994
21	0xba44376f	-0.0007485067
22	0x3c90725d	0.017632658
23	0xbd77d78e	-0.060508303
24	0x3e5c8a68	0.21537173
25	0xbdcc9556	-0.09989421
26	0xbe60e89e	-0.21963736
27	0xbab3d4e0	-0.0013720058
28	0xbe2e11cf	-0.16998981
29	0xba33a1d3	-0.0006852422
30	0x3c55f569	0.013058999
31	0x3c017dc1	0.007903517
32	0x3ce7fe67	0.02831955

bn.running_mean f4 [33]
0	0x3f9eb1e1	1.2398034
1	0xc027f5c0	-2.6243744
2	0xbf20b09f	-0.627695
3	0x3f5aec35	0.85516673
4	0x3e213f2b	0.15746753
5	0x3d0f8648	0.03504017
6	0xbdd65d66	-0.10467033
7	0x3c19fed5	0.009399136
8	0x3c6013af	0.013676568
9	0x3c27683e	0.010217724
10	0x3cd1aea3	0.025595969
11	0x3c764e3b	0.0150333
12	0xbcd7c005	-0.02633668
13	0x3f80d18a	1.0063946
14	0xc051f577	-3.280607
15	0xbed0aa51	-0.4075494
16	0x3d077a43	0.033075582
17	0x3ca4de11	0.02012542
18	0x3d3206c1	0.043463472
19	0x3db1c2ea	0.08679755
20	0xbcbc6914	-0.022999324
21	0x3d1ef1e9	0.038804922
22	0x3d1729fa	0.036905266
23	0x3cbed264	0.023293681
24	0x3e34af3e	0.17644975
25	0xbd2b24f4	-0.041783288
26	0xbc85d211	-0.016335519
27	0xbf7ffffc	-0.99999976
28	0x3d9a3d6b	0.07531246
29	0x00000000	0.0
30	0x3f7ffffc	0.99999976
31	0x00000000	0.0
32	0x3d8c4364	0.06848791

bn.running_var f4 [33]
0	0x40481fc9	3.12694
1	0x3f49fafc	0.78898597
2	0x40542930	3.315014
3	0x3d94b150	0.07260382
4	0x3d6a08a2	0.05713714
5	0x3cc15d09	0.023603933
6	0x3da027be	0.0782008
7	0x3ed1b471	0.40957978
8	0x3d54b436	0.051929675
9	0x3dfb997f	0.122851364
10	0x40069786	2.1029983
11	0x3fc27953	1.5193275
12	0x402c1e75	2.689359
13	0x4186a991	16.832796
14	0x4021ada7	2.526224
15	0x41810cbf	16.131224
16	0x3e0c7f66	0.13720474
17	0x3e9e9308	0.3097155
18	0x3e0fd33c	0.14045423
19	0x3ecdcde0	0.40196133
20	0x4055c41f	3.3400953
21	0x3f1f8f1f	0.6232776
22	0x3f4f00f6	0.8086084
23	0x4101268c	8.071911
24	0x405ae550	3.4202461
25	0x40fd85ec	7.922598
26	0x41ffe57c	31.987053
27	0x00000004	6e-45
28	0x42003437	32.05099
29	0x00000004	6e-45
30	0x00000004	6e-45
31	0x00000004	6e-45
32	0x3eb6b3a9	0.35683945

fcs1.weight f4 [128, 33]
0	0x3fbf2ca5	1.49355
1	0x3fe37284	1.7769322
2	0x3ef9f673	0.48820838
3	0xbedd9226	-0.43275565
4	0xbf74e2ce	-0.95658576
5	0xbecc3dc7	-0.39890882
6	0x3e7da4b3	0.24769859
7	0xbe8777fa	-0.26458722
8	0xbf706d77	-0.9391703
9	0xbe693a11	-0.22776057
10	0xbf034e95	-0.5129178
11	0x3f1e0850	0.61731434
12	0x3fd057e6	1.6276824
13	0xbffcf543	-1.9762348
14	0xbfcfb680	-1.622757
15	0xbf2e5850	-0.68103504
16	0xbdf3e253	-0.11908402
17	0xbf424cef	-0.7589864
18	0x3d17d8a8	0.037071854
19	0xbf419438	-0.7561679
20	0x3eda11da	0.42591745
21	0xbf44ff7f	-0.76952356
22	0xbe8865b5	-0.26640096
23	0xbece4146	-0.40284175
24	0xc01b1b74	-2.4235506
25	0xbf878068	-1.0586061
26	0x3fe1c07a	1.7636864
27	0x3d2e49b3	0.042550754
28	0x3fc66645	1.549996
29	0xbb302170	-0.00268754
30	0x3e22411e	0.15845153
31	0x3c570766	0.0131243225
32	0x3f4b197c	0.7933576
33	0xbe823158	-0.2542827
34	0x3e439041	0.19097997
35	0xbde08089	-0.10962016
36	0xbf36135a	-0.7112328
37	0xbebf78aa	-0.37396747
38	0xbfe0cdb7	-1.7562779
39	0xbc179d46	-0.0092538055
40	0x3f170807	0.58996624
41	0xbd99da4f	-0.07512342
42	0x3f0b6a0b	0.54458684
43	0x3f119513	0.56868094
44	0x3f69b253	0.91287726
45	0xbe68c567	-0.22731553
46	0x3f934a28	1.1507006
47	0xbe398622	-0.18117574
48	0xbf702fc7	-0.938229
49	0x3eaa1351	0.33217862
50	0xbf23f5f8	-0.64047194
51	0x3f00beaa	0.5029093
52	0xbfb8cb3d	-1.4437023
53	0x3cf9e3cc	0.03050413
54	0xbf89ec01	-1.0775148
55	0x3eba31f4	0.36366236
56	0x3fa1fd78	1.2655478
57	0x3f63f988	0.8905263
58	0xbface792	-1.350817
59	0xbfa1e768	-1.2648745
60	0xbe76dcc0	-0.24107647
61	0x3eac2178	0.33619285
62	0xbb8b8537	-0.004257824
63	0x3d0ee4cc	0.034886166
64	0x3e323db2	0.17406347
65	0x3f4caef6	0.7995447
66	0x3ed73f5c	0.42040527
67	0x3fc204f5	1.5157763
68	0xbe0d1106	-0.13776025
69	0x3eaa71c5	0.33289924
70	0xbed61435	-0.41812292
71	0x3f08923b	0.5334813
72	0xbef00a8d	-0.4688305
73	0xbf141de9	-0.5785814
74	0xbf874770	-1.0568676
75	0xbecfaa81	-0.40559772
76	0x40024053	2.035176
77	0x3e86823a	0.2627123
78	0xbdf8f3a0	-0.12155843
79	0xbd892aec	-0.0669764
80	0xbf803c2a	-1.0018361
81	0x4000515d	2.004966
82	0x3f19207d	0.598152
83	0x3c59a8b1	0.013284848
84	0xbf82a7fc	-1.0207515
85	0xbf77e31e	-0.9683093
86	0x3e3c65e1	0.18398239
87	0x3f537c5d	0.8261164
88	0xbefad962	-0.48993975
89	0xbf141d1c	-0.5785692
90	0xc0056b9a	-2.0846925
91	0x3fe10b43	1.7581562
92	0x3fadf581	1.3590547
93	0xbe4abf05	-0.1979943
94	0xc00f1933	-2.235913
95	0xbdbcd01b	-0.092193805
96	0xbe8e75ae	-0.27824157
97	0xbcf56ecc	-0.029960059
98	0x3f39ac6a	0.7252871
99	0xbf2fc65a	-0.68662035
100	0x3ffc0611	1.9689351
101	0x3eecc318	0.46242595
102	0xbed42fab	-0.41442618
103	0xbf844d86	-1.0336158
104	0xbfd339c8	-1.6502008
105	0x3f0c320b	0.5476386
106	0x3fcf2fe5	1.6186491
107	0x3f775cfd	0.96626264
108	0x3e8fa090	0.28052187
109	0xbe10b4f6	-0.14131531
110	0x3f905a76	1.1277606
111	0x40139483	2.3059394
112	0xbf62094e	-0.8829545
113	0xbf0513fe	-0.5198363
114	0x3f325f1e	0.6967639
115	0x3f68d018	0.90942526
116	0x3e4bf9e8	0.1991955
117	0xbf938896	-1.1526058
118	0xbf6871b5	-0.90798503
119	0x3e56f4e1	0.20991851
120	0x3f929f60	1.1454887
121	0x3c8a8b64	0.01691217
122	0x3d013ce1	0.0315522
123	0xbfe1f939	-1.7654182
124	0x3e66b656	0.22530493
125	0x3e939444	0.28824055
126	0x3c470292	0.012146609
127	0xbf8bf3ff	-1.0933837
128	0x3c733575	0.014844288
129	0x3d53ab9f	0.051677343
130	0xbe8f1bd8	-0.2795093
131	0xbf76a7f3	-0.9635002
132	0xbe826b13	-0.25472316
133	0x3f07f32c	0.53105426
134	0xbfea533c	-1.8306651
135	0x3e9db6da	0.30803567
136	0xbed3acdf	-0.41342828
137	0xbd880cac	-0.06643042
138	0xbf443c3d	-0.76654416
139	0xbec71a76	-0.38887376
140	0x3f7740d3	0.9658329
141	0xbf559ca0	-0.83442116
142	0x3ea1be8c	0.31590688
143	0xbe89236a	-0.2678483
144	0xbf9db557	-1.2320966
145	0x3d79fba5	0.061031003
146	0x3e049ddb	0.12950842
147	0x3fac3fd1	1.3456975
148	0x3eb38367	0.3506119
149	0xbdb821de	-0.08990835
150	0xbe218f3c	-0.15777296
151	0x3f5a6bbe	0.8532065
152	0xbec60beb	-0.38680968
153	0xbc7f090a	-0.01556612
154	0x3d0f9f64	0.035064116
155	0xbf6f0e70	-0.93381405
156	0x3f15fe32	0.58590996
157	0x3d56a5a8	0.052404076
158	0xbea00362	-0.3125258
159	0xbd28242a	-0.041050114
160	0xbf59dc2f	-0.851016
161	0xbe4bd48a	-0.19905296
162	0x3dcd7b50	0.100332856
163	0x3db39ceb	0.08770164
164	0xbf20329e	-0.62577236
165	0xbfdc560c	-1.721376
166	0x3fc3b650	1.5290012
167	0x3ef66638	0.48124862
168	0x3f456bb9	0.77117497
169	0xbf819e93	-1.0126518
170	0x3f0875d4	0.5330479
171	0x3f877059	1.0581161
172	0xbe60c56e	-0.21950313
173	0xbefc7e1f	-0.49314973
174	0xbf6cbe78	-0.9247813
175	0xbead75d0	-0.33878946
176	0x4052362c	3.2845564
177	0xbf7478e5	-0.9549697
178	0x3f4a24e1	0.7896252
179	0x3e9f2d20	0.31089115
180	0xbf5b8550	-0.85750294
181	0x3ebddb01	0.3708115
182	0x3f188775	0.5958169
183	0x3f21e30e	0.6323708
184	0x3f48ea58	0.7848258
185	0x3f2abb2a	0.6669184
186	0x3f31c0b5	0.6943467
187	0xbee073af	-0.4383826
188	0x3e3e456f	0.18581174
189	0x3f9b18c9	1.2116939
190	0x401fba42	2.4957433
191	0x3f4838a8	0.7821145
192	0x3e35f68b	0.1776983
193	0x3f095b46	0.536549
194	0x3e060b32	0.13090208
195	0xbe8355e7	-0.25651476
196	0xbda8bc20	-0.08239007
197	0x3ed38d60	0.41318798
198	0xbfa95398	-1.3228636
199	0xbfbedf30	-1.4911861
200	0x3fd58944	1.6682515
201	0x3f6b6566	0.91951597
202	0x3f2f2085	0.68408996
203	0xbe3d7570	-0.1850183
204	0x3d55b147	0.052171018
205	0xbeeebc54	-0.46628058
206	0x3ee76e85	0.45201507
207	0x3e237d92	0.1596587
208	0xbeb0d8b9	-0.34540346
209	0xbde95328	-0.11392814
210	0x3f42961b	0.7601029
211	0x3f8d74ad	1.1051232
212	0x3ecdf93a	0.40229207
213	0xbfec89e9	-1.8479587
214	0xbc81e231	-0.015854927
215	0xbe512930	-0.20425868
216	0x3e8361dd	0.256606
217	0xbe9248a5	-0.28571048
218	0x3e5ca4de	0.21547267
219	0xbd2ac607	-0.04169276
220	0x3ed1bd41	0.40964702
221	0x3d640e2c	0.055677578
222	0xbe022a94	-0.12711555
223	0xbf4b8fc4	-0.79516244
224	0x3dd6164c	0.104534715
225	0xbd1f7c1f	-0.03893673
226	0x3dd905bc	0.10596797
227	0x3daeb6ba	0.08530946
228	0xbe1a0c9b	-0.15043871
229	0x3d3b90c6	0.045792364
230	0x3ea0eb66	0.31429595
231	0xbef9a7f3	-0.48760948
232	0x3c0ef63d	0.0087257
233	0x3ebd4ded	0.36973515
234	0xbf5cee99	-0.8630157
235	0x3f440cd0	0.7658205
236	0x4015c88c	2.3403654
237	0xc0351149	-2.82918
238	0x3f21a1d9	0.63137585
239	0xbf811afb	-1.0086359
240	0xbebed11b	-0.3726891
241	0x3f13006e	0.5742253
242	0x3eec3ad1	0.46138623
243	0xbe10e856	-0.14151129
244	0x3fbc67d6	1.4719188
245	0x3c847c18	0.016172454
246	0xbe9e0708	-0.3086474
247	0xbd6c699e	-0.057717912
248	0x3fb126ce	1.3839967
249	0x3af4f718	0.0018689362
250	0x3f665f90	0.89989567
251	0x3e943544	0.28946888
252	0xbf08fbb7	-0.53509086
253	0xbf2cae41	-0.6745339
254	0x3f1b6ee0	0.60716057
255	0x3e251fee	0.16125461

fcs1.bias f4 [128]
0	0xbf7a1e0c	-0.977021
1	0xbfb366b6	-1.401572
2	0xbffee183	-1.9912571
3	0xc040453d	-3.004226
4	0x3de3777f	0.111067764
5	0xbfe3066a	-1.7736332
6	0x3edc498e	0.43024868
7	0xc0266834	-2.60011
8	0xc00340a2	-2.0508199
9	0xbf940a86	-1.1565711
10	0xbff36184	-1.9014134
11	0xbf748152	-0.9550983
12	0xbf626a52	-0.8844348
13	0xbfd8cd84	-1.6937718
14	0xbf92d936	-1.1472538
15	0xbfa9e01c	-1.3271518
16	0xc00f62a5	-2.2403958
17	0xbfd6d38c	-1.6783309
18	0xc02d27a6	-2.705545
19	0xbed33399	-0.41250303
20	0xbf8d1441	-1.1021806
21	0xbfd309a1	-1.6487314
22	0x3f9f1452	1.2428076
23	0xbfdeeb5a	-1.7415574
24	0xc02c36ef	-2.6908529
25	0xbf6ba73f	-0.9205207
26	0xbf43de9b	-0.76511544
27	0xc01326bf	-2.2992399
28	0xc025cb40	-2.5905304
29	0xbfb958e6	-1.4480255
30	0xbe26416d	-0.16235895
31	0x3e0aade0	0.1354289
32	0xc027acd6	-2.619924
33	0xbfa04288	-1.2520304
34	0xbe5d56c2	-0.21615127
35	0xbfcd13ed	-1.6021706
36	0x3e3720e9	0.17883648
37	0xbf36e172	-0.7143775
38	0xbfeac781	-1.8342134
39	0xbf8f36e6	-1.1188629
40	0xbfb9bf5e	-1.4511526
41	0xbfba80c1	-1.4570543
42	0xbfb37cb4	-1.4022431
43	0xbfa883b8	-1.3165197
44	0xc0033d43	-2.050614
45	0xbf8eeeb3	-1.1166595
46	0xbfddacc2	-1.7318347
47	0xbf841de4	-1.0321622
48	0xbf1afabb	-0.60538834
49	0xc030a73e	-2.7602077
50	0x3ccb23cd	0.024797345
51	0xbfb953a5	-1.4478651
52	0xc0487089	-3.1318686
53	0xbffd81af	-1.9805201
54	0xc00f5e26	-2.2401214
55	0xbfcdeba3	-1.6087536
56	0xbef7fc5c	-0.48434722
57	0xc017658a	-2.3655725
58	0xc0014809	-2.0200217
59	0xbf9cca4d	-1.2249237
60	0xbf2387d1	-0.63879114
61	0xc042ded4	-3.0448503
62	0xbf65ff48	-0.89842653
63	0xbe90f340	-0.28310585
64	0xbf0d8b92	-0.5529109
65	0xbe56ddee	-0.20983097
66	0xbfccddca	-1.6005185
67	0xc009f0f1	-2.155331
68	0xc0161dcf	-2.3455694
69	0xbea7bc42	-0.32760817
70	0xbe0a8821	-0.13528492
71	0xbf3ad5e0	-0.729826
72	0xbfe05cb7	-1.7528294
73	0xc0258d82	-2.586762
74	0xbdcb2be1	-0.099204786
75	0xc0347479	-2.819609
76	0xbfd4e922	-1.6633646
77	0xbf934562	-1.1505549
78	0xc01c3a8c	-2.4410734
79	0xbf602f24	-0.8757193
80	0xbf78578b	-0.9700858
81	0xbfcc507c	-1.5962062
82	0xbf2eadcb	-0.6823394
83	0xbfec5281	-1.8462678
84	0xbfc07126	-1.503453
85	0xbfcab67b	-1.5836939
86	0xbfbc2089	-1.4697429
87	0xbfecf3c5	-1.8511893
88	0xc0078fb6	-2.1181464
89	0xbfa4a03b	-1.2861398
90	0xbe82f8d0	-0.25580454
91	0xbfae992b	-1.3640493
92	0xc027674b	-2.6156795
93	0xbf998be9	-1.1995822
94	0xbfcb438d	-1.587999
95	0xbf4e0bb8	-0.8048663
96	0xbf65b019	-0.8972183
97	0xbf987c6a	-1.1912968
98	0xbfeef4fc	-1.8668513
99	0xbfffa1bf	-1.9971236
100	0xc01a512e	-2.4112048
101	0xbff7f4e0	-1.9371605
102	0xbf5b7b84	-0.85735345
103	0xbfd02be3	-1.6263393
104	0xc00099b6	-2.0093818
105	0xbe08a314	-0.1334346
106	0xbfb14307	-1.384858
107	0xbfbb8614	-1.4650292
108	0xbf98e70f	-1.1945513
109	0xbf44b10b	-0.76832646
110	0xbfb8086a	-1.4377568
111	0xc00f4985	-2.2388623
112	0xc06a94b2	-3.6653256
113	0xbf628b82	-0.8849412
114	0xbfd6f4b8	-1.6793432
115	0xbeb9315f	-0.3617048
116	0xc024908f	-2.5713232
117	0xc025e6ac	-2.592204
118	0xbfda1b0e	-1.7039506
119	0xbfee813f	-1.8633193
120	0xbfd2eaad	-1.6477867
121	0xbfd1469d	-1.6349674
122	0xc00b9bc0	-2.1813812
123	0xbf3793df	-0.7171001
124	0xc017bdf8	-2.3709698
125	0xc02bdbfe	-2.6853023
126	0xbff8e103	-1.9443668
127	0xbf727ed3	-0.9472477

fc2.weight f4 [64, 132]
0	0xc081f5b7	-4.0612445
1	0xbe5a022e	-0.21289894
2	0xbf1a6206	-0.6030582
3	0xbf8f926d	-1.1216561
4	0x3f3a9595	0.72884494
5	0x3fdaf203	1.7105106
6	0xbf637272	-0.88846505
7	0xbf5bb2a7	-0.85819477
8	0xc02734e4	-2.6126032
9	0x3f4d2b76	0.8014444
10	0xbe24443f	-0.16041659
11	0xbf1e8945	-0.61928207
12	0xc02417e2	-2.5639577
13	0x3e1acda8	0.15117514
14	0x3fa6ea15	1.3040186
15	0xbf170377	-0.5898966
16	0xbe932d15	-0.28745332
17	0xbfbda900	-1.48172
18	0x3ef28a7a	0.47371274
19	0xbeb31f42	-0.34984785
20	0xbeaf81fa	-0.34278852
21	0x3ffdb11e	1.9819677
22	0xbf885365	-1.065045
23	0xc0495be4	-3.1462336
24	0xc0121671	-2.2826197
25	0xbfa80fd0	-1.3129826
26	0xc0af108d	-5.4707704
27	0xbfe5c73b	-1.7951425
28	0xc000fcf4	-2.015439
29	0xbe22e26e	-0.15906689
30	0xbf33dbb6	-0.7025713
31	0x3f870da8	1.0551043
32	0x3fc8c2d9	1.5684463
33	0xbf7259f4	-0.9466851
34	0xc02be135	-2.6856205
35	0x3fb8e541	1.4444963
36	0xbd44ac6b	-0.048015993
37	0x3eb6b284	0.35683072
38	0xc0109d12	-2.2595868
39	0xbf83aad2	-1.0286505
40	0x3f33bce6	0.7021011
41	0xc0c3a5a7	-6.113971
42	0xbfe14788	-1.7599955
43	0xbf79072b	-0.9727656
44	0xc0189f70	-2.3847313
45	0xbfa013df	-1.2506064
46	0xc02e5578	-2.7239666
47	0xbf99d33e	-1.2017591
48	0xbde9db8d	-0.11418829
49	0xbf999555	-1.1998698
50	0xbfbded69	-1.4838077
51	0xbff7b645	-1.9352499
52	0x40258484	2.586213
53	0x3f0fc0ee	0.5615376
54	0x3fa534c7	1.2906731
55	0xbf8457bf	-1.0339278
56	0x3fd5c160	1.6699638
57	0xbf661338	-0.89873075
58	0xbf62d8f7	-0.8861231
59	0xbe8ace12	-0.27110344
60	0xc0744c3c	-3.817153
61	0xc08a2eac	-4.3181973
62	0xc0213867	-2.5190675
63	0x3ed81617	0.42204353
64	0xc028c841	-2.6372225
65	0xbf066d91	-0.52510935
66	0x3f6b19d5	0.9183629
67	0xbfd2502b	-1.6430715
68	0x3dc4c0cd	0.09607086
69	0xc0b4c491	-5.648995
70	0x3eb88ad8	0.3604343
71	0x3fbfd78b	1.4987653
72	0x3fbd0aa1	1.4768869
73	0xbf6107ca	-0.8790251
74	0xbe687de0	-0.22704268
75	0xbfdd897a	-1.730758
76	0xbfccfbb3	-1.6014313
77	0xc015c213	-2.3399704
78	0xc01e912e	-2.477611
79	0xbfb126a2	-1.3839915
80	0xc010dbcd	-2.2634156
81	0xbfb44ada	-1.4085343
82	0xbe636705	-0.22207268
83	0xbec8df30	-0.3923278
84	0xbff4ece7	-1.9134797
85	0x3f7a1612	0.97689927
86	0xbf7a8382	-0.97856915
87	0xc0212e13	-2.5184371
88	0x40166d59	2.350424
89	0x3edb07ae	0.42779297
90	0xbfd4a045	-1.661141
91	0xbf78e872	-0.97229683
92	0xbf7f20af	-0.99659246
93	0x3f02aabb	0.51041764
94	0xbfaf59af	-1.3699244
95	0xbfa0febd	-1.257774
96	0x3cb63592	0.022242341
97	0x3e30a117	0.17248951
98	0xbd84d098	-0.064850986
99	0x3e12c0f8	0.14331424
100	0x3fc0cd57	1.5062665
101	0xc0370611	-2.8597453
102	0xbf8db8fd	-1.1072079
103	0x3f8d3ec8	1.1034784
104	0xbcb81d40	-0.022474885
105	0x3e44ba8d	0.19211788
106	0xbf8884e4	-1.0665555
107	0x3ea1a3aa	0.31570178
108	0xbdec46dd	-0.115369536
109	0xbfcd0d73	-1.6019729
110	0xc0053740	-2.0814972
111	0xc022ccdf	-2.5437543
112	0x3f223278	0.6335826
113	0xbf6c8caa	-0.92402136
114	0x3f0dbbee	0.5536488
115	0xbde23c0d	-0.1104661
116	0xc05ba3ba	-3.431868
117	0x3f89c867	1.0764283
118	0xbf1ca132	-0.61183465
119	0x3fca0990	1.5784168
120	0xbf6a7cd6	-0.91596735
121	0xc07343f3	-3.8010223
122	0xbfff21a4	-1.9932141
123	0x3fd18089	1.6367351
124	0xbf7ff3a6	-0.99981153
125	0x3fcf39b9	1.618949
126	0xbe214e53	-0.15752535
127	0xc0213be8	-2.5192814
128	0x3ed897b8	0.42303252
129	0x3f418fa9	0.75609833
130	0x3e354d14	0.17705184
131	0xbf5ed086	-0.8703693
132	0xbff5e41f	-1.9210242
133	0xbe12d99c	-0.14340824
134	0xbebb209a	-0.3654831
135	0x3f65fca2	0.8983861
136	0xbe298758	-0.16555536
137	0x3f5baf95	0.8581479
138	0xbed97daa	-0.42478687
139	0xbf52d919	-0.82362515
140	0xbf44f8e6	-0.7694229
141	0xbf2823f7	-0.6567988
142	0x3f47c02a	0.78027594
143	0x3eb1542d	0.34634534
144	0x3e1afb39	0.15134896
145	0xbf9dff43	-1.2343525
146	0xbe8773fc	-0.26455677
147	0x3f99a68a	1.2003949
148	0xbf84655c	-1.0343432
149	0xbed31a22	-0.41230875
150	0x3e01f8b2	0.12692526
151	0x3e7e407b	0.24829285
152	0x3e3d1063	0.18463282
153	0xbf2409db	-0.6407754
154	0xbddc7da4	-0.107661515
155	0xbf415bb4	-0.7553055
156	0xbf1f5152	-0.6223346
157	0xbf7207f7	-0.94543403
158	0xbe8a5441	-0.27017406
159	0x3f21848e	0.6309289
160	0xbf26e11a	-0.6518723
161	0xbe84285e	-0.25812048
162	0xbefed251	-0.49769834
163	0x3e95d44b	0.2926353
164	0xc05470df	-3.319389
165	0xbe842a5a	-0.25813562
166	0xbf20bcf5	-0.62788326
167	0x3e9bf481	0.3045998
168	0x3c64f1c3	0.013973656
169	0x3ea1f83f	0.3163471
170	0xbf6e4b35	-0.93083507
171	0x3f9b8a56	1.2151592
172	0x3f717535	0.9431947
173	0xc01bea21	-2.436165
174	0x3ed71304	0.42006695
175	0xbd99161d	-0.07474921
176	0x3eaef881	0.34173968
177	0xbf22f57a	-0.6365582
178	0x3f90a2d8	1.1299696
179	0xbf633676	-0.88754976
180	0xbfa3640d	-1.2764908
181	0x3f425ae5	0.75919944
182	0x3eb3e782	0.35137564
183	0x3f84aa60	1.0364494
184	0x3dd35000	0.10317993
185	0xbf1d5e74	-0.6147225
186	0xbfe138a3	-1.7595409
187	0xbe426321	-0.18983127
188	0x3f6772e9	0.90409714
189	0x3fb1829d	1.3867985
190	0xbe3d0596	-0.18459162
191	0xbf281bb5	-0.6566728
192	0x3dc185bc	0.09449336
193	0x3f5e598e	0.868554
194	0xbf40ad1f	-0.7526416
195	0x3e47e541	0.19521047
196	0xbed71a42	-0.4201222
197	0xbde76623	-0.11298778
198	0xbe8d2916	-0.2757041
199	0x3fe21940	1.7663956
200	0x3e43e563	0.19130473
201	0xbead7039	-0.33874682
202	0x3f099cfa	0.5375515
203	0xbfa706cf	-1.3048953
204	0xbe4003b1	-0.18751408
205	0xbf9ea0f6	-1.2392871
206	0xbf08ee89	-0.53488976
207	0x3faaa31a	1.3331025
208	0xbd97c6ef	-0.074109904
209	0x3b7d09f3	0.0038610667
210	0xbfa47a5f	-1.2849845
211	0xbe113ed1	-0.14184119
212	0x3e94bed7	0.2905185
213	0xbf962ca8	-1.1732378
214	0xbf89c93f	-1.076454
215	0x3f54e6d7	0.83164734
216	0xbf67407f	-0.9033279
217	0x3e16168d	0.1465704
218	0xbf1d9db3	-0.61568755
219	0x3f1df020	0.61694527
220	0xbfa379de	-1.2771566
221	0xbf0ebc80	-0.5575638
222	0x3fda0baa	1.703481
223	0xc05ef28e	-3.4835544
224	0xbe95d75d	-0.29265872
225	0xbf637dfb	-0.88864106
226	0xbfb0ba06	-1.380677
227	0xbe82b0d2	-0.25525528
228	0xbf2df650	-0.6795397
229	0x3e8d285a	0.27569848
230	0x3d837b4f	0.064200036
231	0x3ef5ef29	0.48034027
232	0x3f963a60	1.1736565
233	0xbeaf9960	-0.34296703
234	0xbf2a245e	-0.6646174
235	0xbf183401	-0.5945435
236	0x3ed4cb25	0.41561237
237	0x3f06bece	0.52634895
238	0xbf832a05	-1.0247198
239	0xbf1331c6	-0.57497823
240	0x3f3abf92	0.72948563
241	0x3f881811	1.0632344
242	0xbf2d4ec7	-0.6769833
243	0xbf918fe3	-1.1372036
244	0xbf32a521	-0.69783217
245	0x3ecb24b2	0.39676434
246	0xbf27b075	-0.6550363
247	0xbf996789	-1.1984721
248	0xbe202df2	-0.15642527
249	0xbfb1d3ab	-1.3892721
250	0xbcbc98b1	-0.023022028
251	0xc01152de	-2.2706828
252	0x3f08a344	0.53374124
253	0xbfcf1682	-1.6178744
254	0xbc8c2373	-0.017106747
255	0x3efd7488	0.4950297

fc2.bias f4 [64]
0	0xbfbda687	-1.4816445
1	0x40639fda	3.5566316
2	0x4044a815	3.072759
3	0xc005048f	-2.0784032
4	0x3fe6077f	1.7971038
5	0x3fc416c8	1.5319452
6	0xbd8e544f	-0.06949674
7	0xc01f8e6a	-2.4930673
8	0xbf7dabf3	-0.990905
9	0x4005b182	2.0889592
10	0xbf90f255	-1.1323954
11	0x400c6a36	2.1939826
12	0x40278285	2.6173413
13	0xbf8d8b97	-1.1058224
14	0x402f873c	2.742629
15	0x3e616ecb	0.2201492
16	0x3f09fd3d	0.53902036
17	0xc0013e08	-2.019411
18	0x3f61cc45	0.88202316
19	0x4005a1d5	2.0880024
20	0xbf651fe3	-0.8950178
21	0xbf452e33	-0.7702362
22	0x3ebe0ac4	0.3711759
23	0x40345617	2.8177545
24	0x40210f13	2.516545
25	0xc01473fd	-2.3195794
26	0xc0176921	-2.3657916
27	0x3e7c54fd	0.24641795
28	0x4035e64a	2.8421807
29	0x40357aa0	2.8356094
30	0x3fc38998	1.5276365
31	0xc00dabc8	-2.2136097
32	0xbda145f9	-0.07874674
33	0x40189358	2.3839931
34	0x3e2f7457	0.17134224
35	0x40170ca2	2.360146
36	0x3fa02a59	1.2512923
37	0xbdc29f68	-0.095030606
38	0xc03045d0	-2.754261
39	0xbf82e159	-1.0225021
40	0xbfee18e7	-1.860135
41	0xbe725bee	-0.23667881
42	0x3f6bc2f5	0.92094356
43	0x40797283	3.8976142
44	0x3ff22beb	1.8919653
45	0x408d867d	4.422667
46	0xc0400fc7	-3.000963
47	0xbf9a69c3	-1.2063526
48	0xbe032289	-0.12806143
49	0xbe38c984	-0.18045622
50	0x40a24e9f	5.0720973
51	0x4094999f	4.6437526
52	0x401f5a71	2.489895
53	0x403dd3b7	2.966047
54	0xc03ded69	-2.9676154
55	0xbfab9d77	-1.340743
56	0xc03be327	-2.9357393
57	0x3fda3881	1.7048494
58	0xbf4afee2	-0.7929517
59	0xbe3bb921	-0.1833234
60	0x3eae1923	0.34003553
61	0x3f8b5cb0	1.0887661
62	0xbe136bdc	-0.14396614
63	0xbf530629	-0.82431275

fc3.weight f4 [32, 64]
0	0xbf2162af	-0.63041204
1	0xbf1e1141	-0.6174508
2	0xbe64a18c	-0.2232725
3	0xbe48452e	-0.1955764
4	0xbe82ed2e	-0.2557158
5	0x3e0c0f1b	0.13677637
6	0xbbc032ae	-0.0058654165
7	0xbf3bf09f	-0.73414034
8	0xbd24da99	-0.040247533
9	0xbd40efdc	-0.047103748
10	0xbea00c17	-0.31259224
11	0xbe6b52d4	-0.22980815
12	0xbd367844	-0.044548288
13	0xbd92354d	-0.071390726
14	0xbe7b7314	-0.24555618
15	0x3ccfb315	0.025353948
16	0xbeb5810a	-0.35450011
17	0xbebf4cd9	-0.37363318
18	0xbdb67603	-0.08909228
19	0xbeb7465f	-0.35795876
20	0xbe6c9d88	-0.23106968
21	0x3df6c34f	0.12048971
22	0xbf24ebf2	-0.64422524
23	0xbed7ed2d	-0.42173138
24	0xbe1b6092	-0.15173557
25	0xbf00ead0	-0.50358295
26	0xbe913b86	-0.28365725
27	0xbd7dfe15	-0.06200989
28	0xbd4bf533	-0.049794387
29	0x3e20ee06	0.15715799
30	0xbc405113	-0.01173808
31	0xbda30484	-0.07959846
32	0x3df1e45c	0.11811134
33	0xbf440bb9	-0.7658039
34	0xbe4a3a78	-0.19748867
35	0x3c4ef296	0.012631079
36	0xbc447b01	-0.011992217
37	0xbf186bb0	-0.5953932
38	0xbca61129	-0.020271854
39	0xbf16d0a1	-0.5891209
40	0x3cde7208	0.027153984
41	0xbe2b8f83	-0.16753964
42	0xbe44d59a	-0.19222108
43	0x3cca6255	0.024705091
44	0xbdb10b6a	-0.08644755
45	0xbe982912	-0.29718834
46	0xbef6e384	-0.48220456
47	0xbe850302	-0.25978857
48	0x3c837b94	0.016050138
49	0x3d0338bb	0.032036524
50	0xbe9d59af	-0.30732486
51	0xbf17f322	-0.59355366
52	0xbe14424b	-0.14478414
53	0xbeac33d8	-0.33633304
54	0xbe9967c5	-0.29961982
55	0xbe8354ad	-0.2565054
56	0xbe0a9121	-0.13531925
57	0xbd66d230	-0.056352794
58	0xbe0cc194	-0.13745719
59	0x3d1581ee	0.036500864
60	0x3dddd82d	0.10832248
61	0x3c2b2ddd	0.010447946
62	0x3e700ac7	0.23441611
63	0xbdc9179b	-0.098189555
64	0xbec8a544	-0.39188588
65	0xbe417b6b	-0.18894736
66	0xbd4ea183	-0.050447
67	0xbe0b7b83	-0.13621335
68	0x3d316dfb	0.043317776
69	0x3c79c8b4	0.015245605
70	0xbdca9d1c	-0.098932475
71	0xbd2d945c	-0.042377815
72	0xbda84c24	-0.08217648
73	0xbe305728	-0.17220747
74	0xbe2f93d5	-0.17146237
75	0xbdb8a647	-0.0901609
76	0x3cdaf958	0.026730224
77	0xbe2adbba	-0.16685382
78	0xbe2a1987	-0.166113
79	0xbe02c607	-0.12770854
80	0xbe4111f0	-0.18854499
81	0xbe16d4d6	-0.14729628
82	0xbe1bd5bc	-0.15218252
83	0xbd447ac0	-0.047968626
84	0xbe85f933	-0.26166686
85	0xbde05caa	-0.10955174
86	0xbe056a53	-0.1302884
87	0xbd66bc59	-0.056331966
88	0xbd9a3ee3	-0.07531526
89	0xbe8bca9f	-0.27303025
90	0xbe889717	-0.26677772
91	0xbc46e7da	-0.012140239
92	0xbda09db3	-0.07842579
93	0xbd330934	-0.04370995
94	0xbdb3b4b3	-0.087747
95	0xbd8116b7	-0.06303161
96	0xbd29012d	-0.041260887
97	0xbe011472	-0.12605456
98	0xbc25d7d1	-0.010122255
99	0xbe47a66b	-0.19497077
100	0xbd86b138	-0.065767705
101	0xbe17aa8c	-0.14811152
102	0xbdf43529	-0.11924202
103	0xbe59aaf8	-0.21256626
104	0xbd78e1f2	-0.060762353
105	0xbe1f0ff4	-0.1553343
106	0xbe874fb8	-0.26428008
107	0xbb8e5f07	-0.0043448242
108	0x3d22354c	0.03960161
109	0xbe46da56	-0.19419226
110	0xbbe8fc00	-0.007110119
111	0xbe87388e	-0.26410335
112	0x3dce90b0	0.10086191
113	0xbd125735	-0.0357277
114	0xbe322fd8	-0.17401063
115	0xbe6d5702	-0.23177722
116	0x3cae9ac5	0.021314034
117	0x3d30c5b3	0.04315729
118	0xbde1d193	-0.11026301
119	0xbe8bff7a	-0.2734335
120	0xbe8e2e3e	-0.27769655
121	0xbe3e64c5	-0.18593128
122	0xbe73d0cf	-0.23810123
123	0x3d104598	0.03522262
124	0xbd8c3579	-0.068461366
125	0xbd775398	-0.060382456
126	0x3db80c93	0.08986773
127	0xbe3fdceb	-0.18736617
128	0xbe35667c	-0.17714876
129	0xbf06d57c	-0.526695
130	0xbf026f12	-0.5095073
131	0x3b00306c	0.0019560112
132	0xbd9faf81	-0.077971466
133	0xbe5b02f8	-0.21387851
134	0xbe2e14fd	-0.17000194
135	0xbf7f7081	-0.9978104
136	0x3d847750	0.064680696
137	0xbd580b6e	-0.052745275
138	0xbe8a7378	-0.2704122
139	0xbe1b2332	-0.15150145
140	0xbe47eef2	-0.19524744
141	0x3d793c49	0.060848508
142	0x3da7edb1	0.08199633
143	0xbe17714d	-0.14789315
144	0xbbdba0b7	-0.0067025083
145	0xbf352e76	-0.7077402
146	0xbe3ff7c7	-0.18746863
147	0xbcc318d1	-0.023815544
148	0xbe2d584d	-0.16928215
149	0xbe5048f4	-0.2034033
150	0xbe7f1d92	-0.24913624
151	0xbe22cd63	-0.15898661
152	0xbe38c4c7	-0.18043815
153	0xbf25b7cb	-0.6473357
154	0xbefed7ca	-0.4977401
155	0x3bc1ff00	0.005920291
156	0xbe7c6fbc	-0.24651998
157	0xbd629aee	-0.055323534
158	0xbeb5c04c	-0.35498273
159	0x3bd8f3c0	0.006620854
160	0xbe1c35af	-0.15254854
161	0xbe945968	-0.28974462
162	0xbe25b5f6	-0.16182694
163	0xbe9bcd13	-0.30429897
164	0xbe94184e	-0.28924793
165	0xbe866b23	-0.26253614
166	0xbf161e3d	-0.5863989
167	0xbf3c3629	-0.7352014
168	0xbdecebcc	-0.11568412
169	0x3cc397b1	0.023876043
170	0xbead7879	-0.33880976
171	0xbaab1b3c	-0.0013054381
172	0xbd964f59	-0.07339353
173	0xbe17681e	-0.14785811
174	0xbe5eddd2	-0.21764305
175	0xbe86f221	-0.26356605
176	0xbde58970	-0.11207855
177	0x3e2f441c	0.17115825
178	0xbed4e8b1	-0.4158378
179	0xbf0705bf	-0.5274314
180	0x3b5d2d6d	0.0033749
181	0xbe215a45	-0.15757091
182	0xbe61cd39	-0.22050942
183	0xbf1ec699	-0.62021786
184	0xbee19a36	-0.44062966
185	0xbe2abb1f	-0.16672944
186	0xbd138747	-0.036017682
187	0xbdaadd4f	-0.083429925
188	0xbdef9294	-0.116978794
189	0x3c27ea46	0.010248726
190	0xbdbb920e	-0.09158717
191	0x3ab89ac3	0.0014084209
192	0xbe99a903	-0.30011758
193	0xbe74312a	-0.2384688
194	0xbe29e5f6	-0.1659163
195	0x3daffdb4	0.08593312
196	0x3ce6aab1	0.028157564
197	0x3d4b0a55	0.0495704
198	0x3d161115	0.036637384
199	0xbea58d2b	-0.32334265
200	0xbbb17220	-0.005415216
201	0xbdea73b6	-0.11447851
202	0xbd83369a	-0.06406899
203	0xbdc01f4c	-0.093809694
204	0xbe499a8b	-0.1968786
205	0xbbd0ca95	-0.006371806
206	0xbd98a94f	-0.07454168
207	0xbdf8d174	-0.12149325
208	0xbe2ebbf3	-0.17063884
209	0xbecaf3a3	-0.39639005
210	0xbd257c51	-0.04040176
211	0xbeaaaf14	-0.333367
212	0xbe06afde	-0.13153026
213	0x3dae23d9	0.08502931
214	0xbe96528d	-0.29359856
215	0xbe58f5f3	-0.21187572
216	0xbe8fda61	-0.28096297
217	0xbeac70e3	-0.33679876
218	0xbd4191d4	-0.047258213
219	0xbd969015	-0.073517
220	0xbe13d09c	-0.14435047
221	0xbdff0964	-0.12452963
222	0xbe058e5f	-0.13042592
223	0xbe2a40ee	-0.16626331
224	0xbe0f76f2	-0.14010218
225	0xbf0f2548	-0.5591626
226	0xbce33dd5	-0.027739445
227	0xbe2db925	-0.16965158
228	0xbdf0e8d1	-0.11763156
229	0xbeef3a3c	-0.46724117
230	0xbe170b60	-0.14750433
231	0xbf1882ac	-0.5957439
232	0xbe1d15cc	-0.15340346
233	0xbcf67d4b	-0.030089041
234	0x3cbf6424	0.02336318
235	0x3ca711a6	0.020394158
236	0x3dac45a6	0.08411722
237	0xbed3e279	-0.41383722
238	0xbe07d6b0	-0.1326549
239	0xbe96e1fb	-0.29469284
240	0xbd063703	-0.032767307
241	0x3cb49eee	0.02204844
242	0xbe6ab4b6	-0.22920498
243	0xbea71a6f	-0.32637355
244	0x3a85f8cf	0.0010221245
245	0xbe14851c	-0.14503902
246	0xbe26b10d	-0.16278477
247	0xbf1d2273	-0.6138069
248	0xbd9bc059	-0.07605047
249	0xbe98f961	-0.2987776
250	0xbe5b531e	-0.21418425
251	0x3c3c8abe	0.011507688
252	0xbd28e588	-0.041234523
253	0xbd53371b	-0.051566225
254	0x3df14def	0.11782443
255	0xbe3e33d7	-0.18574463

fc3.bias f4 [32]
0	0xbf8ab91c	-1.0837741
1	0xbf4f4911	-0.80970865
2	0xbf8b1d34	-1.0868287
3	0xbf35cff9	-0.71020466
4	0xbf2e9947	-0.6820263
5	0xbef844bf	-0.4848995
6	0xbf2d1f7b	-0.6762616
7	0xbf543388	-0.8289113
8	0xbf777ec5	-0.9667781
9	0xbf8f6169	-1.1201602
10	0xbf8f423b	-1.1192087
11	0xbee0d3de	-0.43911642
12	0x3f1175e0	0.5682049
13	0xbf1d36d4	-0.61411786
14	0xbf41cb65	-0.7570098
15	0xbf3f0ee0	-0.7463207
16	0xbf4632ad	-0.77421075
17	0xbf640703	-0.890732
18	0xbf82df09	-1.0224315
19	0xbf123a43	-0.5712015
20	0xbec4cb88	-0.38436532
21	0xc0018c60	-2.0241928
22	0xbf884e20	-1.0648842
23	0x408de8e9	4.4346814
24	0xbf5d30f5	-0.8640283
25	0xbf8ef366	-1.1168029
26	0xc03ed1b4	-2.9815493
27	0xbf5bcb92	-0.858575
28	0xbf56f8e9	-0.83973557
29	0xbf55ce43	-0.83517855
30	0xbf810d3c	-1.0082164
31	0xbf00540b	-0.5012824

fc4.weight f4 [1, 32]
0	0x3d15d42f	0.036579307
1	0x3c8f052e	0.017458525
2	0xbdb931b1	-0.09042681
3	0xbd37300a	-0.044723548
4	0xbd88e9c4	-0.06685212
5	0x3c852d3f	0.016256927
6	0x3d538dce	0.051648907
7	0x3beec122	0.007286207
8	0x3c3e0fd8	0.011600457
9	0x3db51eef	0.08843791
10	0x3b2e3f9e	0.0026588212
11	0xbd9b9974	-0.07597628
12	0x3bffd004	0.00780678
13	0x3ce66441	0.028123977
14	0x3cf29368	0.029611304
15	0xbd8351be	-0.064120755
16	0xbd1f97e6	-0.03896322
17	0xbb78841f	-0.0037920547
18	0xbd040ad5	-0.032236893
19	0xbd2bf3fb	-0.041980725
20	0xbd860a2c	-0.06544909
21	0x3d18753c	0.03722118
22	0x3d14f046	0.036361955
23	0x3e04d69e	0.12972495
24	0x3db99260	0.09061122
25	0xbd7392b0	-0.059466064
26	0xbc9f1bf2	-0.019422505
27	0xbc2cc306	-0.010544544
28	0xbdaa7edb	-0.08324977
29	0xbd42035b	-0.04736648
30	0x3cbb435d	0.02285927
31	0x3bde64c6	0.0067869155
