p2_continuous-control/src_submission/checkpoint_actor12success.pth (torch_old, 20276 bytes, 4 tensors)

fc1.weight f4 [128, 33]
0	0x3f09b739	0.537952
1	0xbdcab83a	-0.0989842
2	0x3f28235c	0.65678954
3	0xbf784ed9	-0.9699531
4	0xbfce73cb	-1.6129087
5	0x409b91d9	4.8615537
6	0x3ead731c	0.33876884
7	0x3e60f4a7	0.21968327
8	0xbf4ab163	-0.7917692
9	0xbef2c45a	-0.4741543
10	0x3eafece9	0.34360436
11	0xbe53cd92	-0.20683888
12	0xbe6dcf87	-0.23223697
13	0x3ea3c15f	0.31983468
14	0x3e546c0f	0.20744346
15	0xbf28e8db	-0.6598031
16	0x3c022cfd	0.007945296
17	0xbe9ee75d	-0.3103589
18	0x3dff932c	0.12479243
19	0xbd84adec	-0.064784855
20	0xbcd3c9ed	-0.025853122
21	0xbe6cd76f	-0.23129056
22	0x3dea1f17	0.11431711
23	0x3e397f45	0.18114956
24	0x3e00340b	0.12519853
25	0xbcdb1521	-0.026743473
26	0xbf1675a5	-0.5877326
27	0x3f35c97b	0.7101056
28	0x3e8eece4	0.27915108
29	0x3b36a9a0	0.00278721
30	0xbf580c0f	-0.843934
31	0xbda33604	-0.07969287
32	0x4025cc62	2.5905995
33	0x3fd0c90b	1.6311353
34	0x3fa9d97c	1.3269496
35	0x3e889029	0.26672485
36	0xbe3b53f4	-0.18293744
37	0x3f872475	1.0558001
38	0xbee632df	-0.44960687
39	0x3e4f08b5	0.20218165
40	0xbe503b64	-0.20335156
41	0x3f383a0f	0.7196359
42	0x3d831f4d	0.064024545
43	0x3f0621d7	0.52395386
44	0x3de0d448	0.109779894
45	0xbe32ab04	-0.1744805
46	0xbf650b47	-0.8947033
47	0xbf19e8ff	-0.6012115
48	0xbedb9c50	-0.42892694
49	0xbf186343	-0.5952646
50	0x3f22c6cb	0.63584584
51	0x3c91bcc9	0.017790215
52	0x3e149320	0.14509249
53	0x3c322659	0.010873401
54	0xbd53403c	-0.05157493
55	0xbdc7eae6	-0.097616
56	0xbe71c799	-0.23611297
57	0xbe45af8b	-0.19305246
58	0x3e33684e	0.17520258
59	0x3e2aaa00	0.16666412
60	0x3eeb180a	0.45916778
61	0x3e5af3d5	0.21382077
62	0xbd824b99	-0.06362075
63	0xbeda54b5	-0.4264275
64	0xbd626f39	-0.05528185
65	0xc0458f38	-3.0868664
66	0xbf2a09b8	-0.6642108
67	0x3f46dda7	0.77681965
68	0xbf977fcd	-1.1835877
69	0xbf3fca4d	-0.7491806
70	0x3fe9b70a	1.8258984
71	0xbf2d8bcf	-0.67791456
72	0xbf1b0e09	-0.6056829
73	0xbea1d59c	-0.31608284
74	0x3f9accd7	1.2093762
75	0x3ecb606d	0.39722005
76	0x3e56a98f	0.20963119
77	0xbf02ef41	-0.5114632
78	0xbe912736	-0.28350228
79	0x3e58bc84	0.21165663
80	0xbf957527	-1.1676377
81	0x3f37515f	0.7160854
82	0x3f313a77	0.69229835
83	0x3ef10fea	0.47082454
84	0xbbb293aa	-0.005449732
85	0x3d9e873a	0.07740636
86	0xbdb0af51	-0.08627189
87	0xbe915d89	-0.28391674
88	0xbd18b996	-0.037286364
89	0xbecf9544	-0.40543568
90	0xbec3b811	-0.3822637
91	0x3ec06dd1	0.37583783
92	0xbec3cf46	-0.38244075
93	0x3f9fc33b	1.2481455
94	0xbe04f52e	-0.12984154
95	0xbda88eaf	-0.0823034
96	0xbf9d86e8	-1.2306795
97	0x3c29c878	0.010362737
98	0x3a043c08	0.0005044346
99	0xbdef0bc7	-0.11672168
100	0xbf8108ad	-1.0080773
101	0xbd8e9f19	-0.06963939
102	0x3f38f441	0.722477
103	0xbed27192	-0.41102272
104	0xbeab1fe8	-0.3342278
105	0xbd0f1705	-0.034934063
106	0xbe3e165b	-0.18563215
107	0xbf5fefc6	-0.8747524
108	0xbfd9b9c4	-1.7009816
109	0xbed5b252	-0.4173761
110	0xbf28600d	-0.6577156
111	0x3e79591d	0.243504
112	0xbd259954	-0.04042943
113	0x3f890de2	1.0707362
114	0x3c9f0f8d	0.019416595
115	0x3dddf5f8	0.108379304
116	0xbe355940	-0.17709827
117	0xbed97fe6	-0.4248039
118	0xbbef0a18	-0.0072949044
119	0xbd888a18	-0.06666964
120	0xbeb4d53a	-0.3531893
121	0x3f64e006	0.8940433
122	0x3ee4bf0f	0.44677016
123	0x3ea30972	0.31843144
124	0x3ee3ddae	0.44505066
125	0xbe45b0bc	-0.193057
126	0x3fc30636	1.523627
127	0x3eb54fb1	0.35412362
128	0x3b858be0	0.0040755123
129	0xbfcd3e28	-1.6034594
130	0x3d853e2d	0.06506
131	0x402cd3a8	2.7004185
132	0xbfcae3dc	-1.5850787
133	0xbd9ea763	-0.0774677
134	0x3f55361c	0.8328569
135	0xbf05f72f	-0.523303
136	0xbed47b59	-0.41500357
137	0xbf738dbe	-0.95138156
138	0xbf1f119a	-0.6213623
139	0xbd68a87f	-0.056801315
140	0x3f43a62d	0.7642544
141	0x3e3aa9df	0.18228863
142	0xbe506909	-0.20352568
143	0x3a87f068	0.0010371329
144	0x3c04aa88	0.008097298
145	0x3fa193d9	1.2623245
146	0x3e33f0b4	0.1757229
147	0xbee6e8f5	-0.45099607
148	0x3e8844fc	0.2661513
149	0x3e1790bc	0.14801306
150	0x3f06dca6	0.5268043
151	0x3c62342f	0.013806387
152	0x3ecb6058	0.39721942
153	0xbe5e69fa	-0.21720114
154	0x3ead4939	0.33844927
155	0x3ee87fbd	0.45409957
156	0xbdfd8811	-0.12379468
157	0xbe023f03	-0.1271935
158	0x3e04d9b5	0.12973674
159	0x3fb624a6	1.4229934
160	0xbe58c5bb	-0.21169178
161	0x3d766946	0.06015899
162	0xbfa78940	-1.308876
163	0xbc3e19d0	-0.011602834
164	0x3df0f0a5	0.11764649
165	0xbdc258b0	-0.09489572
166	0x3f27d629	0.6556116
167	0x3e217beb	0.15769927
168	0xbf4bfb2f	-0.7968015
169	0xbe08e392	-0.13368061
170	0x3f25e2b4	0.64799047
171	0xbea59a22	-0.32344157
172	0xbdb6bbb7	-0.089225225
173	0x3de061fb	0.10956188
174	0xbf2dbaba	-0.6786305
175	0x3ddeba42	0.108753696
176	0xbeebf9ed	-0.46089116
177	0xbe5b686e	-0.21426556
178	0x3e80e1ec	0.25172365
179	0xbe747853	-0.23874025
180	0x3e144050	0.14477658
181	0xbfae28fb	-1.3606256
182	0xbefe5c5d	-0.49679843
183	0xbf1d9d88	-0.615685
184	0x3f258096	0.6464933
185	0x3e11f9cb	0.14255445
186	0x3e051551	0.12996413
187	0x3e768334	0.24073488
188	0xbf803fa9	-1.0019428
189	0xbea12b50	-0.31478357
190	0xbf77fce7	-0.96870273
191	0x3debb37b	0.115088426
192	0x3fa0bc44	1.2557454
193	0xbeb854e9	-0.3600228
194	0x3d1bb05e	0.038009994
195	0xbfa0d3a0	-1.2564583
196	0xbd0c6733	-0.034278106
197	0x405b2e3a	3.4246964
198	0xbf2f2a88	-0.6842427
199	0xbe73e6ce	-0.23818514
200	0xbe7a5d4b	-0.24449651
201	0x3bae139d	0.0053123967
202	0x3d1c57e0	0.03816974
203	0x4028557d	2.6302178
204	0xbf8b80fb	-1.0898737
205	0x3ec5292b	0.3850797
206	0x3f9edfba	1.2412026
207	0xbe4f25f2	-0.20229319
208	0xbec99ebb	-0.39378914
209	0x3f19b88f	0.6004724
210	0xbe9fa768	-0.31182408
211	0x3f14742c	0.57989764
212	0x3f8c8e1c	1.0980868
213	0x3e9b01a4	0.3027469
214	0xbf277b47	-0.6542248
215	0xbead777e	-0.33880228
216	0xbe92789e	-0.2860765
217	0x3ee8e5c9	0.45487812
218	0xbecd08ad	-0.40045682
219	0x3e9e1978	0.30878806
220	0xbe8a5ce8	-0.27024007
221	0x3e12a35f	0.14320134
222	0xbe78872e	-0.24270317
223	0xbd573190	-0.0525375
224	0x3df1fe7e	0.11816119
225	0x3fcc82d0	1.5977421
226	0xbf614dca	-0.8800932
227	0x3cdb9550	0.026804596
228	0xbfd49bcb	-1.6610044
229	0xbca18904	-0.019718654
230	0xbfb1637d	-1.3858486
231	0x3e4fe3c0	0.20301723
232	0xbe54f69b	-0.20797198
233	0x3e2e105d	0.1699843
234	0xbe3f06c4	-0.18654925
235	0xbd23c74e	-0.039984994
236	0xbead4382	-0.33840567
237	0xbe6db100	-0.23212051
238	0xbd6c75b0	-0.057729423
239	0x3e587039	0.2113656
240	0xbfbd4b47	-1.4788598
241	0xbe68a0a0	-0.22717524
242	0x3e4ee023	0.20202689
243	0x3ed7c13e	0.4213962
244	0xbf3b2c26	-0.7311424
245	0x3f5bb6ba	0.85825694
246	0x3f303097	0.6882414
247	0x3d1760e3	0.036957633
248	0xbe9dbace	-0.30806583
249	0x3f03b2d1	0.5144473
250	0x3e962892	0.29327828
251	0xbdfdfde9	-0.12401945
252	0xbc3ccf63	-0.011524054
253	0x3e2031ba	0.15643969
254	0xbd2b1182	-0.041764744
255	0x3ef0f195	0.47059312

fc1.bias f4 [128]
0	0xbf47f1e3	-0.78103465
1	0xbec9531d	-0.39321223
2	0xbfa6294a	-1.298135
3	0xbfcc495c	-1.5959888
4	0xbfa04988	-1.252244
5	0xbfa10c24	-1.258183
6	0xbfc3f674	-1.5309587
7	0xbfa30dbe	-1.2738569
8	0xbf648370	-0.8926306
9	0xbfb9d053	-1.45167
10	0xbf7408c0	-0.9532585
11	0xbf15b223	-0.5847494
12	0xbf67fed3	-0.90623206
13	0xbfad90e4	-1.3559842
14	0xbf76abe1	-0.96356016
15	0xbed45bf1	-0.41476396
16	0xbfdc192c	-1.7195182
17	0xbf03c867	-0.51477665
18	0xbe89ca4f	-0.26912162
19	0xbfe833d7	-1.814082
20	0xbf50cd78	-0.8156352
21	0xbf5ff95d	-0.87489873
22	0xc010e136	-2.2637458
23	0xbf208af1	-0.6271201
24	0xbfeca8b6	-1.8488986
25	0xbfe54d3a	-1.7914193
26	0xc0259a13	-2.587529
27	0xc000d8be	-2.013229
28	0xbf354faf	-0.7082471
29	0xbfd9dab8	-1.7019873
30	0xbff02840	-1.8762283
31	0xbf1f1c0d	-0.6215218
32	0xbfccacf0	-1.5990276
33	0x3e2d7d1d	0.16942258
34	0xbf096712	-0.536729
35	0xbf9d55f5	-1.2291857
36	0xbf5ebab0	-0.8700361
37	0xbe01a9d6	-0.12662444
38	0xbf30d284	-0.6907122
39	0xbf8fcf08	-1.1235056
40	0xbf6c2726	-0.92247236
41	0xbfe1a400	-1.7628174
42	0xbfc4433f	-1.5333022
43	0xbf413722	-0.7547475
44	0xc012baf4	-2.2926607
45	0x3eb7c01d	0.35888758
46	0xbf6cadc3	-0.9245264
47	0xbf870824	-1.0549359
48	0xbeea1065	-0.45715633
49	0xbf749bcc	-0.9555023
50	0xbfa49f37	-1.2861089
51	0xbf06aaed	-0.5260456
52	0xbf929fd1	-1.1455022
53	0xbff255fd	-1.8932492
54	0xbf3d6013	-0.7397472
55	0xbfbf5e97	-1.4950742
56	0xbfc6601f	-1.5498084
57	0xbf8ba523	-1.0909771
58	0xbf3cd782	-0.7376634
59	0xbfdfd1a4	-1.7485852
60	0xbe8f4891	-0.2798505
61	0xbefc76e5	-0.4930946
62	0xbecd4d48	-0.40098023
63	0xbff5a5e2	-1.9191248
64	0xbf1ecda4	-0.6203253
65	0xbf8a5e78	-1.081008
66	0xc0036582	-2.0530705
67	0xbf9525a2	-1.165211
68	0xbf227fc9	-0.63476235
69	0xbeeb99fb	-0.46015915
70	0xbf90f982	-1.1326144
71	0xbf514b99	-0.8175598
72	0xbff8929f	-1.9419745
73	0xbfbf29fc	-1.4934688
74	0xbf191634	-0.59799504
75	0xbfa766e6	-1.3078277
76	0xbf39b53a	-0.72542155
77	0xbfe9c3f3	-1.8262924
78	0xbf57b1f2	-0.842559
79	0xbf9f3c1f	-1.2440223
80	0xbf8b7fe1	-1.08984
81	0xbfa17438	-1.2613592
82	0xbf175234	-0.59109807
83	0xbead7118	-0.33875346
84	0xbf9fb4b5	-1.2477022
85	0xbded48c4	-0.115861446
86	0xbe9f250c	-0.31082952
87	0xbf99c26e	-1.201246
88	0xbf991a89	-1.1961223
89	0xbfa0df00	-1.2568054
90	0xbf734616	-0.9502882
91	0xbfa5db50	-1.2957554
92	0xbfcab4cf	-1.5836428
93	0xbf76b4d3	-0.96369666
94	0xbdb01c28	-0.085991204
95	0xbf9d90f5	-1.2309862
96	0xbfacf479	-1.3512107
97	0xbf142642	-0.57870877
98	0xbfcedbe1	-1.6160852
99	0xbec8e234	-0.3923508
100	0xbf63023f	-0.886753
101	0xbf8cf61f	-1.101261
102	0xbeeecefc	-0.46642292
103	0xbf59f56c	-0.8514011
104	0xbf27012d	-0.6523617
105	0xbf85f6aa	-1.0465901
106	0xc00d2048	-2.2050953
107	0xbf9b4a6e	-1.2132089
108	0x3ed46bab	0.41488394
109	0xbf8ed566	-1.1158874
110	0xbf28824a	-0.65823805
111	0xbf29520e	-0.6614083
112	0xbe96d5e1	-0.29460052
113	0xc00aea19	-2.1705382
114	0xbe1f119b	-0.1553406
115	0xbf6ea38d	-0.9321831
116	0xbf3307fa	-0.69934046
117	0xbf94a08b	-1.1611494
118	0xbf871c28	-1.0555468
119	0xbf9ce182	-1.225632
120	0xbf33bf36	-0.7021364
121	0xbf88a4ed	-1.0675331
122	0xbfbeafa6	-1.4897354
123	0xbf9c0117	-1.2187833
124	0xbf8d7fcf	-1.1054629
125	0xbf8bcd0b	-1.0921949
126	0xbf923d0a	-1.1424878
127	0xbf5ee8d0	-0.87073994

fc2.weight f4 [4, 128]
0	0xbfb9fd66	-1.4530456
1	0xbeeb66b3	-0.4597679
2	0xbeb79cd3	-0.35861835
3	0xbeb3699a	-0.35041505
4	0xbe9a5deb	-0.3014978
5	0xbe8aaff8	-0.27087379
6	0xbfa11fff	-1.258789
7	0xbfa43da1	-1.2831308
8	0x3e485c93	0.19566564
9	0xbf878f67	-1.0590638
10	0x3efdcf88	0.49572396
11	0x3ccc305e	0.024925407
12	0x3dac28ce	0.084062204
13	0xbf7cded4	-0.9877751
14	0xbeb8a8b9	-0.36066225
15	0xbe2cce99	-0.16875686
16	0xbf455952	-0.77089417
17	0x3f477bf1	0.77923495
18	0x3f3c85d8	0.7364173
19	0x3fa43540	1.2828751
20	0x3e2e499e	0.1702027
21	0xbf437bfa	-0.7636105
22	0x3f902930	1.126257
23	0x3e58c7f2	0.21170023
24	0x38c251c4	9.265871e-05
25	0x3f89126c	1.0708747
26	0xbb97beda	-0.0046309056
27	0xbf46a10a	-0.77589476
28	0xbee335b4	-0.4437691
29	0xc043f488	-3.0618
30	0x3e423949	0.18967165
31	0xbf07fb1d	-0.53117543
32	0xbfa66068	-1.2998171
33	0xbe03b54b	-0.12862127
34	0xbe71579a	-0.23568574
35	0x3f96cd4e	1.1781404
36	0x3f7c69a4	0.98598695
37	0x3f2a8f55	0.6662496
38	0x40188301	2.3829958
39	0xbcb3d77b	-0.021953335
40	0xbee3d358	-0.4449718
41	0x3ed3a02a	0.41333133
42	0xbf0d2ec5	-0.5514949
43	0xbf06cd4d	-0.52657014
44	0xbfd9ddcb	-1.7020811
45	0xbe9c4c30	-0.30526876
46	0xbefac398	-0.4897735
47	0xbed0c1d3	-0.40772876
48	0x3de5fb46	0.11229567
49	0xbf190367	-0.59770817
50	0xbee73ac3	-0.4516202
51	0xbee2ce9c	-0.44298255
52	0xbfb280e0	-1.394558
53	0x3f9e22e2	1.2354395
54	0x3eed5d0e	0.46360058
55	0xbf742639	-0.95370823
56	0xbfb50101	-1.4140931
57	0xbeda78f5	-0.42670408
58	0xbfca01ad	-1.5781761
59	0x3f418454	0.7559254
60	0xbf24dbd2	-0.6439792
61	0x3e8758ce	0.2643494
62	0x3ec74263	0.38917837
63	0x4034598f	2.8179662
64	0xbeba7413	-0.36416683
65	0xbd6060be	-0.05477976
66	0xbe095911	-0.13412882
67	0xbdfd799f	-0.12376713
68	0x3e5c12c5	0.21491535
69	0xbf09f3d3	-0.5388767
70	0x3ed2565c	0.41081512
71	0xbfb5d11f	-1.4204444
72	0x3f2c97c2	0.67419064
73	0xbf1564cd	-0.58356935
74	0x3e8c5876	0.2741124
75	0xbda511f6	-0.080600664
76	0xbe55275b	-0.20815794
77	0x3f2e4265	0.6807006
78	0xbeae7d19	-0.34079817
79	0xbf7db910	-0.9911051
80	0x3ebad852	0.36493164
81	0xbfbda556	-1.4816082
82	0xbee854c9	-0.45377186
83	0x3eb70474	0.35745585
84	0x3f76ec54	0.9645436
85	0xbd99bc1d	-0.07506583
86	0xbf36df9f	-0.7143497
87	0x3f9dd2fd	1.2330014
88	0x3ef6f61c	0.48234642
89	0x3f6bc97b	0.9210431
90	0x3f2d834e	0.6777848
91	0x3f166077	0.58740944
92	0xc00f713d	-2.2412865
93	0x3ef4c1ab	0.47804007
94	0x3f7da4c3	0.9907953
95	0xbfe06ec9	-1.7533809
96	0xbf77a185	-0.96730834
97	0xbfcf8338	-1.621192
98	0x3fa02014	1.250979
99	0xbf149609	-0.58041435
100	0xbed6f309	-0.41982296
101	0x3e20c7fd	0.1570129
102	0x3ef7a95c	0.48371398
103	0x3ffc475a	1.9709275
104	0x3c95209e	0.01820403
105	0x3dfdb2d8	0.12387627
106	0xbed98094	-0.4248091
107	0xbe86860b	-0.26274142
108	0xbda56661	-0.08076168
109	0x3f0e793b	0.55653733
110	0xbef0c0ef	-0.47022197
111	0x3f422787	0.75841564
112	0xbe42e649	-0.1903316
113	0xbf2bdbea	-0.6713244
114	0xbf0771f1	-0.52908236
115	0x3c1e4f45	0.009662454
116	0x3f0d65b3	0.55233306
117	0xbed56fd6	-0.41686887
118	0xbe21bbf7	-0.15794359
119	0x3c91b3a6	0.017785858
120	0x3fb58f86	1.4184425
121	0xbf78e207	-0.9721989
122	0x3f248d2e	0.64277923
123	0xbf0361e3	-0.5132124
124	0xbf0a93cd	-0.54131776
125	0x3f044482	0.51667035
126	0xbd21aa96	-0.039469324
127	0x3fb8b55c	1.4430346
128	0xbf9e8fda	-1.238765
129	0xbfbab457	-1.4586285
130	0xbf77986e	-0.96716964
131	0x3fec8ec4	1.8481069
132	0xc0076003	-2.115235
133	0x3f8d1d4e	1.1024568
134	0x3e1711a0	0.14752817
135	0x3ea2c35e	0.31789678
136	0xbe04dc51	-0.12974669
137	0x3f6f537b	0.93486756
138	0xbd45b6a1	-0.04826987
139	0x3f5b4037	0.8564486
140	0x3ee157a8	0.4401219
141	0x3dbf9b5c	0.09355804
142	0x3f2aa5b2	0.6665908
143	0xbdc01c7d	-0.09380434
144	0x3fd65dbe	1.6747358
145	0xbe8632b9	-0.26210573
146	0xbf0e6f86	-0.5563892
147	0x3f93c3b1	1.1544095
148	0xbe3318fb	-0.17489998
149	0x3f422a07	0.7584538
150	0x3df7d11c	0.12100431
151	0xbf064ce6	-0.5246109
152	0x4014d581	2.3255312
153	0xc019729e	-2.3976207
154	0x3fdf7c45	1.7459799
155	0xbf5f4e80	-0.87229156
156	0xc0015a5e	-2.0211406
157	0x3fe37b3a	1.7771981
158	0xbedab373	-0.42715034
159	0x3f8e6aad	1.1126305
160	0x3fba99bc	1.4578166
161	0x3d87231a	0.06598492
162	0xbf765ea0	-0.96238136
163	0xbe26abc8	-0.16276467
164	0x3d71623b	0.05893157
165	0x3eb3a5a3	0.35087308
166	0x3fe94372	1.8223708
167	0xbe937412	-0.28799492
168	0xbf4afeca	-0.7929503
169	0x3eeca767	0.46221468
170	0xc01b0a36	-2.4224982
171	0xbf262f0b	-0.6491553
172	0xbfe252e0	-1.7681541
173	0xbe922bfd	-0.28549185
174	0x3f37aaed	0.7174519
175	0x3f9a777c	1.2067714
176	0xbf68cd98	-0.9093871
177	0xbf8abc57	-1.0838727
178	0x3f0de7fb	0.554321
179	0xbebdffe5	-0.37109295
180	0xbfdc431c	-1.720798
181	0x3f374a2e	0.71597564
182	0x3e885e4f	0.26634452
183	0xbf49896e	-0.78725326
184	0xbeb24d11	-0.34824422
185	0xbf364b80	-0.71208954
186	0x3ecc0302	0.39846045
187	0xbf613f26	-0.8798698
188	0xbbe441ce	-0.0069658523
189	0x3fe7d7a3	1.8112682
190	0x3f08ebae	0.5348462
191	0xbd05431d	-0.032534707
192	0x3f73d8fb	0.9525296
193	0xbfaf4e47	-1.3695763
194	0x3e9c3385	0.30508056
195	0xbf4290fe	-0.7600249
196	0xbfa7c2a5	-1.3106276
197	0x3eb4fd3b	0.3534945
198	0xbf73577c	-0.95055366
199	0xbf209eb5	-0.6274217
200	0x3eec3e0c	0.46141088
201	0x3efd8fc2	0.4952374
202	0x3e4c3373	0.19941501
203	0xbfa81199	-1.313037
204	0x3fe6d12b	1.8032583
205	0x3ea6d97f	0.3258781
206	0x3ce7308a	0.028221387
207	0xbf416abd	-0.75553495
208	0x3fce2437	1.6104802
209	0xbfa23828	-1.2673388
210	0x3edf381c	0.43597496
211	0xbe1fabd2	-0.15592888
212	0x3f1496ae	0.5804242
213	0x3f252d89	0.64522606
214	0xbe825891	-0.25458196
215	0x3f8b155a	1.0865891
216	0x3ec539fe	0.38520807
217	0xbf06e6d2	-0.52695954
218	0xbf0ef283	-0.55838794
219	0xbf46342c	-0.7742336
220	0xbf7df1f8	-0.9919734
221	0xbf85b4f9	-1.0445853
222	0xbea2d216	-0.31800908
223	0x40211191	2.5166972
224	0xbfa07ce6	-1.2538116
225	0x3f2fc885	0.68665344
226	0x3ecf37f3	0.40472373
227	0xbf21ffa7	-0.6328072
228	0xc006f7fd	-2.108886
229	0x3fa5d38d	1.2955185
230	0x3e719587	0.23592196
231	0xbfb7e7d2	-1.4367621
232	0x3f5352f9	0.8254848
233	0x400205b2	2.0315976
234	0xbfb6e535	-1.4288698
235	0xbf5b38b3	-0.8563339
236	0x3ed70121	0.4199305
237	0xbecf1b73	-0.4045063
238	0xbf4aa596	-0.79158914
239	0xbe1aa631	-0.1510246
240	0xbe95510c	-0.29163396
241	0xbea312ed	-0.31850377
242	0xbfb13e69	-1.3847171
243	0x3f0e17e0	0.5550518
244	0xbf38b4ed	-0.7215107
245	0x3f5f860b	0.8731391
246	0x3e89d857	0.26922867
247	0x3f5c2f42	0.8600961
248	0xbf3294e3	-0.69758433
249	0x3f07d9db	0.53066796
250	0x3f25d703	0.64781207
251	0xbd060b13	-0.032725405
252	0xc01aab74	-2.4167147
253	0xbf1cdf20	-0.6127796
254	0xbeb4bafd	-0.3529891
255	0xbf93f0ed	-1.15579

fc2.bias f4 [4]
0	0xbf2ab1ec	-0.6667774
1	0xbe92abc7	-0.2864668
2	0xbdfd107d	-0.123566605
3	0xbe971056	-0.2950465
