p1_navigation/src_submission/checkpoint2.pth (torch_old, 28451 bytes, 6 tensors)

fc1.weight f4 [64, 37]
-0.19743524 0.081432864 -0.052609716 0.060397923 -0.8079566 0.015590191 0.30559406 -0.108953126
-0.3633544 -0.24445848 0.015278151 -0.11498034 -0.10520007 -0.28615806 -0.003828542 -0.07586482
0.2325428 0.038139537 -0.17487253 -0.693908 0.09413502 0.03138335 0.39129674 -0.16505578
-0.18230344 0.0032066808 0.095157444 0.17420931 -0.49524182 -1.0475413 0.07513891 0.2643174
-0.031804886 -0.33421928 -0.0862523 -0.025717273 0.008880533 0.11790425 0.22270198 -0.3005813
-0.07863592 -0.13729168 -0.11330974 -0.2621286 0.14611864 -0.37855658 -1.215078 0.12520279
-0.047558475 -0.28761533 0.17254747 0.13922626 0.019705268 0.112685174 -0.08818993 -0.22693264
0.106903836 0.08217206 -0.21544611 -0.24172445 -0.38277087 0.097699106 0.056963723 -0.05393151
-0.22212544 -0.2384895 0.40046433 0.07336815 0.061477676 0.09133676 -0.1731611 -0.0128898425
-0.02494199 -0.0011371983 0.1200959 0.0026268591 0.033302292 0.25839388 0.098195955 -0.8394432
0.20618634 0.20779732 0.16831201 -0.40360066 0.025612274 0.24649946 -0.12507904 -0.5366325
0.006697843 -0.28390536 0.18462053 0.109467424 -0.09102744 -0.12601222 -0.19580059 -0.054120604
0.0136803435 -0.14070629 -0.09841274 -0.814835 0.3380707 0.19472598 0.21723093 -0.325734
-0.661843 -0.080043525 0.03198777 0.27007073 -0.063644126 -0.024691628 -0.022999328 -0.046425756
0.10682152 0.09977352 -0.11433261 0.047615375 -0.2330898 0.04488568 0.20914336 -0.25406072
-1.1946715 -0.11772578 0.08681579 0.014518821 -0.49845576 0.055272546 -0.11352107 0.0075657587
0.06172599 -0.37592158 -0.45111787 0.013653456 0.0601347 -0.016909946 -0.25638774 -0.51817364
-0.035508238 -0.04855056 0.24510148 -0.4705442 -0.585065 0.26237416 0.332622 -0.11086695
-0.57632023 -1.0466084 0.0479181 0.039831094 -0.10956515 -0.18031934 -0.30897328 0.06291241
0.053672757 -0.35728863 0.21904768 0.24572033 -0.111333035 -0.14765084 -0.022042088 0.015633069
-0.13562179 -0.16092867 -0.22129269 -0.49768272 0.089217074 -0.17362253 0.24458276 0.2639127
-0.11960838 0.024921156 -0.043483082 0.24729888 0.052077934 -0.06565057 0.13444711 0.20133948
-0.40929624 -0.11205009 0.21646066 0.0132482685 -0.09176397 0.043577082 -0.048329867 -0.08521087
0.009795784 -0.044780903 -0.12235367 0.07229212 -0.19785093 0.03578023 0.20872615 -0.06507969
0.012917662 -0.22253242 -0.97599095 -0.10873553 -0.046901707 0.071617275 -0.34464923 -0.18590513
0.012188009 0.25418553 -0.19725725 -0.5770162 -0.067360975 0.3170972 -0.45524243 -0.1801363
0.13195479 -0.120943956 -0.23728083 -0.06619937 0.1811499 0.08297128 -0.30644664 -0.047189064
-0.10785974 0.098041326 -0.033428624 0.09681847 0.07423804 0.017605845 -0.31961924 0.17573497
-0.16714403 -0.21680167 -0.18317695 -0.17786026 -0.5439452 0.2067745 -0.27693295 0.12112083
0.09814569 -0.020064319 0.06537904 -0.25825652 0.3527533 -0.25570717 -0.13100596 -0.09055281
0.0924971 -0.03751679 0.059377804 -0.06400137 0.021282293 -0.6587044 0.3783208 -0.33566558
-0.01860406 0.0774153 -0.49497738 0.08396864 -0.09987276 0.025025249 -0.21798284 -0.028093703
00000000: 772c 4abe 46c6 a63d 497d 57bd d063 773d
00000010: 3ed6 4ebf 006e 7f3c d376 9c3e d122 dfbd
00000020: 9709 babe 5353 7abe 3651 7a3c d07a ebbd
00000030: 2273 d7bd 4f83 92be 47e8 7abb 045f 9bbd
00000040: b31f 6e3e 3438 1c3d c911 33be f4a3 31bf
00000050: ddc9 c03d d48b 003d 0c58 c83e 6204 29be
00000060: c1ad 3abe 2d27 523b e8e1 c23d ed63 323e
00000070: 5690 fdbe d515 86bf 6ee2 993d 9c54 873e
00000080: d745 02bd ca1e abbe 0ca5 b0bd 08ad d2bc
00000090: a87f 113c c977 f13d fd0b 643e cbe5 99be
000000a0: df0b a1bd 3196 0cbe f00e e8bd b835 86be
000000b0: 20a0 153e 2bd2 c1be ad87 9bbf 2935 003e
000000c0: adcc 42bd 5142 93be 49b0 303e 5491 0e3e
000000d0: f16c a13c 7cc7 e63d ec9c b4bd 0861 68be
000000e0: 66f0 da3d d349 a83d e89d 5cbe 9d86 77be
000000f0: 8bfa c3be 7816 c83d cb52 693d 49e7 5cbd
00000100: da74 63be 9736 74be a909 cd3e 0a42 963d
00000110: 04d0 7b3d c40e bb3d 2551 31be eb2f 53bc
00000120: 2553 ccbc 0b0e 95ba d7f4 f53d 6227 2c3b
00000130: fc67 083d 344c 843e f61a c93d c0e5 56bf
00000140: 8322 533e d2c8 543e fc59 2c3e bfa4 cebe
00000150: d5d0 d13c 5b6a 7c3e b814 00be bf60 09bf
00000160: 9479 db3b 0b5c 91be 2a0d 3d3e 7530 e03d
00000170: 986c babd 5909 01be f37f 48be 91ad 5dbd
00000180: 8523 603c 4f15 10be 9e8c c9bd 0799 50bf
00000190: 9a17 ad3e 3f66 473e c971 5e3e 9bc6 a6be
000001a0: 8b6e 29bf dced a3bd 9c05 033d b646 8a3e
000001b0: da57 82bd 1946 cabc 1669 bcbc ef28 3ebd
000001c0: 3ec5 da3d 0f56 cc3d 3727 eabd 5708 433d
000001d0: 18af 6ebe 0cda 373d ad29 563e 3f14 82be
000001e0: ffea 98bf 371a f1bd 7acc b13d 59e0 6d3c
000001f0: 9835 ffbe 7765 623d bc7d e8bd 2fea f73b
00000200: 64d4 7c3d cb78 c0be ecf8 e6be bfb2 5f3c
00000210: ce4f 763d ba86 8abc 4145 83be 07a7 04bf
00000220: 1671 11bd f4dc 46bd e2fb 7a3e 2beb f0be
00000230: d2c6 15bf e855 863e 6e4d aa3e 360e e3bd
00000240: b989 13bf 44f7 85bf c545 443d ee25 233d
00000250: b263 e0bd a2a5 38be bf31 9ebe 39d8 803d
00000260: f7d7 5b3d 89ee b6be 094e 603e 1c9e 7b3e
00000270: 9302 e4bd c831 17be 9c91 b4bc ec10 803c
00000280: 70e0 0abe 7cca 24be 8d9a 62be 45d0 febe
00000290: 71b7 b63d 1bca 31be e773 7a3e 911f 873e
000002a0: 3df5 f4bd 7427 cc3c 511b 32bd eb3b 7d3e
000002b0: ac4f 553d ce73 86bd 81ac 093e f02b 4e3e
000002c0: 478f d1be 857a e5bd dda7 5d3e 440f 593c
000002d0: c0ee bbbd e27d 323d 8af5 45bd 0983 aebd
000002e0: 7f7e 203c 2e6c 37bd 9094 fabd e40d 943d
000002f0: 6f99 4abe 4a8e 123d 4fbc 553e 8048 85bd
00000300: 9aa4 533c 8adf 63be 8bda 79bf bcb0 debd
00000310: 011c 40bd 14ac 923d dd75 b0be ea5d 3ebe
00000320: 37b0 473c 9b24 823e cefd 49be 55b7 13bf
00000330: 8df4 89bd 905a a23e 8915 e9be a675 38be
00000340: 281f 073e 77b1 f7bd bff9 72be 8993 87bd
00000350: 5c7f 393e d9ec a93d 93e6 9cbe 5249 41bd
00000360: 91e5 dcbd e4c9 c83d 74ec 08bd c348 c63d
00000370: 1d0a 983d 223a 903c 22a5 a3be def3 333e
00000380: ce27 2bbe 4201 5ebe bd92 3bbe 0021 36be
00000390: fe3f 0bbf b2bc 533e 28ca 8dbe 330e f83d
000003a0: 9c00 c93d ed5d a4bc 72e5 853d 333a 84be
000003b0: 159c b43e 0dec 82be 6d26 06be c073 b9bd
000003c0: 1f6f bd3d 35ab 19bd 2436 733d 2613 83bd
000003d0: 3458 ae3c daa0 28bf 44b3 c13e 5cdc abbe
000003e0: 8b67 98bc ea8b 9e3d ad6d fdbe c0f7 ab3d
000003f0: 178a ccbd c001 cd3c e536 5fbe c424 e6bc

fc1.bias f4 [64]
0.16463913 -0.0495083 -0.15270247 -0.057233393 0.1341883 -0.04509364 -0.18241805 -0.038922273
0.004644559 -0.2810536 0.09765845 0.22046512 0.18842228 0.32144907 -0.10508331 -0.12510191
0.01061928 0.034129865 0.027650455 -0.13300158 -0.15010574 0.0027090667 -0.09530198 -0.09925289
-0.12606272 0.046958838 -0.0041366667 -0.16072232 0.12537554 0.14936769 -0.05532778 -0.14052235
0.0049157334 0.030790932 -0.12272647 0.11673016 -0.15578295 -0.0488007 0.04091477 -0.19839482
-0.07002724 -0.100294106 -0.29682255 0.097830236 0.17776722 -0.04553037 -0.03256406 -0.11143255
-0.1594903 0.049252823 -0.1501593 0.05417241 -0.07763109 -0.037356712 -0.22071958 -0.026490975
0.0683844 -0.10615036 -0.06163343 -0.12572682 0.0047783926 -0.0007169469 0.13635617 0.21101314
00000000: 2997 283e 37c9 4abd 095e 1cbe 906d 6abd
00000010: a868 093e 1cb4 38bd cccb 3abe f66c 1fbd
00000020: 6331 983b 42e6 8fbe 2701 c83d 9cc1 613e
00000030: c5f1 403e f994 a43e eb35 d7bd b71a 00be
00000040: 7dfc 2d3c c2cb 0b3d 3583 e23c 9131 08be
00000050: 52b5 19be 998a 313b af2d c3bd 1945 cbbd
00000060: 9616 01be e957 403d e08c 87bb 6494 24be
00000070: 7262 003e d8f3 183e 629f 62bd 17e5 0fbe
00000080: 2914 a13b 443d fc3c 0458 fbbd 3910 ef3d
00000090: 9185 1fbe 3ee3 47bd 3f96 273d 0328 4bbe
000000a0: 716a 8fbd ff66 cdbd 20f9 97be 385b c83d
000000b0: 9c08 363e 0e7e 3abd e461 05bd c036 e4bd
000000c0: 6d51 23be 54bd 493d 5cc3 19be e4e3 5d3d
000000d0: 0dfd 9ebd 5a03 19bd 5004 62be 9a03 d9bc
000000e0: 1f0d 8c3d 5c65 d9bd 5673 7cbd 88be 00be
000000f0: 1094 9c3b 7ef1 3bba f4a0 0b3e d413 583e

fc2.weight f4 [64, 64]
0.13424358 -0.05358932 0.090596355 -0.07325938 0.053387653 -0.046169747 0.010920351 -0.2885636
0.040125042 -0.18842475 -0.082355395 -0.35102853 -0.085532755 0.031002829 -0.19832292 0.01081477
-0.10883605 -0.4339179 -0.23339576 0.28839907 0.07659264 -0.015914964 -0.026013108 -0.2994588
-0.55907446 -0.032552842 -0.19610167 0.046982888 0.27433178 -0.38235238 -0.082678854 0.26731938
0.049819395 1.0725971 0.122651406 -0.7372361 -0.08940032 -0.05825589 -0.07047633 -0.07217812
-0.5122073 0.12436113 -0.15652245 -0.008455829 0.11110387 0.07627947 0.028868213 -0.5243552
0.030725835 -0.04795583 -0.18988107 -0.029333262 -0.20014928 -0.77846825 -0.10578938 -0.029522847
-0.08422283 -0.021227479 -0.38931745 0.13069353 0.14244479 0.11878918 -0.3700063 -0.446514
-0.2198082 -0.033142377 -0.06748992 0.18344292 -0.07968886 0.15639326 0.17868912 -0.115189105
-0.1308867 0.21305287 -0.17418087 0.38226762 -0.37341294 0.045197424 -0.062180802 -0.060789756
-0.0498004 -0.1838065 0.06732172 0.052261002 0.064345725 0.0043458827 -0.048242237 0.015711384
-0.06516452 0.27061403 0.15289345 -0.29995504 -0.10382761 0.2205906 0.07869063 0.14886968
-0.2301302 -0.15136474 0.09302639 -0.13972582 0.034287468 0.19214542 -0.16767599 -0.2078177
-0.50561285 0.09168548 0.079732805 -0.1789343 -0.15724915 0.04335115 -0.16119151 0.058718894
-0.047423262 -0.040095393 -0.19061574 0.07349173 -0.11793036 -0.10157513 0.18827638 -0.15979373
-0.10138994 -0.34756288 0.32042626 0.058441598 -0.09354174 -0.08781824 0.2892444 -0.027111514
-0.010636962 -0.16180322 0.060922116 -0.29979014 0.05302352 0.0051788986 0.056968533 0.078453735
0.09270195 0.12526925 -0.025328003 -0.32863915 0.15900575 0.041243102 -0.09081536 0.0058729076
-0.099280775 0.26038283 -0.2927272 -0.43081325 -0.47509184 0.05310986 -0.14995667 0.18514825
0.13362212 0.21202521 0.121397406 -0.19030838 0.047671497 -0.3656465 0.2758521 -0.018681115
-0.14464982 -0.022218958 -0.10003726 0.050830595 0.094344325 0.19400991 0.20087121 -0.20439233
0.40200475 -0.14675443 0.25217232 -0.015772577 -0.04598732 0.012469083 -0.05759126 -0.27833867
0.028589621 0.016479008 0.059583575 -0.05916343 0.020918265 0.4821599 -0.3808582 -0.013136209
0.067114055 -0.21660782 -0.4090172 -0.18842763 0.058360137 0.021848356 0.19578177 -0.07906412
0.38625106 -0.4828301 0.04777032 0.19123586 -0.4993374 -0.5220959 -0.22876462 -0.8027745
0.0062697213 -0.05104061 0.25837532 -0.37611085 -0.16396156 0.019616362 0.044642586 -0.17236285
0.06869167 -0.15287654 -0.06505024 -0.45640406 0.12351396 -0.52298373 -0.33813044 0.07900875
-0.47528633 -0.70159113 -0.28641412 0.02591679 0.054433864 -0.6526912 -0.34838548 0.057134982
0.018093199 0.09618556 -0.021024322 -0.11259633 -0.27167803 0.20788918 -0.034771293 -0.37596124
-0.2893634 -0.22498712 0.06453767 0.32090583 -0.07638051 0.15189229 -0.06409128 -0.10105397
-0.36546147 -0.33064082 -0.15311407 -0.13909175 0.11712241 -0.51672584 -0.07681564 -0.213045
-0.8291226 -0.43360424 -0.36275956 -0.21505876 0.17886296 0.14732628 0.26838967 0.21346946
00000000: 2677 093e 7a80 5bbd 958a b93d 0409 96bd
00000010: 03ad 5a3d 7d1c 3dbd 46eb 323c 9cbe 93be
00000020: 285a 243d 6bf2 40be f2a9 a8bd 03ba b3be
00000030: cc2b afbd a5f9 fd3c 2a15 4bbe 6f30 313c
00000040: 6fe5 debd 7d2a debe 4cff 6ebe 0ba9 933e
00000050: 9adc 9c3d 1960 82bc 7119 d5bc aa52 99be
00000060: 811f 0fbf 2156 05bd e0ce 48be 2171 403d
00000070: 3775 8c3e b1c3 c3be 8853 a9bd 16de 883e
00000080: 6c0f 4c3d dd4a 893f a930 fb3d 81bb 3cbf
00000090: 8417 b7bd ba9d 6ebd e555 90bd 1fd2 93bd
000000a0: 0520 03bf 0cb1 fe3d 6c47 20be 518a 0abc
000000b0: 6d8a e33d 6938 9c3d 087d ec3c 243c 06bf
000000c0: bfb4 fb3c 556d 44bd 2f70 42be 4f4c f0bc
000000d0: eff3 4cbe b249 47bf 1aa8 d8bd e6d9 f1bc
000000e0: 057d acbd 40e5 adbc 9e54 c7be 86d4 053e
000000f0: 0cdd 113e be47 f33d 7771 bdbe 7c9d e4be
00000100: 6715 61be 4dc0 07bd 2838 8abd 76d8 3b3e
00000110: ea33 a3bd 8e25 203e 48fa 363e 44e8 ebbd
00000120: 2a07 06be 882a 5a3e 785c 32be 95b8 c33e
00000130: fb2f bfbe ef20 393d 4cb1 7ebd aefe 78bd
00000140: 81fb 4bbd c537 3cbe f8df 893d a20f 563d
00000150: b1c7 833d e867 8e3b a799 45bd 29b5 803c
00000160: fa74 85bd ec8d 8a3e 1a90 1c3e b593 99be
00000170: 92a3 d4bd 81e2 613e 8e28 a13d 4b71 183e
00000180: 40a7 6bbe 5cff 1abe 9f84 be3d 4914 0fbe
00000190: 0471 0c3d c5c1 443e 41b3 2bbe 2ace 54be
000001a0: d86f 01bf 99c5 bb3d f44a a33d 8e3a 37be
000001b0: ec05 21be fa90 313d 630f 25be 3983 703d
000001c0: e53e 42bd 113b 24bd c630 43be d582 963d
000001d0: 7985 f1bd 9f06 d0bd 86cb 403e f8a0 23be
000001e0: 87a5 cfbd c3f3 b1be e90e a43e 7560 6f3d
000001f0: d092 bfbd 0dda b3bd d817 943e f718 debc
00000200: a746 2ebc beaf 25be 7889 793d 187e 99be
00000210: 312f 593d c0b3 a93b d657 693d 5aac a03d
00000220: 85da bd3d 9546 003e ac7c cfbc 6443 a8be
00000230: 67d2 223e 87ee 283d 67fd b9bd 8571 c03b
00000240: b853 cbbd e650 853e 57e0 95be 8e93 dcbe
00000250: 3d3f f3be b989 593d 3e8e 19be 8197 3d3e
00000260: 3dd4 083e 231d 593e 349f f83d 33e0 42be
00000270: 3043 433d 0536 bbbe 7d3c 8d3e 2309 99bc
00000280: 151f 14be 8804 b6bc 56e0 ccbd be33 503d
00000290: 9937 c13d 89aa 463e 2fb1 4d3e 394c 51be
000002a0: 91d3 cd3e cb46 16be bb1c 813e 7e35 81bc
000002b0: 335d 3cbd 204b 4c3c d0e4 6bbd 6882 8ebe
000002c0: c834 ea3c fcfe 863c e80d 743d 5a55 72bd
000002d0: c85c ab3c aadd f63e d9ff c2be 4139 57bc
000002e0: 1873 893d 71ce 5dbe b46a d1be 2cf3 40be
000002f0: 0a0b 6f3d 53fb b23c 047b 483e 5fec a1bd
00000300: b3c2 c53e 8235 f7be d0aa 433d 55d3 433e
00000310: 27a9 ffbe 14a8 05bf 4641 6abe a182 4dbf
00000320: 3c72 cd3b f50f 51bd c549 843e 9a91 c0be
00000330: 8ae5 27be 7eb2 a03c 25db 363d e37f 30be
00000340: 38ae 8c3d ab8b 1cbe 0f39 85bd cbad e9be
00000350: e3f4 fc3d 43e2 05bf 6f1f adbe 57cf a13d
00000360: bb58 f3be 7a9b 33bf dfa4 92be 734f d43c
00000370: 0bf6 5e3d c516 27bf 955f b2be 5f06 6a3d
00000380: 3038 943c effc c43d 333b acbc e898 e6bd
00000390: 6219 8bbe e7e0 543e 586c 0ebd fe7d c0be
000003a0: 7127 94be 0663 66be 532c 843d c54d a43e
000003b0: 636d 9cbd a789 1b3e 4a42 83bd 62f5 cebd
000003c0: c41d bbbe c149 a9be efc9 1cbe 116e 0ebe
000003d0: e0dd ef3d 2548 04bf 8551 9dbd 7828 5abe
000003e0: 6141 54bf 6001 debe 9fbb b9be 5d38 5cbe
000003f0: da27 373e b3dc 163e 5f6a 893e bd97 5a3e

fc2.bias f4 [64]
-0.1322043 0.050821163 0.21267064 0.014840698 0.28493777 -0.38619548 0.093843326 -0.0035393587
0.5611807 0.6826905 -0.15909562 0.15121897 0.34985828 -0.14946455 -0.10379242 0.09331812
0.27274832 -0.12629764 -0.201545 0.22045948 0.47619936 0.56758654 -0.155122 -0.17574443
-0.12970383 -0.08762058 0.15951262 -0.10705752 -0.030691383 -0.09838246 0.09610747 0.123462275
0.002659187 0.1026184 0.019042807 -0.10301847 -0.034511577 -0.20436522 -0.01145956 0.05556846
-0.14420094 0.7805971 0.64075285 -0.16021055 0.080114506 -0.17930517 0.58868873 -0.017887807
0.10766518 0.06385623 -0.023746492 0.7206476 0.0854846 -0.22673467 0.37650853 -0.22728527
-0.28061268 -0.093142144 -0.0057924665 0.039508812 0.016596107 0.14033267 0.08650654 -0.16347574
00000000: 9060 07be da29 503d 55c6 593e 6626 733c
00000010: 5de3 913e 6abb c5be ee30 c03d 96f4 67bb
00000020: 8aa9 0f3f cec4 2e3f f6e9 22be 25d9 1a3e
00000030: a020 b33e 3c0d 19be 1f91 d4bd 921d bf3d
00000040: aba5 8b3e 2b54 01be d061 4ebe 21c0 613e
00000050: 67d0 f33e 5a4d 113f 4dd8 1ebe 59f6 33be
00000060: 15d1 04be 6b72 b3bd 4757 233e f940 dbbd
00000070: 7f6c fbbc be7c c9bd fed3 c43d cad9 fc3d
00000080: c145 2e3b 9829 d23d a9ff 9b3c 59fb d2bd
00000090: 035c 0dbd 1e45 51be e1c0 3bbc c19b 633d
000000a0: 69a9 13be 36d5 473f 6108 243f 3c0e 24be
000000b0: 1313 a43d c69b 37be 4eb4 163f 7389 92bc
000000c0: 907f dc3d 0ec7 823d 0188 c2bc 5c7c 383f
000000d0: 8d12 af3d 222d 68be bac5 c03e 78bd 68be
000000e0: 77ac 8fbe 4fc1 bebd bbce bdbb fed3 213d
000000f0: 8ff4 873c 5eb3 0f3e 572a b13d 2f66 27be

fc3.weight f4 [4, 64]
0.6580058 0.17243844 0.28826085 0.011323485 0.18522193 -0.36986074 0.29084453 -0.5749012
0.18226841 0.19310944 -0.18095379 -0.004006785 0.15281172 0.12333559 -0.018729627 -0.08573532
0.22172129 0.13478218 -0.25944117 0.16840541 0.13890693 0.20638843 0.18744104 -0.13111572
0.027663488 -0.2942116 -0.7344201 0.08490544 0.5998848 -0.27997124 -0.85066867 0.14050536
0.061086625 0.6001727 0.0073728506 0.012825389 0.20805874 -0.24718867 -0.04631045 0.22787397
0.09855414 0.23154686 0.17522377 -0.041766435 0.22686517 0.09841438 0.27527127 0.49715093
0.18344173 0.17959526 0.5404019 0.20922962 0.043659482 -0.24663934 0.13329831 -0.109166816
-0.14196667 -0.11375359 0.07668911 0.044343688 0.18359345 0.008619497 0.16700014 -0.10710639
0.98873526 0.2564204 0.14011277 -0.019910056 0.15940915 -0.22458765 0.22717316 -0.013838307
0.1391433 0.21189108 -0.13541804 0.049970154 0.12120481 0.08420686 -0.006476339 -0.005211171
0.21802056 -0.053062793 -0.14094372 0.045523223 0.19078408 0.31124854 -0.04276562 -0.089828715
0.0029477922 -0.18872099 0.17189732 -0.45817906 0.48502928 -0.118477486 0.18762621 0.17352208
0.014075031 0.7602897 0.0891879 -0.0777531 0.11667834 -0.062464144 -0.0074871415 0.13989995
-0.55846936 0.2665834 0.16957615 0.15930544 0.15912093 -0.010473737 0.25252214 0.4788794
0.15199263 0.19618984 0.60089934 0.17596628 0.022030393 -0.2164024 0.07515936 0.013702469
-0.23265839 0.03551898 0.13567561 0.09211026 -0.122790076 0.13935189 0.109950915 -0.042770825
0.78795135 0.20326105 0.10146237 0.014985146 0.26767498 -0.058510583 0.22533505 -0.4186543
0.1561193 0.18712032 -0.38271236 0.1711139 0.18890983 0.37125954 -0.074394986 0.13627967
0.12867564 -0.57960737 -0.2559376 -0.04486911 0.123828135 0.31686467 0.2964257 0.060737286
0.2316597 -0.115626216 -0.06133782 0.092622936 0.584338 -0.14641815 0.31599855 -0.008743217
-0.32647094 -0.25822043 0.1761625 0.07484105 -0.2871717 -0.081087306 0.02412112 -0.041901544
0.12654643 0.23867954 0.24901672 -0.06265946 0.012607103 -0.27827704 0.22175638 0.4072806
0.3160032 0.104941405 0.5205618 0.260135 0.11378149 0.1135593 0.21634713 0.28043288
-0.36977264 0.23298937 0.29127797 -0.038464226 -0.042399358 0.21804489 0.074288554 -0.17358153
-0.16016169 0.24021451 0.058821395 -0.47937882 0.061095968 -0.19686538 0.16823478 -0.107166305
0.16789949 0.2936592 -0.07093812 -0.17320949 0.1910899 0.5332841 0.04914312 0.15933643
0.3264181 0.07011295 -0.17767039 0.106058925 0.08762035 0.30171835 -0.12303689 0.14263655
-0.171991 -0.2246475 -0.19108449 0.102276556 0.66924685 -0.22770897 -0.35023487 0.1784699
0.41269243 0.76216793 -0.04529615 0.0002120569 -0.3313927 -0.18131989 0.17399588 0.19229299
-0.57041085 0.2507331 0.21486996 -0.5571141 0.22324754 0.24045794 0.18956952 0.20284712
0.36845404 0.06295388 0.6343208 0.2229795 0.06570331 -0.17683318 0.11148965 0.21009478
-0.32391396 0.07725709 -0.09721568 0.082545705 -0.69208825 0.20485832 0.0041315607 0.15045089
00000000: 1173 283f b493 303e ed96 933e 2386 393c
00000010: d1aa 3d3e 635e bdbe 93e9 943e ba2c 13bf
00000020: 92a4 3a3e 7bbe 453e f34b 39be 594b 83bb
00000030: ad7a 1c3e 5f97 fc3d e06e 99bc 0096 afbd
00000040: e80a 633e 5704 0a3e 79d5 84be 7872 2c3e
00000050: 9e3d 0e3e 7d57 533e 8bf0 3f3e 3343 06be
00000060: 8a9e e23c e7a2 96be f502 3cbf e7e2 ad3d
00000070: 0d92 193f 6458 8fbe 6cc5 59bf a3e0 0f3e
00000080: f835 7a3d eba4 193f f497 f13b 9521 523c
00000090: 5a0d 553e 071f 7dbe 07b0 3dbd cb57 693e
000000a0: c1d6 c93d 9f1a 6d3e dc6d 333e 4813 2bbd
000000b0: 584f 683e 7a8d c93d 5bf0 8c3e 918a fe3e
000000c0: 26d8 3b3e d2e7 373e c757 0a3f 4a40 563e
000000d0: 49d4 323d 068f 7cbe 5a7f 083e da92 dfbd
000000e0: b65f 11be a4f7 e8bd 2e0f 9d3d baa1 353d
000000f0: ecff 3b3e ca38 0d3c 1602 2b3e 985a dbbd
00000100: c11d 7d3f 8949 833e b979 0f3e 6a1a a3bc
00000110: 273c 233e 4efa 65be 15a0 683e 11ba 62bc
00000120: 957b 0e3e faf9 583e 07ab 0abe 81ad 4c3d
00000130: 3a3a f83d a574 ac3d 7837 d4bb 79c2 aabb
00000140: c840 5f3e 5f58 59bd 8d53 10be 8f76 3a3d
00000150: e75c 433e f85b 9f3e 012b 2fbd 1ef8 b7bd
00000160: bf2f 413b 1340 41be da05 303e 7296 eabe
00000170: c255 f83e 53a4 f2bd 1621 403e c6af 313e
00000180: f59a 663c 59a2 423f 25a8 b63d 043d 9fbd
00000190: 0ef5 ee3d 67da 7fbd b256 f5bb ef41 0f3e
000001a0: d9f7 0ebf 9f7d 883e 5fa5 2d3e f720 233e
000001b0: 99f0 223e 099a 2bbc 954a 813e ae2f f53e
000001c0: f5a3 1b3e fde5 483e 8ad4 193f 8130 343e
000001d0: 1579 b43c 9798 5dbe 27ed 993d 5280 603c
000001e0: 003e 6ebe 5a7c 113d 8cee 0a3e 4ea4 bc3d
000001f0: 5d79 fbbd 43b2 0e3e f22d e13d 7630 2fbd
00000200: 2eb7 493f aa23 503e 81cb cf3d 4284 753c
00000210: b20c 893e cba8 6fbd 3bbe 663e db59 d6be
00000220: bddd 1f3e 789c 3f3e e0f2 c3be 7b38 2f3e
00000230: 9471 413e bb15 be3e 665c 98bd e68c 0b3e
00000240: 8cc3 033e 2661 14bf 410a 83be acc8 37bd
00000250: 9b99 fd3d 163c a23e 1cc5 973e a9c7 783d
00000260: 3338 6d3e 70cd ecbd 5e3d 7bbd 18b1 bd3d
00000270: 2d97 153f a4ee 15be 90ca a13e b63f 0fbc
00000280: 3327 a7be 7835 84be f163 343e 4446 993d
00000290: 2b08 93be 1a11 a6bd a899 c53c f4a0 2bbd
000002a0: 6395 013e 6968 743e 3dfe 7e3e 9a53 80bd
000002b0: 068e 4e3c 547a 8ebe 1b14 633e 1587 d03e
000002c0: 2ccb a13e 85eb d63d 8a43 053f 6a30 853e
000002d0: 4506 e93d c791 e83d 1a8a 5d3e e694 8f3e
000002e0: d752 bdbe c494 6e3e 6322 953e aa8c 1dbd
000002f0: f3aa 2dbd 2947 5f3e 9924 983d 5bbf 31be
00000300: 6d01 24be cbfa 753e b4ee 703d 2471 f5be
00000310: c43f 7a3d 1497 49be bd45 2c3e 027a dbbd
00000320: d8ed 2b3e 805a 963e 0148 91bd d45d 31be
00000330: 12ad 433e 4f85 083f 4c4a 493d 1729 233e
00000340: 4620 a73e 6197 8f3d 3aef 35be 6c35 d93d
00000350: 4c72 b33d d47a 9a3e c4fa fbbd 510f 123e
00000360: 691e 30be ff09 66be a7ab 43be 5f76 d13d
00000370: c353 2b3f 8a2c 69be fc51 b3be d0c0 363e
00000380: 6c4c d33e 701d 433f 7588 39bd 975b 5e39
00000390: 4eac a9be ecab 39be fa2b 323e 74e8 443e
000003a0: 7206 12bf 1760 803e df06 5c3e 089f 0ebf
000003b0: 019b 643e 9b3a 763e 831e 423e 28b7 4f3e
000003c0: 02a6 bc3e f7ed 803d d962 223f bd54 643e
000003d0: 758f 863d c213 35be b054 e43d 1623 573e
000003e0: 0dd8 a5be f738 9e3d 0419 c7bd b90d a93d
000003f0: b22c 31bf 61c6 513e 0b62 873b cc0f 1a3e

fc3.bias f4 [4]
0.5370652 0.4487908 0.35300896 0.33687323
00000000: 1b7d 093f e8c7 e53e 97bd b43e a67a ac3e
