p1_navigation/src_submission/checkpoint51.pth (torch_old, 28451 bytes, 6 tensors)

fc1.weight f4 [64, 37]
-0.13058595 0.025002409 -0.07501804 -0.0023331048 -0.7634956 0.011199834 0.25573063 -0.118148044
-0.39275056 -0.28932568 0.019718457 -0.15975064 -0.09670314 -0.32110924 -0.028912699 -0.06793831
0.1953646 0.0155589515 -0.18113384 -0.6569856 0.06296211 0.015298277 0.39340064 -0.051671196
-0.15672624 0.003141783 0.08294474 0.12143761 -0.3829833 -0.9032543 0.0937874 0.22295894
-0.109569184 -0.45221037 -0.13605046 -0.055653945 -0.0021248772 0.12723142 0.1805438 -0.3160896
-0.013926999 -0.18545167 -0.07958157 -0.15819852 0.07300649 -0.38217723 -1.1202427 0.067474835
0.017457346 -0.31743455 0.20252495 0.10927823 -0.047616635 0.12549604 -0.07952822 -0.1471025
0.11651759 0.048027344 -0.1955819 -0.24090385 -0.2760374 0.09392098 0.027669843 -0.07409436
-0.16665618 -0.14790533 0.3791457 0.06286836 0.021328857 0.11350654 -0.07067152 -0.055581946
-0.048503004 -0.02351032 0.15890028 -0.030574352 0.054318104 0.23338112 0.06593563 -0.855265
0.21379617 0.21281113 0.13447809 -0.33773136 -0.025360685 0.26676452 -0.13964158 -0.49785334
0.0068884073 -0.23587179 0.20008595 0.06332609 -0.095549904 -0.04514981 -0.12633523 -0.06927149
-0.0326044 -0.11203542 -0.10701338 -0.7989918 0.3445295 0.15271778 0.24083708 -0.29266104
-0.60769963 -0.0651158 0.011081959 0.24774212 -0.046643034 -0.0023969458 -0.011231552 -0.06507618
0.0883918 0.106905624 -0.11043015 -0.031380557 -0.24768429 0.0068778563 0.20255291 -0.16214061
-1.130175 -0.08741718 0.053509362 -0.015192692 -0.43354586 0.032226183 -0.100769505 -0.015537584
0.019797329 -0.33520877 -0.43087703 -0.015686492 0.0703721 -0.04244271 -0.18142681 -0.49235398
-0.042984378 -0.07800411 0.20806505 -0.34933192 -0.43343747 0.2413642 0.3102281 -0.06744392
-0.59837013 -1.0894946 0.11586295 0.042498097 -0.11516501 -0.13997173 -0.29463765 0.019070374
0.050563265 -0.31650183 0.18402798 0.25253555 -0.06656853 -0.20605725 0.042112123 -0.039123636
-0.110024765 -0.14967835 -0.24572544 -0.5114867 0.065305 -0.13803206 0.28341267 0.22359917
-0.12932712 0.068538584 -0.05713003 0.2536499 0.059063125 -0.020590728 0.08768612 0.24472365
-0.41241133 -0.09490946 0.19141722 0.012863257 0.012145376 -0.010564259 -0.04778328 -0.10876042
0.008003478 -0.11029095 -0.110813215 0.13562857 -0.20704187 0.04102936 0.19794625 0.03843222
-0.0416533 -0.15521337 -0.9320005 -0.07756925 -0.10942775 0.049712624 -0.2642968 -0.16268915
0.046016842 0.24736422 -0.23507714 -0.6214677 -0.07226568 0.29366535 -0.3732228 -0.13914132
0.1277516 -0.13548447 -0.21634538 -0.024320884 0.12711777 0.14024258 -0.27376148 -0.072027564
-0.11601874 0.13917832 -0.0053190985 0.10741085 0.074749894 0.022639178 -0.2771279 0.092750534
-0.1696666 -0.08449471 -0.20115994 -0.2356526 -0.4840899 0.20147248 -0.19348174 0.15240642
0.03573714 -0.026300516 0.13648611 -0.1766389 0.36164707 -0.29413852 -0.1257668 -0.04998936
0.12005541 -0.04441188 0.000554421 0.008137928 -0.027242007 -0.53782225 0.401993 -0.27778643
-0.052104667 0.074803405 -0.42211607 0.066426136 -0.09101162 0.06916025 -0.29544318 0.019219348
00000000: 53b8 05be dad1 cc3c 0fa3 99bd 01e7 18bb
00000010: 7374 43bf 827f 373c 20ef 823e 9af7 f1bd
00000020: 9a16 c9be 7f22 94be 9a88 a13c ac95 23be
00000030: 4c0c c6bd 6e68 a4be 53da ecbc 3e23 8bbd
00000040: a80d 483e f9ea 7e3c 267b 39be 3530 28bf
00000050: 47f2 803d a0a5 7a3c cf6b c93e 2da5 53bd
00000060: d87c 20be 5fe6 4d3b efde a93d 48b4 f83d
00000070: 6316 c4be ac3b 67bf 9c13 c03d 594f 643e
00000080: cf65 e0bd 1e88 e7be d050 0bbe 64f5 63bd
00000090: 8641 0bbb f448 023e 79e0 383e 7fd6 a1be
000000a0: 112e 64bc 0be7 3dbe aafb a2bd cbfe 21be
000000b0: 6d84 953d bcac c3be 1d64 8fbf 3f30 8a3d
000000c0: b502 8f3c c886 a2be b362 4f3e 44cd df3d
000000d0: a909 43bd 0982 003e b1df a2bd 0aa2 16be
000000e0: c6a0 ee3d 52b8 443d 9f46 48be 80af 76be
000000f0: c654 8dbe a559 c03d deab e23c c9be 97bd
00000100: eba7 2abe 7f74 17be 631f c23e 20c1 803d
00000110: dbb9 ae3c 1e76 e83d 3bbc 90bd e5a9 63bd
00000120: 16ab 46bd b798 c0bc c1b6 223e 1077 fabc
00000130: a97c 5e3d 76fb 6e3e 4209 873d a6f2 5abf
00000140: 62ed 5a3e 29eb 593e a0b4 093e 20eb acbe
00000150: 36c1 cfbc 5c95 883e 34fe 0ebe a2e6 febe
00000160: 26b8 e13b 6088 71be 55e3 4c3e 1cb1 813d
00000170: abaf c3bd 02ef 38bd 065e 01be 36de 8dbd
00000180: 318c 05bd d472 e5bd d529 dbbd ba8a 4cbf
00000190: 2c66 b03e 0d62 1c3e ff9d 763e abd7 95be
000001a0: 3492 1bbf 6f5b 85bd 1b91 353c 1cb0 7d3e
000001b0: c40c 3fbd 1416 1dbb 8b04 38bc a946 85bd
000001c0: c306 b53d 56f1 da3d 3429 e2bd e688 00bd
000001d0: f3a0 7dbe a45f e13b 086a 4f3e 3008 26be
000001e0: 93a9 90bf c707 b3bd a22c 5b3d c5ea 78bc
000001f0: b9f9 ddbe 9aff 033d 3e60 cebd 5a91 7ebc
00000200: 022e a23c 7ca0 abbe ea9b dcbe f580 80bc
00000210: 3f1f 903d 68d8 2dbd f3c7 39be d215 fcbe
00000220: 6310 30bd 9ec0 9fbd 010f 553e a2db b2be
00000230: 84eb ddbe 2d28 773e 38d6 9e3e 0a20 8abd
00000240: c92e 19bf 8f74 8bbf 8e49 ed3d 7c12 2e3d
00000250: a2db ebbd c054 0fbe bfda 96be 7939 9c3c
00000260: 6d1b 4f3d 870c a2be d571 3c3e 574c 813e
00000270: 1555 88bd ac00 53be c37d 2c3d 1b40 20bd
00000280: aa54 e1bd 4845 19be 739f 7bbe cbf0 02bf
00000290: a1be 853d 4758 0dbe 771b 913e 2ef7 643e
000002a0: 546e 04be f55d 8c3d 2e01 6abd 66de 813e
000002b0: 2dec 713d e3ad a8bc c894 b33d d698 7a3e
000002c0: 9427 d3be e45f c2bd e002 443e 69c0 523c
000002d0: 66fd 463c b715 2dbc 67b8 43bd c8bd debd
000002e0: 0521 033c 39e0 e1bd 0af2 e2bd 37e2 0a3e
000002f0: c902 54be 670e 283d 6cb2 4a3e 1b6b 1d3d
00000300: a79c 2abd 41f0 1ebe 9697 6ebf a0dc 9ebd
00000310: a81b e0bd 779f 4b3d e951 87be fc97 26be
00000320: 287c 3c3d 0c4d 7d3e 10b8 70be 8218 1fbf
00000330: 0700 94bd 4e5b 963e 0f17 bfbe 107b 0ebe
00000340: 51d1 023e 71bc 0abe a589 5dbe 973c c7bc
00000350: 292b 023e c09b 0f3e 772a 8cbe 3083 93bd
00000360: 3c9b edbd c384 0e3e d54b aebb 38fa db3d
00000370: 7916 993d cc75 b93c b5e3 8dbe fef3 bd3d
00000380: 15bd 2dbe 900b adbd dffc 4dbe ea4e 71be
00000390: a2da f7be cd4e 4e3e 1420 46be 6e10 1c3e
000003a0: 1b61 123d 2e74 d7bc 04c3 0b3e d4e0 34be
000003b0: ce29 b93e 5399 96be 03c9 00be a5c1 4cbd
000003c0: 9cdf f53d 3be9 35bd 9056 113a f254 053c
000003d0: a12a dfbc b8ae 09bf 07d2 cd3e 063a 8ebe
000003e0: b46b 55bd 8732 993d 991f d8be 6d0a 883d
000003f0: 4d64 babd e4a3 8d3d 5444 97be e571 9d3c

fc1.bias f4 [64]
0.14208001 -0.07009142 -0.16343647 -0.07883677 0.15770659 -0.049137138 -0.17718573 -0.009070085
0.018828722 -0.29151446 0.08688769 0.21381825 0.18966633 0.31201002 -0.11170473 -0.1273113
0.01959751 0.035837702 0.041276485 -0.12862115 -0.1515621 0.02725179 -0.10135764 -0.085735515
-0.12038683 0.04166533 -0.007982304 -0.16190413 0.103663884 0.15543613 -0.065938696 -0.12440516
0.010598524 0.044881567 -0.13148823 0.1243271 -0.15652563 -0.061018407 0.047416657 -0.1955101
-0.07870176 -0.076734304 -0.29682255 0.12615143 0.17000905 -0.03281087 -0.017939188 -0.10876337
-0.15315104 0.024865767 -0.16265744 0.06864011 -0.09476866 -0.041464664 -0.22981666 -0.0077767167
0.07384157 -0.106044486 -0.07128971 -0.10223156 0.022197016 0.036534134 0.14271072 0.20425545
00000000: 6c7d 113e 178c 8fbd e45b 27be 2c75 a1bd
00000010: d67d 213e 0644 49bd 2d70 35be b29a 14bc
00000020: b13e 9a3c 6241 95be 2cf2 b13d 2cf3 5a3e
00000030: e437 423e c7bf 9f3e 73c5 e4bd e55d 02be
00000040: f58a a03c 8eca 123d 8811 293d 43b5 03be
00000050: 1833 1bbe 253f df3c 9894 cfbd 1a96 afbd
00000060: 5f8d f6bd 44a9 2a3d 36c8 02bc 32ca 25be
00000070: bb4d d43d a62a 1f3e de0a 87bd 22c8 febd
00000080: 6ea5 2d3c bcd5 373d daa4 06be 359f fe3d
00000090: 4148 20be 70ee 79bd f837 423d cd33 48be
000000a0: 632e a1bd e026 9dbd 20f9 97be d72d 013e
000000b0: da16 2e3e b164 06bd 34f5 92bc 54bf debd
000000c0: a0d3 1cbe 4bb3 cb3c ac8f 26be 3093 8c3d
000000d0: 1216 c2bd dad6 29bd 0f55 6bbe d4d3 febb
000000e0: 403a 973d da2d d9bd 5700 92bd c85e d1bd
000000f0: 84d6 b53c d1a4 153d c222 123e 5728 513e

fc2.weight f4 [64, 64]
0.101473 -0.10975058 0.034330353 0.014251318 0.03735536 0.066842295 -0.07113668 -0.19580533
0.035735905 -0.12145655 -0.08248362 -0.36889225 -0.08235448 0.027863631 -0.21458726 0.044910733
-0.08554686 -0.37328538 -0.19261518 0.26885933 0.15651579 -0.024882352 -0.048245262 -0.1916339
-0.48440978 0.04013035 -0.13797185 0.020102253 0.2194281 -0.3458751 -0.06696781 0.2468343
0.024423633 1.0892805 0.14337726 -0.7019833 -0.06642625 -0.065244235 -0.09385239 -0.042994812
-0.49621964 0.04326319 -0.15652245 -0.010300731 0.09893644 0.09870348 0.052693937 -0.5312015
0.013688172 -0.052905545 -0.13520153 -0.11025066 -0.1762525 -0.7939111 -0.18522032 -0.013617307
-0.14057896 -0.060646933 -0.35579222 0.13471977 0.08156284 0.15362613 -0.34326214 -0.4526997
-0.20132905 -0.024211574 -0.09587779 0.116222575 -0.16904561 0.16479309 0.099544734 -0.13254964
-0.15069538 0.21757238 -0.16818218 0.40255025 -0.3465277 0.06554614 -0.07725998 -0.004265485
-0.034231696 -0.18092011 0.052267037 0.045739714 0.082821965 -0.0336258 -0.0631496 0.035900194
-0.08975165 0.27924618 0.10859313 -0.3114638 -0.008071455 0.23684597 0.06676145 0.08016898
-0.2393846 -0.13935636 -0.010138613 -0.13561013 0.06055878 0.17319478 -0.1475049 -0.19466293
-0.48455894 0.030127216 0.079732805 -0.14924973 -0.12408076 0.0596727 -0.18903555 0.03570599
-0.051687673 -0.08062996 -0.14065857 0.09218015 -0.10384694 -0.09652444 0.21719648 -0.18813817
-0.064139076 -0.3307137 0.3160246 0.078246035 -0.10074654 -0.0438336 0.24820444 -0.0026239753
0.09730006 -0.17714354 0.08869298 -0.24212597 0.07172545 -0.030169057 0.046656016 0.014863768
0.020698803 0.14553958 -0.035483997 -0.32943714 0.16477 0.043324333 -0.068444364 0.006688084
-0.09323437 0.25722837 -0.20947938 -0.4314016 -0.46205953 0.012440334 -0.19841565 0.265143
0.15704139 0.25790194 0.07857134 -0.18240327 -0.0057769837 -0.36722392 0.19154288 -0.024633752
-0.13695458 0.021224376 -0.08325249 0.018153852 0.11226828 0.16358505 0.18425949 -0.20446768
0.40553957 -0.15010007 0.25217232 -0.015351963 -0.045853004 -0.022528972 -0.039423812 -0.33362398
0.028751677 0.067641705 -0.009931046 -0.12873109 0.0013202615 0.48975468 -0.2820697 0.016349012
0.028425798 -0.22097355 -0.3600589 -0.20220993 0.02843135 -0.0343915 0.16802219 -0.07700067
0.34180874 -0.39792532 -0.014429559 0.25069827 -0.40211484 -0.53781474 -0.14956988 -0.7982818
-0.043594647 -0.1392006 0.30941486 -0.2668584 -0.22598428 -0.00036744378 0.088692136 -0.22000393
-0.0072210743 -0.13707997 -0.09884762 -0.48418665 0.23275186 -0.5205322 -0.3204752 0.03496233
-0.4175633 -0.7147235 -0.22804557 0.022699017 0.11252911 -0.6086127 -0.19603835 0.018663276
0.026514405 0.16302049 -0.083824575 -0.11811269 -0.3391849 0.22714888 0.01647833 -0.34952998
-0.30965513 -0.19990322 0.06453767 0.27929774 -0.08453621 0.10628714 -0.047415774 -0.03158604
-0.34160462 -0.35655913 -0.17438386 -0.18853407 0.13765135 -0.45203456 -0.16796893 -0.23931856
-0.7815628 -0.35517105 -0.12521768 -0.11297793 0.15841217 0.13876978 0.32394454 0.22858533
00000000: 14d1 cf3d e9c4 e0bd fc9d 0c3d 5c7e 693c
00000010: ef01 193d 9de4 883d 1cb0 91bd 3181 48be
00000020: d05f 123d 36be f8bd 2ced a8bd 72df bcbe
00000030: 77a9 a8bd 4542 e43c c3bc 5bbe 51f4 373d
00000040: 3133 afbd 431f bfbe ea3c 45be eea7 893e
00000050: ad45 203e 13d6 cbbc d39c 45bd ad3b 44be
00000060: 8f04 f8be b95f 243d 7e48 0dbe 7bad a43c
00000070: c3b1 603e 8b16 b1be 6b26 89bd 21c2 7c3e
00000080: 1214 c83c 8b6d 8b3f 7dd1 123e 2db5 33bf
00000090: 7c0a 88bd c59e 85bd af35 c0bd 541b 30bd
000000a0: 8010 febe be34 313d 6c47 20be 66c4 28bc
000000b0: 309f ca3d 0d25 ca3d 99d5 573d d2fc 07bf
000000c0: 5b44 603c 7cb3 58bd 4572 0abe 19cb e1bd
000000d0: 897b 34be c23d 4bbf 65aa 3dbe 201b 5fbc
000000e0: eef3 0fbe eb68 78bd 662a b6be fbf3 093e
000000f0: 6b0a a73d 2b50 1d3e 0ec0 afbe 41c8 e7be
00000100: 3429 4ebe 5a57 c6bc 935b c4bd 1a06 ee3d
00000110: 4b1a 2dbe 85bf 283e 1cde cb3d 18bb 07be
00000120: e44f 1abe 4bcb 5e3e f337 2cbe 111b ce3e
00000130: 146c b1be 0e3d 863d 7b3a 9ebd 7bc5 8bbb
00000140: 8936 0cbd 1f43 39be f615 563d 9159 3b3d
00000150: 909e a93d 35bb 09bd 9454 81bd 150c 133d
00000160: b7cf b7bd 5bf9 8e3e 1366 de3d 2f78 9fbe
00000170: 233e 04bc c087 723e 3aba 883d a22f a43d
00000180: 3d21 75be 6fb3 0ebe 6d1c 26bc 62dd 0abe
00000190: 7c0c 783d f959 313e 860b 17be b855 47be
000001a0: 1c18 f8be 5acd f63c f44a a33d ecd4 18be
000001b0: 0e1e febd 5c6b 743d 8992 41be 7240 123d
000001c0: 74b6 53bd 5221 a5bd cd08 10be f2c8 bc3d
000001d0: b4ad d4bd 9bae c5bd c168 5e3e 4ba7 40be
000001e0: 595b 83bd 4e53 a9be facd a13e 753f a03d
000001f0: 3454 cebd dc8a 33bd 4e29 7e3e 00f7 2bbb
00000200: 4145 c73d 1e65 35be aaa4 b53d dfef 77be
00000210: cbe4 923d 1925 f7bc 611a 3f3d 2987 733c
00000220: 8990 a93c 5408 153e ab57 11bd fcab a8be
00000230: 78b9 283e db74 313d 8f2c 8cbd b727 db3b
00000240: a9f1 bebd 70b3 833e c381 56be ace0 dcbe
00000250: 1193 ecbe 8bd2 4b3c 792d 4bbe d3c0 873e
00000260: 75cf 203e b90b 843e 03ea a03d ecc7 3abe
00000270: da4c bdbb c604 bcbe d123 443e b9cc c9bc
00000280: d23d 0cbe bede ad3c 4880 aabd 63b7 943c
00000290: e9ec e53d d782 273e 85ae 3c3e fa5f 51be
000002a0: e2a2 cf3e d5b3 19be bb1c 813e cd86 7bbc
000002b0: 5cd0 3bbd ae8e b8bc dd7a 21bd c3d0 aabe
000002c0: a388 eb3c bc87 8a3d d3b5 22bc 15d2 03be
000002d0: a00c ad3a 20c1 fa3e 716b 90be 5dee 853c
000002e0: 38dd e83c e446 62be a459 b8be 1f10 4fbe
000002f0: dde8 e83c 1ade 0cbd 020e 2c3e 87b2 9dbd
00000300: 8e01 af3e debc cbbe f569 6cbc 865b 803e
00000310: ffe1 cdbe 3aae 09bf d928 19be 325c 4cbf
00000320: 4d90 32bd 9a8a 0ebe a06b 9e3e aaa1 88be
00000330: 6c68 67be 78a5 c0b9 39a4 b53d b648 61be
00000340: c39e ecbb b15e 0cbe 9f70 cabd 50e7 f7be
00000350: 8156 6e3e 9941 05bf 5315 a4be a934 0f3d
00000360: dbca d5be 1ff8 36bf c784 69be 4af3 b93c
00000370: a975 e63d 0bce 1bbf 47be 48be bae3 983c
00000380: bd34 d93c d8ee 263e 38ac abbd 11e5 f1bd
00000390: a5a9 adbe b799 683e 90fd 863c 98f5 b2be
000003a0: 1e8b 9ebe 6eb3 4cbe 532c 843d 1d00 8f3e
000003b0: 5221 adbd 12ad d93d 0b37 42bd 5d60 01bd
000003c0: cde6 aebe eb8e b6be af91 32be 130f 41be
000003d0: 7af4 0c3e 1371 e7be 0c00 2cbe ed0f 75be
000003e0: 8014 48bf fbd8 b5be 1039 00be f960 e7bd
000003f0: cd36 223e aa19 0e3e 0fdc a53e 4612 6a3e

fc2.bias f4 [64]
-0.14089048 0.06601672 0.20169476 0.0026762292 0.27542266 -0.37611085 0.08450365 0.02598904
0.5394818 0.6588416 -0.14951396 0.15936401 0.32672533 -0.14396954 -0.10379242 0.09483158
0.25996333 -0.10879427 -0.1913212 0.21878898 0.45693275 0.5431501 -0.15572628 -0.15957019
-0.12896837 -0.069253914 0.146251 -0.10705752 -0.03383897 -0.098187365 0.11884141 0.11565545
0.0066899057 0.09016815 0.03233234 -0.10301847 -0.027403126 -0.19524875 -0.01663301 0.047259506
-0.13438362 0.7555484 0.6168088 -0.16021055 0.07091097 -0.17653008 0.56443286 -0.018263215
0.107029304 0.054007817 -0.007637161 0.6962043 0.07727608 -0.22688723 0.36253294 -0.23120016
-0.27281314 -0.08660078 0.016035428 0.032114346 -0.005560525 0.13500467 0.08236221 -0.15211816
00000000: 9845 10be c633 873d 1289 4e3e ad63 2f3b
00000010: 3304 8d3e 9a91 c0be 4010 ad3d f8e6 d43c
00000020: 7b1b 0a3f d8a9 283f 301a 19be 5230 233e
00000030: 8b48 a73e c06c 13be 1f91 d4bd 0f37 c23d
00000040: ea19 853e 88cf debd b4e9 43be 380a 603e
00000050: 17f3 e93e e30b 0b3f b676 1fbe 5e66 23be
00000060: 4910 04be ffd4 8dbd d2c2 153e f940 dbbd
00000070: bb9a 0abd 7516 c9bd 2063 f33d c4dc ec3d
00000080: ff36 db3b 14aa b83d ea6e 043d 59fb d2bd
00000090: 857c e0bc 4aef 47be f341 88bc 2f93 413d
000000a0: dc9b 09be 9f6b 413f 2ee7 1d3f 3c0e 24be
000000b0: c539 913d 4dc4 34be ac7e 103f bd9c 95bc
000000c0: 2e32 db3d 4d37 5d3d 2641 fabb 723a 323f
000000d0: ec42 9e3d 2055 68be eb9d b93e bcbf 6cbe
000000e0: 2aae 8bbe c05b b1bd bb5c 833c 558a 033d
000000f0: 1135 b6bb aa3e 0a3e 85ad a83d ddc4 1bbe

fc3.weight f4 [4, 64]
0.71165025 0.18518505 0.2898821 0.0016182229 0.18860546 -0.33477423 0.28726727 -0.5532724
0.17749053 0.19052094 -0.22583844 0.0005718941 0.15187907 0.11476743 -0.018729627 -0.093700804
0.22242904 0.17116894 -0.24663815 0.1738803 0.13221374 0.21024136 0.22751953 -0.13664858
0.026685456 -0.31580558 -0.71823674 0.08490544 0.6417972 -0.28617188 -0.9047185 0.14776812
0.053147465 0.56048447 -0.012013155 0.012825389 0.23681217 -0.23245403 -0.045825105 0.21616256
0.057181418 0.22738476 0.16963543 -0.041766435 0.23335408 0.057571653 0.2714725 0.52195317
0.17289796 0.1833497 0.5664239 0.20657285 0.060950164 -0.25032693 0.13090202 -0.10870044
-0.14116542 -0.07974589 0.0818636 0.046685606 0.10805449 0.008871528 0.19608507 -0.09836772
0.93921334 0.28761753 0.13419768 -0.030231528 0.1715038 -0.22864263 0.25383177 -0.012522312
0.12523481 0.19748262 -0.13211888 0.09635493 0.13847332 0.0805459 -0.006476339 0.010018156
0.1960692 0.011768187 -0.16694093 0.08288402 0.20736304 0.30286956 -0.08060621 -0.094004974
0.0425926 -0.24010824 0.12794505 -0.45817906 0.56337285 -0.13268173 0.12453526 0.1673689
-0.083608076 0.8100141 0.09826178 -0.0777531 0.15159975 -0.05612821 -0.032593388 0.13354358
-0.5778036 0.2597967 0.16908517 0.15930544 0.28789103 0.007782951 0.24427319 0.4750874
0.149611 0.20724149 0.5816435 0.15915054 0.007910164 -0.19634645 0.07830804 -0.0023281428
-0.25996044 0.018015074 0.12400641 0.12717913 -0.13487104 0.11234973 0.10023349 -0.012731962
0.79598546 0.21780111 0.09738835 0.03160355 0.26337826 -0.051688816 0.2441178 -0.3851461
0.14963117 0.18223047 -0.31390333 0.18150873 0.19458501 0.27485847 -0.074394986 0.121768996
0.14969857 -0.54461986 -0.22941287 -0.05542434 0.12846182 0.30425337 0.27878305 0.06700004
0.23347685 -0.12400361 -0.13121456 0.092622936 0.48991394 -0.18788959 0.22878131 -0.00968698
-0.29185674 -0.26027864 0.19646418 0.07484105 -0.18342035 -0.11446229 0.06780914 -0.03382891
0.10232739 0.23159944 0.24735592 -0.06265946 0.02470644 -0.22668757 0.21479079 0.4183442
0.33114475 0.10852063 0.48742154 0.25229612 0.12062274 0.12833239 0.19874538 0.2744394
-0.36497226 0.18628488 0.3077193 -0.010474038 -0.05828039 0.17953904 0.096615456 -0.17516266
-0.11071001 0.21916783 0.034453608 -0.49568054 0.05910026 -0.23944263 0.18886478 -0.10874833
0.1665788 0.28323936 -0.13421693 -0.1897561 0.19153884 0.4843295 0.04914312 0.16679966
0.3521165 0.05229057 -0.17430617 0.13023196 0.081827596 0.29097012 -0.12027665 0.1477339
-0.12618157 -0.24342047 -0.10288203 0.102276556 0.710057 -0.28691444 -0.37485817 0.17473641
0.45707664 0.8298054 -0.02612804 0.0002120569 -0.30408645 -0.12165515 0.17740178 0.22941072
-0.47953573 0.24219665 0.20396899 -0.5571141 0.18865696 0.22049038 0.1886471 0.23642455
0.3526242 0.070767656 0.6699551 0.21464504 0.06050498 -0.18081588 0.11714788 0.24431418
-0.34008002 0.056984086 -0.10735836 0.05680342 -0.693891 0.2280812 0.012500672 0.14745072
00000000: b62e 363f 26a1 3d3e 6d6b 943e 8d1a d43a
00000010: ca21 413e 8767 abbe b214 933e 43a3 0dbf
00000020: 14c0 353e ec17 433e 3142 67be 2aeb 153a
00000030: 3086 1b3e 300b eb3d e06e 99bc 35e6 bfbd
00000040: 70c4 633e e946 2f3e b68e 7cbe ad0d 323e
00000050: 0a63 073e 8349 573e e1fa 683e 9bed 0bbe
00000060: 759b da3c 45b1 a1be 5dde 37bf e7e2 ad3d
00000070: d24c 243f 1f85 92be a29b 67bf 8750 173e
00000080: 28b1 593d e97b 0f3f d3d2 44bc 9521 523c
00000090: e47e 723e 6e08 6ebe 1bb3 3bbd b859 5d3e
000000a0: 1037 6a3d 8dd7 683e e9b4 2d3e 4813 2bbd
000000b0: 5ff4 6e3e 41d0 6b3d 72fe 8a3e b99e 053f
000000c0: 2a0c 313e 06c0 3b3e 2801 113f d587 533e
000000d0: e1a6 793d da2a 80be 2e0b 063e 569e debd
000000e0: ab8d 10be d051 a3bd 1aa8 a73d 6839 3f3d
000000f0: ac4b dd3d e359 113c 86ca 483e 0475 c9bd
00000100: 4970 703f 9b42 933e 1e6b 093e 1ca8 f7bc
00000110: b19e 2f3e 4b21 6abe 3df6 813e 622a 4dbc
00000120: 8e3d 003e e238 4a3e 2c4a 07be bc55 c53d
00000130: f3cb 0d3e 40f5 a43d 7837 d4bb 3123 243c
00000140: 5dc6 483e 5bcf 403c 90f2 2abe 19bf a93d
00000150: fa56 543e b811 9b3e de14 a5bd ae85 c0bd
00000160: 9475 2e3d efde 75be 0704 033e 7296 eabe
00000170: 3439 103f b8dd 07be 580c ff3d c162 2b3e
00000180: b63a abbd 165d 4f3f 793d c93d 043d 9fbd
00000190: f73c 1b3e b2e6 65bd a580 05bd a6bf 083e
000001a0: f0ea 13bf 1304 853e aa24 2d3e f720 233e
000001b0: 7466 933e 2008 ff3b c022 7a3e a83e f33e
000001c0: a033 193e 1d37 543e 97e6 143f 5cf8 223e
000001d0: a299 013c 0b0f 49be f75f a03d c193 18bb
000001e0: 8919 85be 5994 933c 13f7 fd3d 3f3b 023e
000001f0: a21b 0abe 9e17 e63d 3747 cd3d b899 50bc
00000200: b4c5 4b3f 4107 5f3e 8b73 c73d b972 013d
00000210: 84d9 863e a7b7 53bd 04fa 793e df31 c5be
00000220: ea38 193e a09a 3a3e f0b7 a0be 6ddd 393e
00000230: 4b41 473e 40ba 8c3e 665c 98bd 0662 f93d
00000240: 954a 193e 356c 0bbf 35eb 6abe a204 63bd
00000250: 7f8b 033e 19c7 9b3e a7bc 8e3e 5137 893d
00000260: 8e14 6f3e 9bf5 fdbd 1c5d 06be 18b1 bd3d
00000270: 00d6 fa3e 2166 40be a645 6a3e 24b6 1ebc
00000280: 3f6e 95be 3e43 85be e82d 493e 4446 993d
00000290: 8bd2 3bbe 356b eabd 85df 8a3d 2f90 0abd
000002a0: 0691 d13d 6728 6d3e df4a 7d3e 9a53 80bd
000002b0: 2965 ca3c c920 68be 1ef2 5b3e 3631 d63e
000002c0: ce8b a93e 1040 de3d 518f f93e f52c 813e
000002d0: 0e09 f73d 9169 033e e983 4b3e 5283 8c3e
000002e0: a5dd babe 77c1 3e3e 628d 9d3e 4d9b 2bbc
000002f0: 6bb7 6ebd 15d9 373e 53de c53d d75d 33be
00000300: eebb e2bd 886d 603e 3a1f 0d3d d7c9 fdbe
00000310: 1d13 723d 7330 75be c565 413e 72b7 debd
00000320: a293 2a3e c004 913e 2a70 09be 6c4f 42be
00000330: c222 443e 09fa f73e 4c4a 493d 88cd 2a3e
00000340: 9d48 b43e a32e 563d 517d 32be 875b 053e
00000350: 3a95 a73d 09fa 943e 9b53 f6bd 8e47 173e
00000360: be35 01be 3743 79be d0b3 d2bd 5f76 d13d
00000370: 4cc6 353f 73e6 92be 69ed bfbe 1aee 323e
00000380: f305 ea3e 206e 543f 790a d6bc 975b 5e39
00000390: 38b1 9bbe 5626 f9bd d0a8 353e a5ea 6a3e
000003a0: b585 f5be 6602 783e 3fdd 503e 089f 0ebf
000003b0: 4a2f 413e 3bc8 613e b52c 413e 4719 723e
000003c0: 298b b43e a2ee 903d 2d82 2b3f e9cb 5b3e
000003d0: 12d4 773d cc27 39be 3aeb ef3d 7f2d 7a3e
000003e0: f81e aebe 2568 693d b3de dbbd b4aa 683d
000003f0: d7a2 31bf 1e8e 693e 9ecf 4c3c 52fd 163e

fc3.bias f4 [4]
0.51691055 0.43510312 0.33394134 0.32146823
00000000: 4054 043f d6c5 de3e 5cfa aa3e 7c97 a43e
