p1_navigation/src_submission/checkpoint_banana_431.pth (torch_old, 28451 bytes, 6 tensors)

fc1.weight f4 [64, 37]
0	0xbf1e7fa1	-0.61913496
1	0x3d8b2ef7	0.06796067
2	0xbe9fcdc7	-0.31211683
3	0xbf0f9b61	-0.56096464
4	0x3dbbeef4	0.09176436
5	0x3e23eb44	0.16007715
6	0x3de21671	0.110394366
7	0xbe427e26	-0.18993434
8	0xbce5640e	-0.028001811
9	0xbdf43402	-0.11923982
10	0x3d42eaba	0.047587134
11	0xbe951411	-0.29116872
12	0xbef07eea	-0.46971828
13	0xbede7b97	-0.43453667
14	0xbed78fd3	-0.42101917
15	0xbf15053f	-0.5821113
16	0x3e8b777d	0.272396
17	0xbe754bba	-0.23954669
18	0xbeef4f7a	-0.46740323
19	0xbe5fc032	-0.2185066
20	0x3e072887	0.13199054
21	0xbbe69577	-0.0070368606
22	0xbe0f722e	-0.140084
23	0xbeb32762	-0.34990984
24	0xbebef8a6	-0.3729908
25	0xbe17863e	-0.14797303
26	0xbd932063	-0.07183912
27	0xbe8317e2	-0.2560416
28	0xbe80df28	-0.25170255
29	0xbec55a77	-0.38545582
30	0x3dded5c3	0.108806156
31	0xbebc7bb0	-0.36813116
32	0x3d811e91	0.06304658
33	0xbee3d7db	-0.44500622
34	0xbea55481	-0.32291034
35	0xbdfa3386	-0.122168586
36	0xbde44d5e	-0.11147569
37	0xbf1a5152	-0.60280335
38	0xbe90f3d9	-0.2831104
39	0xbef39f17	-0.47582313
40	0x3e2b7ae6	0.16746101
41	0xbf93bf29	-1.1542712
42	0x3cbc413a	0.022980321
43	0xbf5d5fac	-0.8647411
44	0xbf11a4c8	-0.5689206
45	0xbf2db17c	-0.67848945
46	0xbe2c8e13	-0.16851072
47	0xbf45da80	-0.7728653
48	0x3d0a3114	0.03373821
49	0xbe6d4e77	-0.23174463
50	0xbe04e8fb	-0.129795
51	0xbe7cb4ce	-0.24678347
52	0xbef8674f	-0.48516318
53	0xbf13e37a	-0.57768977
54	0xbf123319	-0.5710922
55	0x3e85c62f	0.26127765
56	0xbef2b734	-0.47405398
57	0xbf16c7be	-0.5889853
58	0xbed3aff2	-0.41345173
59	0xbdea3bbf	-0.11437177
60	0xbef589e1	-0.47956756
61	0x3dc0b8f9	0.09410281
62	0xbf50781e	-0.81433284
63	0xbf140eed	-0.57835275
64	0x3e588127	0.21143018
65	0xbf31c5c8	-0.69442415
66	0x3f2c14b7	0.6721911
67	0x3e16b476	0.14717278
68	0xbf0d3b4c	-0.55168605
69	0xbe8a38ab	-0.2699636
70	0xbeb82ac5	-0.3597013
71	0xbdd2aa24	-0.10286358
72	0x3d4f34ed	0.050587583
73	0x3d769268	0.060198218
74	0x3de41b7d	0.111380555
75	0x3d576eb7	0.05259582
76	0x3c29a46d	0.010354144
77	0x3dc5068d	0.0962039
78	0xbd40a720	-0.047034383
79	0xbf6424a9	-0.8911844
80	0x3e961b30	0.29317617
81	0x3e83639f	0.25661942
82	0xbec5314a	-0.38514167
83	0xbf33d7b0	-0.7025099
84	0x3e26a91d	0.16275449
85	0xbdd2aca6	-0.10286836
86	0xbe8d37f8	-0.27581763
87	0xbe698259	-0.2280363
88	0xbe5f67bb	-0.21816914
89	0xbe0b6860	-0.13614035
90	0x3dbb4ecd	0.091458894
91	0x3db64773	0.089003466
92	0xbe78bc3a	-0.24290553
93	0xbe8abaf9	-0.27095774
94	0xbee2683a	-0.44220144
95	0xbd2c5a46	-0.04207828
96	0xbd8bea5f	-0.06831812
97	0xbe5cb9a4	-0.21555191
98	0x3dc9c8de	0.098527655
99	0xbf41230a	-0.7544409
100	0x3e9d8c9f	0.30771348
101	0x3e32b840	0.17453098
102	0x3e5dbfaa	0.21655145
103	0xbf3c0a0e	-0.7345284
104	0xbf6b46e0	-0.9190502
105	0x3e51e29b	0.204966
106	0xbe1fb199	-0.15595092
107	0xbdfecb8b	-0.124411665
108	0xbec4fbcf	-0.38473365
109	0x3c820676	0.015872221
110	0x3d0632c6	0.032763265
111	0x3e424917	0.18973194
112	0xbee1e46e	-0.4411959
113	0x3e61b0c1	0.22040083
114	0xbe042937	-0.12906347
115	0xbd8a283e	-0.06745957
116	0xbe4a936a	-0.19782797
117	0xbe613117	-0.21991383
118	0x3ec52a72	0.38508946
119	0xbed3d869	-0.41376045
120	0xbf69d22b	-0.91336316
121	0xbe004458	-0.12526071
122	0xbd775a73	-0.060388993
123	0x3e11e549	0.14247622
124	0xbee18cd9	-0.4405277
125	0x3e3dc5ef	0.18532537
126	0xbdc8fc4a	-0.09813745
127	0x3e4deb09	0.2010919
128	0xbe447268	-0.19184268
129	0xbf12eaf4	-0.5738976
130	0xbe93f683	-0.2889901
131	0x3e0ffee1	0.14062072
132	0x3d5993fd	0.05311965
133	0xbeb4b623	-0.3529521
134	0xbeef32d2	-0.4671846
135	0x3e18dd40	0.1492815
136	0xbe83a5ee	-0.25712532
137	0xbd4f6d7f	-0.050641533
138	0x3e58bf68	0.21166766
139	0xbe3601ba	-0.17774096
140	0xbf00a22e	-0.50247467
141	0x3dc26aad	0.09493003
142	0x3e5fea9b	0.21866839
143	0xbe5e099c	-0.21683353
144	0x3d46e11c	0.048554525
145	0xbf05a311	-0.52201945
146	0x3e4cd8b8	0.20004547
147	0xbb019ef8	-0.001977859
148	0xbe400edb	-0.18755667
149	0xbe677cce	-0.22606203
150	0xbcf0127b	-0.029305687
151	0xbe420df7	-0.1895064
152	0xbda89b4a	-0.08232744
153	0xbf004dfc	-0.50118995
154	0x3ef10635	0.47075048
155	0x3c886b3a	0.016652692
156	0xbe84be00	-0.25926208
157	0xbe13711e	-0.1439862
158	0xbf124ce8	-0.571486
159	0x3c823947	0.015896453
160	0x3d5b7906	0.053582214
161	0xbf34be4c	-0.7060287
162	0xbf4a221e	-0.7895831
163	0xbe9471c5	-0.2899305
164	0x3df1a2df	0.11798643
165	0xbe907a3f	-0.28218266
166	0x3e107eb7	0.14110838
167	0x3d86f19a	0.065890506
168	0xbd2c58c6	-0.04207685
169	0x3e11a88f	0.14224456
170	0xbd80dc68	-0.06292039
171	0xbe825418	-0.25454783
172	0xbe0e0983	-0.13870816
173	0x3e4967ba	0.19668475
174	0x3d8d3e99	0.06896705
175	0xbe9478b2	-0.28998333
176	0xbe799d4f	-0.24376415
177	0xbeae12d2	-0.33998734
178	0xbe8c83fd	-0.2744445
179	0x3da3f19e	0.08005069
180	0x3d89fc26	0.067375466
181	0xbf349141	-0.7053414
182	0x3cb1ccf0	0.021704167
183	0x3af72066	0.001885426
184	0xbcea09cd	-0.028569127
185	0xbc017049	-0.007900306
186	0xbe11be04	-0.14232641
187	0xbe6be43c	-0.23036283
188	0xbf1b8364	-0.6074736
189	0x3da0b063	0.07846143
190	0x3ea18864	0.3154937
191	0xbe6285e8	-0.22121394
192	0xbe8a3298	-0.26991725
193	0xbf42902f	-0.76001257
194	0xbfba8141	-1.4570695
195	0xbe5c0898	-0.21487653
196	0x3e2cad49	0.16862978
197	0xbf3265ee	-0.6968678
198	0xbedf9b1c	-0.43673027
199	0x3e2608f7	0.16214357
200	0xbd997e7d	-0.07494829
201	0xbe939abb	-0.28828987
202	0xbeb5949d	-0.35464945
203	0xbe0e4597	-0.13893734
204	0xbf473060	-0.7780819
205	0x3e3e5ebc	0.18590826
206	0xbf2f5ce7	-0.6850113
207	0xbd920c1b	-0.07131215
208	0xbebb7f4c	-0.36620557
209	0xbed6c22b	-0.41945013
210	0xbde92475	-0.11383907
211	0xbf079944	-0.5296824
212	0xbed24593	-0.41068706
213	0xbe11074a	-0.14162937
214	0x3d7e6dda	0.06211648
215	0xbea99acc	-0.33125913
216	0xbf128cf6	-0.5724634
217	0x3e572ade	0.21012446
218	0xbe4ef8bd	-0.20212074
219	0x3dd23b0d	0.10265169
220	0xbdba34f0	-0.09092128
221	0x3d32d15a	0.043656684
222	0xbf369477	-0.7132029
223	0xbf03905e	-0.5139216
224	0xbe532c37	-0.20622335
225	0xbebeb7de	-0.37249655
226	0xbea8f8ea	-0.33002406
227	0xbf40de34	-0.75339055
228	0xbf281a67	-0.65665287
229	0x3d684c25	0.056713242
230	0xbe9976d1	-0.29973462
231	0x3e540e22	0.20708516
232	0xbf01a581	-0.50643164
233	0x3d101fe4	0.035186663
234	0xbf0f9ece	-0.5610169
235	0xbed0bf17	-0.4077079
236	0x3e75ab46	0.23991117
237	0xbf3009e5	-0.687651
238	0xbefbe9c5	-0.4920179
239	0x3e2a39b5	0.16623576
240	0xbf0a0b68	-0.53923655
241	0x3ec2a5b8	0.38017058
242	0xbf06536d	-0.5247105
243	0xbf2e6159	-0.6811729
244	0xbf075f9d	-0.5288027
245	0xbecb8768	-0.39751744
246	0xbe75d354	-0.24006397
247	0xbf10cae1	-0.5655957
248	0xbf2c18e9	-0.6722551
249	0x3dd56adf	0.10420775
250	0xbf0962dc	-0.5366647
251	0x3ee06464	0.43826592
252	0xbcd9804f	-0.02655044
253	0xbef7db5a	-0.4840954
254	0xbf1c0d90	-0.60958195
255	0xbeeaa146	-0.45826167

fc1.bias f4 [64]
0	0x3e07d707	0.1326562
1	0xbe183fdb	-0.14868109
2	0xbdd95962	-0.106127515
3	0xbdd0acd6	-0.10189216
4	0x3e623a91	0.22092654
5	0xbdfe4d13	-0.124170445
6	0xbe91e30d	-0.28493538
7	0xbbd25e47	-0.00641993
8	0xbd49a715	-0.049231607
9	0xbe96aef4	-0.29430354
10	0xbc572e10	-0.013133541
11	0x3e57152b	0.21004169
12	0x3e39e24c	0.18152732
13	0x3ec26ecc	0.37975156
14	0xbe277ab3	-0.163554
15	0xbda0c420	-0.07849908
16	0xbd591b6f	-0.05300468
17	0x3d8a044e	0.06739102
18	0xbd58eda9	-0.052961025
19	0xbe923915	-0.28559175
20	0x3d15fe96	0.036619745
21	0xbe2c7504	-0.16841513
22	0xbe07f81f	-0.13278244
23	0xbd721401	-0.05910111
24	0xbe243194	-0.16034538
25	0xbdb74101	-0.089479454
26	0xbe058952	-0.13040665
27	0xbe9c7b52	-0.30562836
28	0x3e18ab1d	0.14909025
29	0x3dd751cf	0.105136506
30	0xbe1ec711	-0.15505625
31	0xbde6d496	-0.11271016
32	0xbe1bf58a	-0.15230384
33	0x37fd64e7	3.0206937e-05
34	0xbe6ed155	-0.23322041
35	0x3dcad439	0.099037595
36	0xbdc702b2	-0.09717311
37	0x3c83b28d	0.01607635
38	0x3d0b9bd9	0.034084175
39	0xbe6dadad	-0.23210783
40	0xbde5fdd9	-0.11230058
41	0xbe2f128f	-0.17096923
42	0xbe924c4f	-0.28573844
43	0x3d7b5b09	0.061366115
44	0x3e872133	0.26392516
45	0xbc8ae703	-0.016955858
46	0xbe4cea16	-0.20011172
47	0xbdcdfc94	-0.10057941
48	0xbd8e8dca	-0.06960638
49	0x3df9d6fd	0.12199209
50	0xbe95c76c	-0.2925371
51	0xbe09c2ce	-0.13453218
52	0xbb87de63	-0.0041463836
53	0xbd058b2d	-0.03260343
54	0xbed35a89	-0.4128001
55	0xbe12d203	-0.14337926
56	0x3dd572a7	0.10422259
57	0xbe0e1494	-0.13875037
58	0x3ca5e217	0.02024941
59	0xbe050110	-0.12988687
60	0xbd18fba1	-0.037349347
61	0xbdac75ff	-0.084209435
62	0x3d145c4e	0.03622084
63	0xbd38ace6	-0.045086764

fc2.weight f4 [64, 64]
0	0x3dce4e49	0.100735255
1	0xbd422fe4	-0.047408953
2	0xbe2de11c	-0.16980404
3	0xbe1cecc9	-0.15324701
4	0x3cd6e926	0.02623422
5	0xbd620846	-0.05518367
6	0xbd4010c0	-0.046890974
7	0x3e279b83	0.16367917
8	0x3dc4f696	0.09617345
9	0xbdcca40e	-0.099922284
10	0x3e437984	0.19089323
11	0xbe7eadc9	-0.24870981
12	0xbde01774	-0.10941973
13	0xbd25a948	-0.040444642
14	0xbdc15cb3	-0.09441509
15	0xbce81302	-0.028329376
16	0xbd941753	-0.07231011
17	0xbe767ec8	-0.240718
18	0xbe953863	-0.29144582
19	0x3e3ce6f6	0.1844748
20	0x3d10a110	0.03530985
21	0x3cd6f167	0.026238156
22	0xbd5250fd	-0.051346768
23	0xbeccf3bc	-0.40029705
24	0xbebab87e	-0.3646888
25	0x3e18e436	0.14930806
26	0xbe17d7ce	-0.14828417
27	0x3d949432	0.072548285
28	0xbd4f41f6	-0.050600015
29	0xbeb54447	-0.35403654
30	0xbe902803	-0.28155527
31	0x3d26875a	0.040656425
32	0x3d9bd139	0.076082654
33	0x3f8118c7	1.0085686
34	0x3e1a0195	0.15039666
35	0xbf046fd6	-0.5173315
36	0x3df651f4	0.1202735
37	0xbd530d14	-0.051526144
38	0xbd163886	-0.036675
39	0x3e39184e	0.18075678
40	0xbece99e9	-0.403518
41	0xbcfd45e7	-0.030917121
42	0x3d894198	0.06701964
43	0xbe178f70	-0.14800811
44	0xbc6f15a2	-0.01459256
45	0xbe30102c	-0.17193669
46	0xbd861db4	-0.06548634
47	0xbeb4ae8e	-0.35289425
48	0x3df960bd	0.121766545
49	0x3d353014	0.044235304
50	0x3df4abd2	0.119468346
51	0x3d0f902f	0.035049614
52	0xbe1e3f96	-0.15453944
53	0xbf158f3e	-0.58421695
54	0xbd1731fd	-0.036912907
55	0x3ca33eb9	0.01992737
56	0xbe65cf11	-0.22442271
57	0xbdb3f442	-0.08786823
58	0x3df30c6c	0.11867604
59	0x3d38465e	0.044988982
60	0x3ad013d4	0.001587505
61	0x3dad034c	0.084478945
62	0x3e63e2d3	0.22254495
63	0x3d53a841	0.05167413
64	0xbd3edf78	-0.046599835
65	0x3e2976ba	0.16549197
66	0xbf1cdf0d	-0.6127785
67	0xbdee102a	-0.11624177
68	0xbe02fbbf	-0.12791346
69	0x3e4aaff3	0.19793682
70	0x3ed367b6	0.41290063
71	0x3cb448b2	0.02200732
72	0x3eaea2ee	0.3410868
73	0x3e8def81	0.2772179
74	0x3e0878ad	0.13327284
75	0x3ef0784a	0.46966773
76	0xbe6d9eda	-0.23205128
77	0x3cbb1bdd	0.022840435
78	0xbe6ad306	-0.22932062
79	0x3d4f48bb	0.05060647
80	0x3dc690de	0.096956
81	0xbe837448	-0.25674653
82	0xbb93f991	-0.0045158346
83	0x3db5ef51	0.088835366
84	0x3ea79125	0.32727924
85	0x3f1873ed	0.5955189
86	0x3d1467f9	0.03623197
87	0xbd5cf516	-0.05394467
88	0xbdd4f05d	-0.10397408
89	0x3d836829	0.06416351
90	0x3e5f9e3a	0.21837702
91	0xbea2ce96	-0.31798238
92	0xbc4ae68b	-0.012384067
93	0x3e91903f	0.28430364
94	0x3cc9bddf	0.02462667
95	0x3dbdae75	0.09261791
96	0xbdb49e3f	-0.088192455
97	0xbdbf8978	-0.09352392
98	0x3d65e910	0.05613047
99	0xbe149cac	-0.1451289
100	0x3e3ca294	0.18421394
101	0x3d8f3920	0.069933176
102	0xbe00b12e	-0.12567589
103	0xbe9455df	-0.28971764
104	0xbefb04c0	-0.4902706
105	0x3e07e558	0.13271081
106	0x3dcea5e5	0.100902356
107	0x3d8752c2	0.06607582
108	0xbe58b70e	-0.2116358
109	0x3d5560e4	0.052094355
110	0xbc7eb066	-0.015544986
111	0xbebbcb8f	-0.3667874
112	0x3eac7130	0.33680105
113	0xbd0a9525	-0.03383364
114	0xbb230cc3	-0.0024879433
115	0x3e6b7bf1	0.22996499
116	0x3e9678f4	0.29389155
117	0xbe06e132	-0.13171843
118	0x3d338baa	0.043834366
119	0xbe0faab2	-0.14029959
120	0x3de1fbd6	0.11034362
121	0xbea75643	-0.32683
122	0x3ee88fd1	0.45422223
123	0x3e315927	0.17319165
124	0xbe887cdc	-0.2665776
125	0xbdd6e766	-0.104933545
126	0xbdbd4344	-0.092413455
127	0xbd9901d2	-0.0747105
128	0x3e6b0a66	0.22953185
129	0x3caee2f1	0.021348448
130	0x3d96e41a	0.07367726
131	0xbe8f8182	-0.28028494
132	0xbd3bc03c	-0.045837626
133	0x3cef6292	0.029221807
134	0x3f27c957	0.65541595
135	0x3d50016c	0.050782606
136	0xbe0a0b9f	-0.13480996
137	0x3db06296	0.08612554
138	0xbd143145	-0.0361798
139	0xbeb67679	-0.35637262
140	0x3d8c537a	0.068518594
141	0xbabc9201	-0.0014386774
142	0xbe5da1d3	-0.21643762
143	0x3d5af645	0.053457517
144	0xbda56228	-0.080753624
145	0x3e39eeb7	0.18157469
146	0x3d1e435e	0.038638465
147	0x3ea40cb8	0.32040954
148	0xbeafb9e3	-0.34321508
149	0xbd77f1a4	-0.06053318
150	0x3cb38dc3	0.021918183
151	0xbe841f3d	-0.25805083
152	0x3d9d0249	0.076664515
153	0x3ed34950	0.4126687
154	0x3ddf96da	0.109174445
155	0xbd0ffe6f	-0.035154756
156	0x3d897440	0.06711626
157	0xbf019aae	-0.5062665
158	0x3e12453b	0.14284222
159	0x3d85c822	0.06532313
160	0xbe9c7efd	-0.30565634
161	0x3e546e00	0.20745087
162	0xbcd037df	-0.025417266
163	0xbe8a8e90	-0.27061892
164	0x3dc23283	0.094822906
165	0x3de9731a	0.11398907
166	0x3deaf0f0	0.114717364
167	0x3d315d09	0.043301616
168	0x3ea0a727	0.31377527
169	0x3e20e7c3	0.1571341
170	0x3cd844d6	0.026400011
171	0x3d9f2bdd	0.07772038
172	0xbdc961de	-0.0983312
173	0x3d3845f3	0.044988584
174	0xbc2a019c	-0.01037636
175	0xbbe0a2b4	-0.006855333
176	0xbe4429b2	-0.1915653
177	0x3e0a7495	0.13521035
178	0xbda94211	-0.08264554
179	0xbe5fca5b	-0.21854536
180	0xbe48aa1c	-0.19596142
181	0x3f1de5b0	0.616786
182	0xbdacf53c	-0.08445212
183	0xbdc99dbb	-0.09844538
184	0xbdf4d25c	-0.11954185
185	0xbe8f9ca2	-0.2804919
186	0xbf072daf	-0.5280408
187	0xbdd09aef	-0.10185801
188	0x3e1961a3	0.14978652
189	0x3c6fc5cb	0.01463456
190	0x3e2ff83c	0.17184538
191	0xbd758290	-0.059938967
192	0xbc4ee223	-0.012627157
193	0xbe327642	-0.17427924
194	0x3e1f8902	0.15579608
195	0x3e2f738e	0.17133924
196	0x3e9e4ba0	0.30917072
197	0xbef44320	-0.47707462
198	0xbe651a60	-0.22373343
199	0xbf1c59ba	-0.6107441
200	0xbea0750d	-0.31339303
201	0x3eb17cef	0.3466563
202	0x3d3e85ad	0.046514202
203	0x3dfa118a	0.122103766
204	0xbd2b0061	-0.04174841
205	0xbe479159	-0.1948904
206	0x3e20245b	0.15638869
207	0x3d14ebdc	0.036357746
208	0x3dd74601	0.10511399
209	0x3dc99ded	0.09844575
210	0xbe250632	-0.16115645
211	0xbe065f00	-0.13122177
212	0x3e77e049	0.24206652
213	0xbeb59370	-0.35464048
214	0xbea115f7	-0.3146207
215	0xbe031c3b	-0.12803738
216	0x3d47bbf7	0.04876324
217	0x3e9cf573	0.30656013
218	0x3f02dccf	0.5111818
219	0x3e1c40ff	0.15259169
220	0xbe306e25	-0.17229517
221	0xbf09e804	-0.5386965
222	0xbe7559ad	-0.2395999
223	0xbe15e0b2	-0.14636496
224	0x3df07a91	0.11742128
225	0xbebf4824	-0.37359726
226	0x3ea62a10	0.32453966
227	0xbdc09568	-0.09403497
228	0xbe9ea6bd	-0.30986586
229	0xbe6745df	-0.22585247
230	0x3e61fae9	0.22068371
231	0xbc619595	-0.013768573
232	0x3bf0e78f	0.0073518227
233	0x3d4b0665	0.049566645
234	0xbce8cbc4	-0.028417476
235	0x3e806867	0.25079653
236	0xbe031ef8	-0.12804782
237	0xbeba99a8	-0.36445355
238	0x3ebe0da4	0.37119782
239	0xbd9c6cdd	-0.076379515
240	0xbe9dc702	-0.30815893
241	0xbf1bde37	-0.6088595
242	0xbe3f768f	-0.1869757
243	0xbed3646c	-0.41287553
244	0x3f4664a6	0.7749733
245	0x3d58f25f	0.052965518
246	0x3e0d8c3a	0.13823023
247	0xbde70eb8	-0.11282104
248	0x3e6adcf9	0.22935857
249	0x3cf882eb	0.030335864
250	0x3c509e28	0.01273302
251	0xbee37fda	-0.4443348
252	0xbcf0d758	-0.029399559
253	0x3ea8031b	0.3281487
254	0x3f0b3d08	0.5439
255	0x3e4b1d47	0.19835387

fc2.bias f4 [64]
0	0xbe6a87d3	-0.22903375
1	0x3db35852	0.0875708
2	0x3e76d69d	0.24105306
3	0xbd1085ef	-0.03528398
4	0x3ed1ab43	0.40950975
5	0xbee1a20e	-0.4406895
6	0x3d900e57	0.07033985
7	0x38deb35f	0.000106191954
8	0x3f22a80e	0.6353768
9	0x3f51f2ab	0.82010907
10	0xbe1bb024	-0.15203911
11	0x3d129311	0.035784785
12	0x3eb7edef	0.35923716
13	0xbd4ce860	-0.050026298
14	0xbdf23823	-0.118271135
15	0x3e4c7a12	0.19968441
16	0x3e51d268	0.2049042
17	0xbe19cdfe	-0.15019986
18	0xbea7f930	-0.32807302
19	0x3eaa4d93	0.3326231
20	0x3f1c5057	0.6106009
21	0x3f55de1e	0.8354205
22	0xbdaf66a3	-0.08564498
23	0xbe8185bf	-0.25297353
24	0xbe59a3ba	-0.21253863
25	0x397c614c	0.00024068839
26	0x3db48ee5	0.088163175
27	0xbdd755bf	-0.10514402
28	0xbb9df9e3	-0.0048210486
29	0xbdf062fc	-0.1173763
30	0x3cc8201b	0.024429372
31	0x3e1f7b16	0.15574297
32	0x3de9ecb4	0.11422101
33	0x3e30688a	0.17227378
34	0xbcb5fd9f	-0.022215663
35	0xbdb2eb8b	-0.087363325
36	0x3d5a7061	0.05332983
37	0xbe44b6f0	-0.1921041
38	0xbe26839e	-0.16261145
39	0x3da4e253	0.080509804
40	0xbe3c74ce	-0.18403932
41	0x3f6ad1b2	0.9172622
42	0x3f43f3e1	0.76544005
43	0xbdbc86a5	-0.09205369
44	0x3da4fe87	0.0805636
45	0xbe54a6e8	-0.20766795
46	0x3f36cede	0.71409404
47	0xbd6ce42c	-0.05783479
48	0x3e03d6d2	0.12874916
49	0x3dead0f9	0.114656396
50	0xbdc2f825	-0.09519986
51	0x3f59cd23	0.8507864
52	0x3e4f905e	0.20269915
53	0xbe8f2897	-0.27960655
54	0x3ee329db	0.4436787
55	0xbe849fc4	-0.25903141
56	0xbeb4f93e	-0.35346407
57	0xbe31fe54	-0.17382175
58	0xbd9f363b	-0.077740155
59	0x3d1e15c6	0.038594984
60	0x3d886940	0.066607
61	0x3e4cde8e	0.20006773
62	0x3d84cfa7	0.06484919
63	0xbe94d543	-0.29068956

fc3.weight f4 [4, 64]
0	0x3f415e3c	0.75534415
1	0x3e79f68b	0.24410455
2	0x3e8ad006	0.27111834
3	0x3e19f5a2	0.15035108
4	0x3e43563e	0.19075868
5	0xbe7dca6d	-0.2478425
6	0x3eadff88	0.33984017
7	0xbe89140d	-0.2677311
8	0x3e580bd7	0.21098267
9	0x3e63ae07	0.22234355
10	0xbea62280	-0.32448196
11	0xbe5b45f5	-0.21413405
12	0x3d897da0	0.06713414
13	0x3ebc8a56	0.36824292
14	0xbea86ba0	-0.3289461
15	0x3a93d62f	0.0011279042
16	0x3ea7484e	0.32672352
17	0x3dc578ac	0.09642157
18	0xbee8a56e	-0.45438713
19	0x3dfdd74d	0.12394581
20	0x3e30fab7	0.1728314
21	0x3e9adf91	0.30248693
22	0xbcac7417	-0.02105145
23	0xbd3aa71a	-0.045569517
24	0x3e84d7ea	0.2594598
25	0xbe4bc4f5	-0.19899352
26	0xbdef414e	-0.11682378
27	0xbe04c30d	-0.12965031
28	0x3ee1cc39	0.44101122
29	0xbe78a6d6	-0.24282393
30	0xbeca55ce	-0.3951859
31	0x3da7369c	0.08164713
32	0x3e90cf0f	0.28282973
33	0x3eb4f270	0.35341215
34	0x3dab541b	0.08365651
35	0x3c522194	0.012825388
36	0x3eb29e9a	0.34886628
37	0xbdf98666	-0.121838376
38	0xbe7bf8e2	-0.2460666
39	0x3e71dfcf	0.23620532
40	0xbecbfaac	-0.39839685
41	0x3e84496d	0.2583727
42	0x3e673083	0.225771
43	0xbf509251	-0.8147326
44	0x3eb7ce67	0.3589966
45	0x3e402768	0.18765032
46	0x3e958502	0.2920304
47	0x3ef2a906	0.4739458
48	0x3e2fa90f	0.17154334
49	0x3e3a06cf	0.1816666
50	0x3ed8b6ef	0.42327067
51	0x3e6c76fa	0.23092261
52	0x3dece723	0.11567523
53	0xbe45102b	-0.19244449
54	0x3e1c1261	0.15241386
55	0xbe091306	-0.13386163
56	0xbe1a679c	-0.15078586
57	0xbd5d7f5e	-0.054076545
58	0x3de91012	0.11380018
59	0x3c16e6b5	0.009210278
60	0xbf00286e	-0.5006169
61	0xbc6ebdd0	-0.014571622
62	0x3e9bf5d6	0.30460995
63	0xbe5fe124	-0.21863228
64	0x3f42ad02	0.7604524
65	0x3e63acb8	0.22233856
66	0x3e55729d	0.20844503
67	0x3de7e46d	0.11322866
68	0x3e350f6d	0.17681666
69	0xbe8025d5	-0.25028864
70	0x3e8a27f8	0.2698362
71	0x3d541e00	0.051786423
72	0x3e660dc2	0.22466186
73	0x3e87f3f5	0.26553312
74	0xbe45f590	-0.19331956
75	0xbe162ae3	-0.14664797
76	0x3d1db2ce	0.0385006
77	0x3ec7e760	0.39043713
78	0x3e183026	0.14862117
79	0x3e3e6713	0.18594007
80	0x3e912036	0.28344887
81	0xbb23a737	-0.0024971494
82	0xbe8a45c2	-0.27006346
83	0x3db852ee	0.090001926
84	0x3e7e35e0	0.24825239
85	0x3ea93828	0.33050656
86	0xbc9f00f5	-0.019409636
87	0xbda842d5	-0.08215872
88	0x3e6d37d7	0.23165832
89	0xbd11bd4d	-0.035580922
90	0xbd1e452a	-0.03864018
91	0xbf02632b	-0.5093257
92	0x3ea32626	0.31865042
93	0xbd807557	-0.06272381
94	0xbc816746	-0.015796315
95	0x3e290b98	0.16508329
96	0x3e7ce8fc	0.24698251
97	0x3f363899	0.7118011
98	0xbe65a195	-0.2242492
99	0xbd9f3d02	-0.07775308
100	0x3e8095a4	0.25114167
101	0xbdb4620b	-0.08807763
102	0xbe325ccf	-0.17418216
103	0x3e91f96f	0.28510615
104	0xbe81892b	-0.25299963
105	0x3e9490af	0.29016635
106	0x3e35a7e0	0.1773982
107	0x3d900176	0.07031529
108	0x3e4f7e46	0.20263013
109	0x3e337140	0.1752367
110	0x3e822980	0.25422287
111	0x3ef4330c	0.47695196
112	0x3e5b1a38	0.2139672
113	0x3d8d7147	0.069063716
114	0x3ec92f0a	0.392937
115	0x3e314c35	0.17314227
116	0x3e062c98	0.13102949
117	0xbdd6eb0a	-0.10494049
118	0x3e05b0e0	0.13055754
119	0xbda2f140	-0.07956171
120	0xbe32ce3d	-0.17461486
121	0x3da1111a	0.0786459
122	0xbd1b25cb	-0.03787784
123	0x3e42625c	0.18982834
124	0xbdcb002b	-0.099121414
125	0x3dcaec70	0.09908378
126	0xbda272c3	-0.07932045
127	0xbd562dcc	-0.05228977
128	0x3efa1623	0.48845014
129	0x3eb7ba3c	0.35884273
130	0x3e1b248a	0.15150657
131	0x3ec7f45b	0.39053616
132	0x3e83cefa	0.25743848
133	0xbe8423e2	-0.25808626
134	0x3e853a6b	0.26021132
135	0xbe86c2c6	-0.26320475
136	0x3e347836	0.17623982
137	0x3e627bfd	0.2211761
138	0xbd2eee90	-0.04270798
139	0x3dbe3d33	0.092890166
140	0x3e3cb241	0.18427373
141	0x3ee5ec24	0.44906723
142	0x3c24dd67	0.010062552
143	0x3e14cdb0	0.14531589
144	0x3e3be46f	0.18348859
145	0xbd9c1947	-0.07622009
146	0x3cbf8822	0.023380343
147	0xbd466b17	-0.048441973
148	0x3df7f3ed	0.12107072
149	0x3eb8d944	0.3610326
150	0xbd13aa36	-0.036050998
151	0x3d88a81f	0.066726916
152	0x3f1d64d1	0.6148196
153	0xbeab6bd6	-0.3348071
154	0xbe8c5d53	-0.2741495
155	0x3d025e3b	0.031828146
156	0x3e87970d	0.2648243
157	0xbea9487a	-0.33063108
158	0xbe993d37	-0.29929516
159	0x3c1dfd76	0.009642949
160	0x3e9526aa	0.2913106
161	0xbe2ffadb	-0.17185538
162	0xbe08e657	-0.13369118
163	0x3d994645	0.07484106
164	0xbeaedd13	-0.3415304
165	0xbf2cebf4	-0.67547536
166	0xbdec60c8	-0.11541897
167	0x3da6d993	0.08146968
168	0x3bfc42c3	0.0076983883
169	0x3e92c250	0.28663874
170	0x3e72c805	0.23709114
171	0xbd812dc1	-0.06307555
172	0x3dd3c1bf	0.103396885
173	0x3e13bd25	0.14427622
174	0x3e80119a	0.2501343
175	0x3ef730b2	0.4827934
176	0x3ec13fb6	0.3774392
177	0x3cdb8735	0.02679787
178	0x3ed98756	0.42486066
179	0x3e9ff05a	0.3123806
180	0x3e213d21	0.15745975
181	0x3db3e6df	0.087842695
182	0x3e5638a7	0.20920049
183	0x3f117b0f	0.568284
184	0xbe4aab5b	-0.1979193
185	0x3e751166	0.23932418
186	0x3e739665	0.2378784
187	0x3e1dabd7	0.15397583
188	0x3e75df41	0.24010946
189	0x3e228735	0.1587189
190	0xbe4b49d2	-0.19852379
191	0xbe2900b3	-0.16504173
192	0xbd878e2f	-0.06618916
193	0x3e61361b	0.21993296
194	0x3e38c4f1	0.18043877
195	0x3e8a03af	0.26955935
196	0x3df8d225	0.12149457
197	0xbe5d238f	-0.21595596
198	0x3e3578a4	0.17721802
199	0xbddcc1a3	-0.10779121
200	0x3e29b55a	0.16573086
201	0x3ea0c364	0.3139907
202	0xbec2c558	-0.38041186
203	0xbe8137d1	-0.25237897
204	0x3dbe9b7b	0.09306999
205	0x3de77978	0.11302465
206	0x3d6d26bf	0.05789828
207	0x3e02d269	0.12775578
208	0x3e8e3940	0.27778053
209	0x3db9aec1	0.09066535
210	0x3d3a7dce	0.045530133
211	0x3e3d9e01	0.18517305
212	0x3e24406f	0.16040204
213	0x3ebf2d0f	0.37339064
214	0xbead0101	-0.33789828
215	0xbd97cb16	-0.074117824
216	0x3d9ccc45	0.07656149
217	0xbf010179	-0.5039287
218	0xbea504ba	-0.3223017
219	0x3e8cd96f	0.2750964
220	0x3f106e78	0.5641856
221	0xbe341c83	-0.17589001
222	0xbee55bd0	-0.4479661
223	0x3e4eca35	0.20194323
224	0x3e883fa7	0.26611063
225	0x3f325592	0.6966182
226	0xbe05a1c0	-0.13049984
227	0x3c7e8003	0.01553345
228	0xbe77228f	-0.24134277
229	0xbe837943	-0.25678453
230	0xbd73b939	-0.059502814
231	0x3e680e42	0.22661689
232	0xbf0f365c	-0.5594232
233	0x3e8b0426	0.27151603
234	0x3e6d1e20	0.23156023
235	0xbe870eae	-0.26378387
236	0x3e832010	0.256104
237	0xbf1de76c	-0.61681247
238	0x3e70c185	0.23511322
239	0x3ec23694	0.37932265
240	0x3e583b3b	0.21116345
241	0x3c309ee2	0.010780068
242	0x3f0a6fcd	0.54076844
243	0x3e8757ae	0.26434082
244	0x3c8a3b36	0.016873937
245	0xbd2d3997	-0.04229125
246	0x3e21ba46	0.15793714
247	0x3f432ba7	0.76238483
248	0xbeb5fd85	-0.35544983
249	0x3d32a81c	0.043617353
250	0x3dbd36e4	0.09238985
251	0xbdff71d6	-0.12472884
252	0xbf1c6c36	-0.61102617
253	0x3e564732	0.20925596
254	0x3e9870db	0.29773602
255	0x3d50cd0d	0.0509768

fc3.bias f4 [4]
0	0x3f274d6c	0.6535251
1	0x3f04ea28	0.51919794
2	0x3eec9c48	0.46212983
3	0x3ef234f2	0.4730602
