p1_navigation/src_submission/checkpoint380.pth (torch_old, 28451 bytes, 6 tensors)

fc1.weight f4 [64, 37]
000000 39 63 43 be d2 0a 60 3b 84 93 91 3c 66 77 51 3d
       -0.19080819 0.0034186137 0.017770536 0.051139258
000010 fc 04 1a 3e 16 2c bc 3c ee ea a4 bd c1 2b 56 3e
       0.15040964 0.02297024 -0.08052622 0.20915128
000020 58 85 d3 3d f5 35 c4 3d 96 80 11 bd 52 fc 12 bd
       0.10328168 0.09580604 -0.03552302 -0.035885163
000030 56 d9 5b bd 8e 51 66 be 6d 2d 7e be 36 bf 21 3e
       -0.053674065 -0.22492048 -0.24822016 0.15795597
000040 fd 0c 61 bc ea d8 de 3b 77 81 7e 3c bd b3 b3 bd
       -0.013736007 0.0068007605 0.0155337965 -0.08774517
000050 e4 04 cf 3d e5 02 13 3d 8a df b9 3c 9c c7 0e 3e
       0.10108355 0.035891432 0.0226896 0.13943332
000060 48 38 0c be 8a 8c af 3d 64 81 83 3d 46 d0 23 be
       -0.13693345 0.085717276 0.06421164 -0.15997419
000070 53 16 8d bd 3c 39 05 bf f9 2f c3 bd 66 bd 46 3e
       -0.06889024 -0.5204046 -0.095306344 0.19408187
000080 07 ee 81 bd 5e a4 35 be fc fb a4 bd ad 4f 5e be
       -0.06344228 -0.17738482 -0.08055875 -0.21710081
000090 5e 65 cb bc 73 29 bf 3d 13 df e3 3d 34 6d 32 3d
       -0.02482861 0.09334078 0.111265324 0.043561175
0000a0 dd 1a 0c 3e eb 18 b9 bd 7d 93 f5 bc eb a2 99 bd
       0.13682123 -0.09037956 -0.029977554 -0.07501777
0000b0 ec 60 c1 bd 1a ab ac bd 77 de 42 3e d4 1c 15 3d
       -0.094423145 -0.084310725 0.19030176 0.036404446
0000c0 b8 a5 8d bb 1d 2d 9a 3d e8 7e 17 3d 1a 84 bf 3b
       -0.0043227337 0.07528136 0.03698626 0.005844605
0000d0 ea 88 b2 3e 9a 56 15 bf f9 c8 aa be db 62 57 be
       0.34870082 -0.5833527 -0.33356455 -0.21033804
0000e0 a4 ef c7 bf 60 01 ae bd bc 0c 9b bd 41 25 94 bd
       -1.5620008 -0.08496356 -0.07570788 -0.07233668
0000f0 d0 b0 bd bc 09 f1 c0 3d cb 85 9f bd e6 ee 91 3d
       -0.0231556 0.09420974 -0.07789191 0.071256444
000100 79 6c f6 3c 22 91 00 bc d0 d8 9b bd 61 c3 1f 3d
       0.03008102 -0.007847102 -0.07609713 0.039004687
000110 0b 6c e1 3d 39 8a f3 3d 1e 26 d0 3d f0 ab 35 3c
       0.11006936 0.11891598 0.1016352 0.011088356
000120 1c 94 15 3b b4 01 73 3a 5e 5d cc 3c 8f 94 42 3e
       0.0022823876 0.0009269968 0.024946865 0.19001983
000130 27 c0 89 3d d6 73 a7 3c 9b 26 80 3e a4 73 5d 3d
       0.06726103 0.020440977 0.25029454 0.05406536
000140 a4 a8 8b be 3c 43 84 3d f6 94 b3 3d af 4d 1a be
       -0.272771 0.064581364 0.087686464 -0.15068696
000150 43 03 6d bd f6 67 5d bc ef 01 aa bd d7 d9 a2 3d
       -0.05786444 -0.013513556 -0.0830115 0.07951706
000160 f1 77 77 3e c2 c7 04 bf a7 81 78 3e 9f 06 ec 3d
       0.24166848 -0.51867306 0.24268208 0.115247004
000170 75 72 39 3e 65 68 35 3e c3 be 54 bd 8d 03 d1 bc
       0.18110068 0.17715605 -0.051939737 -0.025514388
000180 ee c2 f0 bd ec 31 23 3e 4c 57 ca bd b8 ce 6c be
       -0.1175593 0.15937012 -0.09879932 -0.23125732
000190 83 61 4e 3e 97 00 8e 3d 94 32 15 3e af 89 82 bd
       0.20154385 0.06933706 0.14570075 -0.06373917
0001a0 07 f4 e0 be 79 c8 03 3e 92 a2 0d bd 6e 83 89 be
       -0.43936178 0.12869443 -0.034578867 -0.26858085
0001b0 19 61 90 3d d8 21 ff 3d 34 09 53 bd a2 6b 5a be
       0.0704977 0.12457627 -0.05152245 -0.21330121
0001c0 42 36 9c 3d 90 3f 7e 3e 95 d0 a2 be 70 70 1b bf
       0.07627536 0.24828935 -0.3179976 -0.6071844
0001d0 b6 91 2c bf 47 24 51 3e f3 ea 23 3e 61 39 9b be
       -0.6740984 0.20423995 0.16007595 -0.30317214
0001e0 e0 43 6c be 51 0b 6d 3d 47 e4 67 be b9 af 05 3e
       -0.23072767 0.05787212 -0.22645675 0.13055314
0001f0 e3 71 ce be 1a ba 9c be c4 b8 91 be 9b c2 53 be
       -0.40321264 -0.30610734 -0.28461277 -0.20679705
000200 fc f7 b1 3d 94 a9 09 bf 64 c4 49 be 27 5f 2c 3e
       0.086898774 -0.5377438 -0.19703823 0.16833173
000210 00 90 98 be 81 4d 5e 3d 82 6d 90 be 6f c4 65 be
       -0.29797363 0.054273132 -0.28208548 -0.22438215
000220 cf 1c d4 bc 76 25 f9 be e5 ae bd 3d 23 ef ec bb
       -0.025892643 -0.48661393 0.09261874 -0.0072306558
000230 c7 b9 2a bf bb 40 8b be 42 3a 80 3c a2 46 f7 3d
       -0.66689724 -0.27197823 0.01565278 0.12074019
000240 01 35 a1 be d5 91 c2 bd 66 95 73 3e bc 49 91 3d
       -0.3148575 -0.095004715 0.2378746 0.07094142
000250 88 b0 8c be 51 b9 95 3c d6 00 71 bd 1c 18 80 be
       -0.27478433 0.018276842 -0.058838688 -0.25018394
000260 9f d4 52 be 13 60 27 be 89 8e 19 3e e5 12 11 3e
       -0.20588921 -0.16345243 0.14995779 0.14167364
000270 59 d1 fc bd 08 91 1f bf 57 a0 a0 bd 90 e2 a9 bd
       -0.123446174 -0.62330675 -0.078430824 -0.082951665
000280 99 32 04 3d 3d 2e 95 bd 28 da 32 be b1 ed 1b bf
       0.032274816 -0.0728421 -0.17466033 -0.60909563
000290 df 57 3f 3e e9 28 e8 3d c0 df 81 bc 78 51 12 bf
       0.18685864 0.11335928 -0.015853763 -0.5715556
0002a0 9c 6e fc bd 3a 8f 0d 3a c5 45 80 3d 89 a6 8e bc
       -0.123257846 0.00054000656 0.062633075 -0.017413395
0002b0 3f e8 0e 3e 81 81 ff be e1 c1 75 3e 0e 55 8f 3e
       0.13955782 -0.4990349 0.2399974 0.2799458
0002c0 bf 2e 91 be b2 0e 70 bf 36 c2 ce 3d 20 71 04 bc
       -0.28355977 -0.93772423 0.100956365 -0.008083612
0002d0 99 4e 9b 3c d3 85 20 be c4 ad 99 bc fa 9f 7d 3d
       0.018958377 -0.1567605 -0.018759616 0.061920144
0002e0 e6 92 87 3b 58 7d 94 bb 5a 6a 95 bc 62 c1 e7 bc
       0.0041373847 -0.0045315437 -0.018239189 -0.028290454
0002f0 ab 93 9b 3d 22 9b 54 3d bb e2 a5 3e b5 af 8c bd
       0.07596525 0.05190576 0.32399544 -0.06869451
000300 11 0c 66 be 64 ed 9f be a9 ba f5 bf c6 6e 1e be
       -0.2246554 -0.31235802 -1.9197589 -0.15471944
000310 16 1a 60 3c c9 22 16 3d 77 93 aa bc a9 3c 1e bd
       0.013678094 0.036654267 -0.02082227 -0.03863207
000320 8f f1 24 bd 0a 57 ba 3d 54 37 d7 3c 6c 16 a0 bd
       -0.04026943 0.09098633 0.0262715 -0.07816777
000330 68 47 af bc 61 13 ac 3d 43 e9 8f 3d 61 b0 8e 3d
       -0.021396354 0.08402134 0.07026913 0.06967235
000340 60 19 09 3e 33 12 a9 3c 8f 9b 9d bd 98 90 ce 3d
       0.13388586 0.02063856 -0.07695686 0.10086173
000350 c3 6c 76 3d 07 c7 7d 3d 60 b4 3e 3e 7e 7d 90 3d
       0.060162317 0.061957385 0.18623495 0.07055186
000360 96 a6 c1 bd d6 a1 a4 3b 02 1a 32 bc d1 c5 92 bd
       -0.09455602 0.005024175 -0.010870459 -0.07166637
000370 3d fd d3 3c e3 27 91 3c b3 e6 c3 3e 6b e6 4a be
       0.02587759 0.017719215 0.38261947 -0.1981446
000380 af df 85 bd ef 13 ab be b4 83 9e bf 40 c0 45 bd
       -0.06536805 -0.33413646 -1.2383943 -0.048279047
000390 5c ca 92 bd 28 7f 2f bd 6b 03 be 3d 4b e9 8c 3d
       -0.07167503 -0.042845875 0.09277996 0.068804346
0003a0 e1 41 14 3d 43 cb 1c 3e 5f 76 05 3d 94 b4 95 3d
       0.03619564 0.15311913 0.03258359 0.07309833
0003b0 dc 48 9a bb 23 7d b0 be 8e f0 11 ba 57 0a e7 3d
       -0.0047083925 -0.34470472 -0.00055671565 0.11281269
0003c0 79 54 13 bd ce 7b fe 3e c8 43 4d 3d 01 4e a4 bd
       -0.03596923 0.4970383 0.05011347 -0.080226906
0003d0 cc 95 76 3d a3 8f 5c be 49 74 28 bd 0e f9 c0 3b
       0.06020145 -0.21539168 -0.041126523 0.0058890646
0003e0 2b 66 7f bc 49 84 e8 bd 95 d9 99 bd 73 25 80 bc
       -0.015588324 -0.113533564 -0.075122036 -0.015642857
0003f0 95 0c bb 3b d1 e1 00 3e 2d b2 9c 3d ac a0 01 be
       0.005708287 0.12586142 0.07651172 -0.12658948

fc1.bias f4 [64]
000000 1b b7 02 3e 87 12 57 bc 10 95 4c be 94 00 8d bd
       0.12765162 -0.013126976 -0.19978738 -0.06884876
000010 07 b4 55 3e 7c fc 07 bc 82 9f dc bc bf 3a 28 3d
       0.20869456 -0.008299943 -0.026931528 0.04107165
000020 95 ed ab 3c f4 35 8b be 37 4d 16 3e 9a 3a 1a 3e
       0.020987311 -0.271896 0.14677893 0.15061417
000030 25 49 d7 3d d4 c8 38 3d 37 1f 56 3c 2f c3 8e bd
       0.10511998 0.0451134 0.013068966 -0.06970822
000040 c9 3b 1c 3c 82 41 86 bc f2 86 16 bd 45 b2 83 be
       0.009535738 -0.016388658 -0.036749788 -0.25721946
000050 9e 67 a2 bd 76 94 b3 bc 12 ec ba 3d 1b 89 ae bc
       -0.0792992 -0.021921378 0.09127058 -0.021305611
000060 dc 6e bd bd 85 0b 92 3e b9 5e 04 bd cf 76 66 be
       -0.092496604 0.28524414 -0.032316897 -0.2250626
000070 c4 3c 44 3e 33 f4 34 bc e1 b6 d4 bc e6 38 57 be
       0.19163805 -0.01104455 -0.02596611 -0.21017799
000080 70 17 ed 3d a6 06 28 3d 87 04 a2 bd a0 c0 af 3d
       0.11576736 0.041021965 -0.0791102 0.08581662
000090 98 96 03 bc fd 1f 35 3d d0 a5 30 3c f8 31 21 be
       -0.00803151 0.04421996 0.01078172 -0.15741718
0000a0 36 50 2f be 34 b2 b0 bd f2 64 e5 3c 2c 5c 50 3e
       -0.17120442 -0.086277395 0.028002236 0.20347661
0000b0 d6 7f cc 3d 87 d1 21 be eb 37 78 3d 42 f3 ad bd
       0.0998532 -0.15802585 0.060600203 -0.08493663
0000c0 47 80 70 bd c7 ef 1e 3d 48 b5 35 be a4 26 49 3c
       -0.058716085 0.03880289 -0.17744935 0.012277279
0000d0 e8 78 d1 bc 0d b6 48 be 6f 37 0f be 9b d3 83 bd
       -0.025570348 -0.19600697 -0.1398599 -0.06436845
0000e0 71 f0 63 3d aa 37 74 bc 24 4f 9e bd 7a 54 3b be
       0.055649225 -0.0149058495 -0.077299386 -0.18293944
0000f0 ee a2 02 3d cc 56 2a 3c 98 93 24 3c 11 79 fa 3c
       0.031893663 0.010396671 0.010044955 0.030575307

fc2.weight f4 [64, 64]
000000 64 10 9b be dc a8 28 3c 97 f6 60 3e dc a0 a5 3e
       -0.30285943 0.010294165 0.21969067 0.32349288
000010 43 d1 67 3e 9e 94 56 be a9 5b 29 be f8 c5 04 bf
       0.22638421 -0.2095513 -0.16538872 -0.51864576
000020 46 e1 ff 3d dd 29 2e 3c ee ae 31 be 1c 31 81 be
       0.124941394 0.010630098 -0.17351887 -0.2523278
000030 d0 6e 02 bd ff 2a 43 3c 60 61 73 bd 67 a0 b1 bd
       -0.03184396 0.011912107 -0.059419036 -0.086731724
000040 01 45 38 be a5 cb fe 3d cd 01 08 be ac 84 97 3d
       -0.17995073 0.12441186 -0.13281937 0.07398352
000050 44 e0 45 be db 11 30 be 9f a1 08 bc 4c 6f 98 be
       -0.19323832 -0.17194311 -0.008339315 -0.29772413
000060 dd d5 e5 3b 4b 1b dc bd 8d 14 c4 bd 3d d9 c3 3c
       0.00701402 -0.10747393 -0.09574232 0.023907298
000070 3e 49 68 bd fd 6d 1c be cb c4 27 be 10 00 a2 be
       -0.056710474 -0.15276332 -0.16383664 -0.31640673
000080 94 ba 41 3d 12 e9 ad 3d 0e 3a 81 be 75 04 19 3d
       0.047297075 0.0849172 -0.25239605 0.037357766
000090 2a 8e 93 be 7a 92 81 3e ba fa 32 bd 3d 86 b1 bd
       -0.288194 0.25307065 -0.043696143 -0.08668182
0000a0 65 16 8e be 16 43 97 be b9 0a d1 bd 08 b2 38 bd
       -0.2775146 -0.2954337 -0.10207123 -0.04509166
0000b0 a3 6c 76 3d a4 03 3e be fb d1 ca be 27 dd a4 bd
       0.060162198 -0.18556076 -0.39613327 -0.08049994
0000c0 b4 1b 4e be ed 86 a0 3c 19 37 1a bf 03 3f f3 bd
       -0.20127755 0.019595588 -0.6024032 -0.11877253
0000d0 8b 48 da be bc 12 9c be 66 9c 7a 3c 60 74 15 be
       -0.4263347 -0.30483043 0.015296077 -0.14595175
0000e0 f5 98 5a bc 6d 2f 9f be d7 67 d0 be fd 27 c0 be
       -0.013342132 -0.3109087 -0.40704224 -0.3753051
0000f0 b9 e0 42 3e 90 e4 25 3e f3 a0 13 3b 0a 31 da 3d
       0.19031037 0.16200471 0.0022526353 0.10653885
000100 9b 5f 24 3e be 18 1f 3d 94 1b 45 be 5f 84 4a 3e
       0.16052096 0.038841955 -0.19248801 0.19777058
000110 bd f0 b8 be c3 3e 08 3e e1 f9 2a 3c 4f bc ae 3e
       -0.3612117 0.13305192 0.010435552 0.34128043
000120 13 9f f5 bd 2e 22 b6 bb 67 5c 31 3d 8e 5f 56 3e
       -0.119932316 -0.0055582738 0.043301012 0.20934889
000130 e8 37 5f 3c 09 7c 12 be 77 40 13 be 8f 94 29 bd
       0.013624169 -0.14305128 -0.1438006 -0.041401442
000140 eb a4 bd 3b 3f a0 4b 3d 01 78 89 bd 4f 83 0d be
       0.005787482 0.04971337 -0.06712342 -0.13819622
000150 75 f3 32 3d f9 cb 5d be 9d 2c 2c 3d 08 3b 05 3d
       0.04368921 -0.2165984 0.042034734 0.032527
000160 a6 19 09 3e c2 4e 92 3e e9 81 bc bd 1b 61 21 be
       0.1338869 0.28575712 -0.09204466 -0.15759699
000170 1c 93 94 3d 1b e5 12 bd 42 f4 b8 ba 24 cc 94 3d
       0.072546214 -0.035863023 -0.001411088 0.07265499
000180 7e 40 98 be b3 69 30 3e 21 2d 97 3d 51 f5 ee 3c
       -0.29736704 0.17227821 0.073816545 0.02916971
000190 dc 10 a6 bd 55 01 88 3e 4c 83 29 ba a5 14 12 be
       -0.081086844 0.26563516 -0.0006466403 -0.14265688
0001a0 ed a4 39 bd 4c 59 3a 3e 02 a4 10 3e 27 37 0e 3e
       -0.0453233 0.18198127 0.14125064 0.13888226
0001b0 37 b3 f2 bd 79 9a e3 ba ee e3 07 be f3 b2 9b 3c
       -0.11850589 -0.0017364762 -0.13270542 0.019006228
0001c0 5c 39 03 bd f3 d2 79 be bf cf 98 bd 0f c0 bf 3c
       -0.032037124 -0.24396877 -0.074614994 0.02340701
0001d0 6b 16 fd bd f5 8d 81 3e 83 e6 b9 3d ad eb 81 3c
       -0.123577915 0.25303617 0.0907717 0.01585945
0001e0 89 3b 71 be 4d 39 8a bd 3c 2f f7 3d 60 25 d5 3d
       -0.23557867 -0.067492105 0.12069556 0.10407519
0001f0 46 a3 18 be 8b 94 bd 3d ff 27 be bd 21 03 34 3e
       -0.14906034 0.09256848 -0.092849724 0.17579319
000200 c4 64 0c be 4e ff a9 be 6a 2e 3b be 29 22 38 bc
       -0.13710314 -0.33202595 -0.18279424 -0.011238613
000210 6f 92 10 3e 52 00 57 be 09 04 f0 3d 55 1a dc be
       0.1411836 -0.20996216 0.1171952 -0.4298884
000220 38 71 c2 3d 20 fe ba bc e4 18 ed bd ad d4 42 3c
       0.09494251 -0.022826254 -0.11577013 0.011891526
000230 32 aa 90 3c 48 97 01 bd 15 62 ac bd 13 da 64 3e
       0.01765928 -0.031638414 -0.08417145 0.22348814
000240 63 a6 e6 bd 1a e4 01 3d 04 2d 92 3d 83 d3 06 be
       -0.112622045 0.031711675 0.07137492 -0.13166623
000250 dd 90 80 be 2b 50 8d 3d d8 8e 78 bc fe 5f 13 3f
       -0.25110522 0.069000565 -0.015170775 0.5756835
000260 2e 48 0d 3e f7 25 cd 3d a4 ff 71 3d ec 33 64 3e
       0.13797066 0.10017007 0.05908169 0.22285432
000270 d5 90 8a 3d c3 c5 41 3e be bf 4e bd 38 44 ba 3d
       0.06765906 0.18923096 -0.05047583 0.09095043
000280 9b 49 9b 3d c3 75 ee bd d9 1a d2 bd 49 0f 87 bd
       0.075823985 -0.11643555 -0.10259027 -0.06594712
000290 29 7d fd 3d 0d 5e 70 be 7d de 67 bd 3f 0f d6 bd
       0.12377388 -0.23473378 -0.056608666 -0.10452127
0002a0 ad e5 e8 3d 36 a5 20 be 43 e5 48 be d5 08 be 3d
       0.11371932 -0.15688023 -0.19618706 0.09279028
0002b0 f3 c7 2c bd e6 e1 4b bd 10 0c 07 bd c5 fd fe be
       -0.042182874 -0.04977598 -0.032970488 -0.49802986
0002c0 85 95 00 be 0b 77 80 bd de e1 b1 bd 85 c3 5a 3d
       -0.12557037 -0.06272706 -0.08685659 0.05340912
0002d0 7d 6a 60 be c1 0b bf 3c 25 0c d7 bd 66 8f 01 3d
       -0.21915622 0.023321034 -0.10500363 0.031630896
0002e0 16 94 27 bd 9e 1b c5 bd 48 d2 5c 3c cb 8f 5f 3d
       -0.04091271 -0.09624408 0.013477869 0.05458049
0002f0 2b 2e bb bd 06 55 f3 3d 2f 38 60 3e e3 60 00 3b
       -0.09139665 0.11881451 0.21896432 0.0019589
000300 8d 17 4f bd d2 42 84 be dd e1 30 be 67 fd eb bd
       -0.05055957 -0.2583223 -0.1727366 -0.11522942
000310 08 66 b4 3d f2 79 57 be f3 94 0a be 26 84 5a be
       0.088085234 -0.21042612 -0.13533382 -0.21339473
000320 57 30 73 be 2c 36 48 be 71 f4 d0 bd ce ff af bd
       -0.23748909 -0.19551915 -0.102028735 -0.08593713
000330 9e 64 3a bd a7 02 18 3e c6 fb 8c bd 2c 5a 71 be
       -0.045506112 0.14844762 -0.068839595 -0.23569554
000340 4c 40 0e 3d 31 d0 9b bc 4b 4d a7 3d 47 8e 83 be
       0.034729287 -0.019020172 0.08169039 -0.25694486
000350 14 a7 f2 3d 84 5d 3d 3e 8c 4d 3c bc f1 ea 9c bd
       0.11848274 0.18492705 -0.011493098 -0.07661999
000360 f8 09 fa bc 82 f7 89 3e de 71 a8 bb 0d 86 02 be
       -0.030522332 0.26946646 -0.005140527 -0.12746449
000370 58 bd da 3d 47 47 da 3d 92 8d 22 bd 75 8b 28 bd
       0.10680646 0.10658126 -0.039685793 -0.04114862
000380 d7 59 13 be 5d 97 16 3e 07 ae 0f bc 75 32 8f 3e
       -0.1438974 0.14706178 -0.008769519 0.27968183
000390 06 6e 01 be bf c2 ab 3c 46 49 f9 bd bf 9f 5e 3e
       -0.12639627 0.020966886 -0.12172179 0.21740626
0003a0 9a 87 43 bd cc 9c d7 3c 74 65 98 3d 5f c4 d3 be
       -0.04773674 0.026319884 0.07441226 -0.41360757
0003b0 e9 53 ba bd e8 2a f0 3d c3 9d 07 be 8d 8a 9c be
       -0.09098036 0.11726934 -0.13243775 -0.30574456
0003c0 69 fd 16 be 40 1f 72 3e b5 eb f8 be df aa b3 bd
       -0.14745106 0.23644733 -0.4861733 -0.087728254
0003d0 83 40 fc bd 02 18 0e 3e d2 6c 25 be cf 78 c0 3c
       -0.12316992 0.13876346 -0.16154793 0.023495106
0003e0 7f 4a 31 be 79 0c 6b bd 87 c7 24 be 5b 19 ba 3c
       -0.17313574 -0.05738494 -0.16091739 0.022717169
0003f0 5e e2 82 be 8f b5 15 3e 76 97 d6 bd bd 17 1e bd
       -0.2556333 0.1462004 -0.10478108 -0.038596857

fc2.bias f4 [64]
000000 f6 f7 9f bd 54 d7 f5 3c 6c 3d bf 3d 2b 39 0d 3d
       -0.07810967 0.030009903 0.09337887 0.034478348
000010 ab cf e1 3d 71 92 28 be b4 1a 09 be 7e 91 2d 3e
       0.11025938 -0.16462113 -0.13389093 0.16950032
000020 af c1 6a 3e 44 eb c7 3e 0f 4c cd bd fb a9 64 3e
       0.22925447 0.3904668 -0.10024273 0.22330467
000030 f9 00 97 3e c1 0d 25 bd ed 4c 7f bd 46 7f a5 3c
       0.2949293 -0.04029632 -0.06232922 0.02020229
000040 86 72 ab 3c 78 aa 4c bd 42 fa e1 bd d2 83 e3 3d
       0.020928632 -0.04996726 -0.11034061 0.11109127
000050 fe 60 78 3e 88 2c e1 3e d8 4a 18 bd bd c5 ef bd
       0.2425575 0.43979287 -0.03718075 -0.117076375
000060 7e fd 8a 3d 89 4f e2 bd 3f 11 ee 3d 1d cd 3e bd
       0.06786631 -0.110503264 0.11624383 -0.04658233
000070 9a 58 c8 bd f7 23 f7 3c 8b f9 20 3d 2b 72 3a bd
       -0.097825244 0.030168517 0.039300483 -0.045519035
000080 53 be c7 bc 4c e5 7b 3d 98 46 42 3d 55 14 7c bc
       -0.024382746 0.06149797 0.047430605 -0.015385707
000090 b5 9f 10 be 8f e7 1c 3c 87 3a 5f 3d 52 53 96 3c
       -0.14123423 0.009576692 0.054499175 0.018350277
0000a0 d3 36 1d be 10 c8 ed 3e c6 05 73 3e 44 bb 9f bd
       -0.15352945 0.46441698 0.23732671 -0.0779939
0000b0 3c ec b8 3d 2d 54 52 be 38 03 87 3e 4a 55 a6 bd
       0.09029433 -0.20539923 0.26369643 -0.08121736
0000c0 91 35 3c 3d 3b 42 13 be 67 e7 c9 bd 4f 4b 92 3e
       0.045949522 -0.14380734 -0.098585896 0.2857308
0000d0 2a 4b 08 bd bb d3 f7 bc 4c af b1 3d 1d 4b 2d be
       -0.033274807 -0.030252328 0.08676013 -0.16923185
0000e0 f3 d5 17 be 04 36 22 be 04 34 5e bc 86 1b 6e bd
       -0.14827709 -0.15840918 -0.013562206 -0.058131717
0000f0 26 1c 97 3b 9b d4 42 3e 76 9d 2b 3d 14 a8 20 bd
       0.00461151 0.19026415 0.041898213 -0.03922279

fc3.weight f4 [4, 64]
000000 70 de 87 3e 8c 6a 3a 3e e2 d2 78 3d 74 64 ae 3d
       0.26536894 0.18204707 0.06074799 0.08515254
000010 9c cf f9 3e 33 19 a5 bd e5 cf c6 3d 07 63 ee bc
       0.48791206 -0.08061447 0.097076215 -0.029099954
000020 75 ee 04 3e 13 4c f5 3d a6 77 87 bd 46 42 ab 3e
       0.12981589 0.11977401 -0.06614618 0.33449
000030 85 6c b4 3d 8b f8 09 3d a9 cb 58 3d b1 13 3a 3b
       0.08809761 0.033684295 0.0529286 0.0028393085
000040 9e b9 12 3d 60 05 04 be 4e e8 b6 be 46 3e 1b 3e
       0.03582155 -0.12892675 -0.3572411 0.15160474
000050 95 ab 07 3e f7 93 47 3e 2f 63 0a 3e 15 70 50 be
       0.13249047 0.19490038 0.13514398 -0.20355256
000060 bd 74 1c 3e 99 92 57 bd 85 42 6b be 7a 52 13 bf
       0.15278907 -0.05263004 -0.22974594 -0.57547724
000070 9c e0 6b 3c 5f ae 03 3d 34 ed 11 be 0b 88 80 3e
       0.014396813 0.032148715 -0.14250642 0.25103793
000080 86 93 df be 56 48 a4 3e 7a 65 19 3e 73 c7 18 3f
       -0.4366724 0.32086438 0.14980116 0.59679335
000090 ca 59 df bd 78 e1 90 bd 34 21 68 3e 4e 67 d5 3d
       -0.10905798 -0.07074255 0.22668916 0.104200944
0000a0 a7 fd a2 bb a2 da 2b 3e b0 b0 0a 3e 83 97 ad 3e
       -0.0049740854 0.1678262 0.13543963 0.33904657
0000b0 79 f5 ac 3e 43 f7 53 be f5 a5 31 3e 94 0b e9 3e
       0.3378103 -0.20699792 0.17348464 0.45516646
0000c0 29 da 8c be 04 9a d5 3c cb 9f 53 3d be 2c 2c 3e
       -0.27510193 0.026074417 0.051666062 0.16813943
0000d0 0f 26 f8 bb 87 3f 1d be 03 81 ce 3d c2 f0 e5 bd
       -0.0075728963 -0.15356265 0.10083201 -0.112275615
0000e0 3b bc b4 be 7d ce 2b be 8d 82 bf bc ba f7 73 3e
       -0.35299858 -0.16777988 -0.023377681 0.23824969
0000f0 d5 52 a0 be b6 e2 6b 3e 1b e1 34 be 5e db fa 3d
       -0.31313196 0.23035702 -0.17663996 0.12248872
000100 4d b3 7c 3e 1b 0a 0d 3e ca f6 8e 3e bb 0b 85 bd
       0.24677773 0.13773386 0.2792266 -0.06496378
000110 b5 d8 89 3e 53 db a7 bd 6a 01 42 3d ff d0 2a 3e
       0.26923147 -0.0819613 0.04736463 0.16681288
000120 01 8c 82 3c 9e 1d df 3d 8f e7 51 be fc af 97 3e
       0.0159359 0.10894321 -0.20498489 0.29626453
000130 8c 91 30 3d 91 a2 91 bd a1 38 99 be 2b 84 a5 3d
       0.043107554 -0.07111085 -0.29926017 0.0808185
000140 1d 3a 44 be 00 5d af be 92 02 5c be 53 ca 3e 3e
       -0.19162793 -0.3425064 -0.21485355 0.18631868
000150 69 30 06 3e 39 67 5d 3e 73 fb 77 3e a7 41 08 bd
       0.13104405 0.21621408 0.24217014 -0.033265736
000160 c7 43 4c 3e 6c f6 27 be c9 33 09 be 71 3a 56 3d
       0.1994773 -0.16402596 -0.1339866 0.052301828
000170 bc fa 3b bd cc d8 41 bb 98 80 8d 3c 95 db 84 3e
       -0.045893416 -0.0029578684 0.017273232 0.25948778
000180 bc fe 83 3e 6a e9 9c 3e 90 63 81 3e ac fa 9b 3e
       0.25780284 0.3064683 0.25271273 0.30464685
000190 70 63 6f bd b8 ae 92 3c 8d 95 e0 3e 70 e0 b7 3d
       -0.05844444 0.017905578 0.43864098 0.08978355
0001a0 52 a6 d1 bc 3a 29 22 3e 6a 01 83 3d d2 dc 90 3e
       -0.025592003 0.15836039 0.06396754 0.28293473
0001b0 50 82 69 3e 42 b0 2b 3d 00 03 19 3e c8 74 97 3e
       0.22803617 0.04191614 0.1494255 0.29581285
0001c0 7f 96 00 be 85 cc b6 3d ac c4 cd bc 9b 11 27 3e
       -0.1255741 0.08925728 -0.025118195 0.1631531
0001d0 ba 7e b8 3c 01 88 83 be 8b 89 4a 3e 13 41 ec bd
       0.022521365 -0.256897 0.19779031 -0.115358494
0001e0 0a 39 5f bd 4f d6 2a be a4 7b 74 3e 8f fa 2b be
       -0.054497756 -0.16683315 0.2387529 -0.167948
0001f0 96 49 59 be 27 05 27 3e b8 bb a1 be 77 2f 83 3d
       -0.21219477 0.16310559 -0.3158853 0.064055376
000200 31 a4 81 be 44 cc bb 3d 7d 45 cd ba aa 25 b8 3e
       -0.2532058 0.0916982 -0.0015660968 0.35966235
000210 f3 95 c7 3e c4 ec 41 bd 49 9d e7 3d 79 6d 28 3e
       0.3898159 -0.047344938 0.11309297 0.1644801
000220 f0 b4 94 3d 4a e3 1f 3e 66 3c 22 be 5c ec 8b 3e
       0.072610736 0.15614048 -0.15843353 0.27328765
000230 65 bb 0e 3e 2c ae 83 be 19 02 6f 3d 2e 9a ce 3e
       0.13938673 -0.2571882 0.05835161 0.40352005
000240 9d 31 24 3e 65 3f 84 be 9f 97 d8 be e9 04 9c bc
       0.16034551 -0.25829616 -0.42303178 -0.01904531
000250 8b 05 7f 3d 4b 00 5f 3e ba 46 cd 3d df 8a 81 3d
       0.062261146 0.21777456 0.10023256 0.06325316
000260 90 65 49 3e 0b 8e ab be 7c 33 39 be e5 c6 1d be
       0.1966765 -0.33506808 -0.18086046 -0.15407903
000270 dd 56 af 3d fc e0 76 bb 6f 90 f3 3d 96 22 c3 3c
       0.0856149 -0.0037670722 0.11892783 0.023820203
000280 d2 3a ad be c4 6b 97 3e d4 59 cc 3e 26 ef e8 3e
       -0.3383394 0.29574406 0.39912283 0.45494956
000290 4e ab 52 3e f4 f1 39 bd 5b 83 c0 3d 77 39 bf 3d
       0.2057316 -0.04539676 0.09400054 0.093371324
0002a0 d5 c4 b4 3c 7f 89 20 3e 07 b2 71 3e 4d 2f db 3e
       0.022066513 0.1567745 0.23603068 0.42809525
0002b0 f7 7c 54 bd 8f b7 c3 be fd 34 19 3e 85 db 90 3e
       -0.05187699 -0.38225982 0.1496162 0.2829248
0002c0 b4 20 14 3e 78 5b 11 3e 86 40 44 3e c1 7b 98 3e
       0.144656 0.14195049 0.19165239 0.29781917
0002d0 c5 89 19 be 19 73 ab be d0 60 68 3e 28 ee b0 bb
       -0.14993961 -0.3348625 0.22693181 -0.005399484
0002e0 ff 46 7a bd 04 f0 20 3e 38 9a d1 be 45 70 7b be
       -0.061102863 0.15716559 -0.40937972 -0.24554546
0002f0 72 39 24 be 06 ea 2e 3e 40 16 ba be 94 ef 0b bb
       -0.16037539 0.1708146 -0.363451 -0.0021352516
000300 09 bb ab 3d e8 bc 13 3e 62 c1 9a 3e 2c 81 b8 be
       0.083852835 0.14427531 0.30225664 -0.3603605
000310 d6 da 94 3e 45 ee df 3e b4 41 52 bd 33 1f bf 3d
       0.2907321 0.43736473 -0.05133219 0.09332123
000320 0b 2a db 3d e8 38 33 3e e8 f3 3b bd bd 6b fa 3d
       0.107013784 0.17502177 -0.045886904 0.12227581
000330 75 d0 3b 3e da 44 58 3e 56 42 c3 3d 3b 1e 9f 3d
       0.18341239 0.21120015 0.09534137 0.07769438
000340 ed 92 dc 3e 24 d3 07 3d 14 39 05 3e 0f e0 03 3e
       0.43080845 0.033160344 0.13010055 0.1287844
000350 86 7e 4c 3d 03 a2 4d 3e 1f 1b 23 3e 55 d7 02 3e
       0.04992535 0.20081334 0.15928315 0.12777455
000360 ba b2 48 3e 1a d6 20 be 1a 61 3e be 2e 36 8b 3d
       0.19599429 -0.15706673 -0.18591729 0.06797443
000370 16 f6 cb 3d 70 1c 99 be 34 38 89 3d e9 93 a2 3e
       0.099590465 -0.2990451 0.06700173 0.31753471
000380 bf b7 fc be fc 4d b7 3e a8 f3 76 bd 38 cf 2d 3f
       -0.49358937 0.35801685 -0.060290962 0.67894316
000390 69 d9 ab bd dc b1 17 3e e0 f1 df 3e 28 14 36 3e
       -0.08391077 0.14813942 0.43739223 0.17781126
0003a0 f3 35 6b be 8a 73 6c 3e 40 64 0f 3e 21 42 f5 3c
       -0.22969799 0.2309095 0.14003086 0.02993876
0003b0 a7 d9 07 3d a9 57 34 bd dd cc f7 3d 9c 37 47 3c
       0.033166554 -0.04402891 0.120996214 0.012159254
0003c0 1d 36 9b 39 8a 8a 20 bf 2b 11 de 3e c0 ee 8b 3e
       0.0002960422 -0.62711394 0.43372473 0.2733059
0003d0 ff 13 02 bf 04 8b b2 be 37 13 f1 3d b4 8a 66 3d
       -0.5081176 -0.34871686 0.11771243 0.05628462
0003e0 58 98 88 be 44 3a f3 be da 0a 36 be 47 1f 0f bf
       -0.2667873 -0.4750539 -0.17777577 -0.559071
0003f0 3e 4a 1f bf fc 36 3e bc 17 94 ff bd 00 e0 55 3e
       -0.6222266 -0.011609789 -0.12479418 0.2088623

fc3.bias f4 [4]
000000 84 68 81 3e 6c e9 8f 3e 44 7e 2d 3e f3 04 15 3e
       0.25275052 0.28107774 0.16942698 0.14552669
