p1_navigation/src/checkpoint.pth (torch_old, 28451 bytes, 6 tensors)

fc1.weight f4 [64, 37]
000000 34 d4 cb bd 32 a9 7c bd b0 32 a6 bd 87 8f 9b be
       -0.09952584 -0.061684795 -0.081151366 -0.3038294
000010 60 8f 24 3d 4a 96 6e 3e 59 d8 43 3e 1d ac 85 be
       0.040175796 0.23299518 0.19125499 -0.26107875
000020 b4 27 33 be 61 41 e4 bd d5 7a 38 3c 47 1d a1 be
       -0.17495614 -0.111452825 0.011259754 -0.3146765
000030 f9 74 7e bd 0d 68 bf be cb e5 e4 be 7a d6 59 be
       -0.062123273 -0.37384072 -0.44706568 -0.21273223
000040 00 70 3a 3e 23 8a d9 bd 82 84 a8 be 4c bd 4b be
       0.18206787 -0.106220506 -0.32913595 -0.1989643
000050 7e e1 1c 3c b8 35 3d 3d 66 70 18 3d 32 a9 36 3d
       0.009575246 0.04619381 0.037216567 0.04459495
000060 6e b0 0b bf 81 4c f0 bd c6 2f 61 bd 08 02 e8 3d
       -0.54566085 -0.11733342 -0.0549772 0.113285124
000070 8f 4e 83 be c5 d7 9c be 95 eb 05 3e 77 b4 33 be
       -0.25645873 -0.3063337 0.13078149 -0.1754931
000080 05 a2 ad 3d 97 bd c7 be 9d ec 6f be 3f 4c a6 be
       0.084781684 -0.39011833 -0.23430105 -0.32480046
000090 f7 ea ca bd da e1 66 bd 95 10 75 bd 82 4b 03 be
       -0.09908097 -0.056367733 -0.059830267 -0.12821773
0000a0 ba 98 e5 3d fc 28 17 bf d0 01 b2 3d 1f 01 ee be
       0.11210771 -0.5904691 0.08691752 -0.4648523
0000b0 ad 9a cb be e8 e2 d3 be dc 36 83 be e4 8e 90 be
       -0.39766446 -0.41384053 -0.25627792 -0.28234017
0000c0 78 34 40 3c 9f c5 d6 3d 4f 6b 76 bd 46 d5 54 be
       0.0117312595 0.10486912 -0.06016093 -0.20784482
0000d0 60 05 ca 3d f0 fc a8 be 43 4f 38 be ef ca 93 3d
       0.098643064 -0.33005476 -0.17998986 0.07216441
0000e0 d7 18 0a 3e 0a 08 48 be 53 61 65 be 46 47 26 be
       0.13486038 -0.19534317 -0.22400407 -0.16238126
0000f0 39 31 66 bd df 6c 3b 3e 59 3a 54 be ef cd ce be
       -0.056199286 0.1830325 -0.20725383 -0.4039149
000100 ff 58 1f 3e 81 71 08 be 93 f7 14 3f da 25 ee 3d
       0.15561293 -0.13324548 0.5819027 0.11628313
000110 84 32 dd be ea fe fb 3d 00 ee cb bd 43 83 8a 3e
       -0.43202603 0.123044804 -0.09957504 0.2705327
000120 bc 32 59 3d 17 68 0c bd c9 8b 25 bd 99 f5 59 3d
       0.0530269 -0.034278955 -0.040416513 0.053212736
000130 bc fd 90 3d 38 60 33 3e 11 6b 90 bd a9 24 64 bf
       0.07079646 0.17517173 -0.07051671 -0.8911844
000140 6a 86 82 3e 85 f5 83 3e 6b c4 96 be 2c 47 e6 be
       0.25493175 0.25773254 -0.2944673 -0.44976175
000150 2a 9f f8 3d 5a f5 07 be e6 96 35 be da db 7b bd
       0.12139733 -0.13277188 -0.17733344 -0.061488964
000160 37 70 d2 bd 4c 24 54 be 6b 74 25 3e e4 e9 0e 3d
       -0.102753095 -0.20716971 0.16157691 0.034891024
000170 34 ab c1 be 42 73 a7 bd 9d c4 bb be 22 79 39 be
       -0.3782593 -0.081762806 -0.36673442 -0.18112615
000180 e9 61 40 3c 5b df e3 bc 5c 50 12 bd 81 13 3d bf
       0.011742094 -0.027816465 -0.035721168 -0.73857886
000190 f6 f3 c4 3e bd 2b 4b 3e 7a cf 8b bb dc 7d f3 be
       0.38467377 0.19840904 -0.0042666765 -0.4755696
0001a0 c6 da 65 bf 5e 97 30 3e 8d 43 3b be 21 8d 7a bd
       -0.89786947 0.17245242 -0.18287487 -0.061169747
0001b0 22 07 95 be 8b f0 31 bd 5c fa 08 3d 16 2b 12 3e
       -0.29107004 -0.04344229 0.033441886 0.14274248
0001c0 62 9e 97 bc 96 6e cc 3b 04 42 b4 bc 6e 30 16 be
       -0.01850814 0.006238769 -0.022004135 -0.14666912
0001d0 56 16 05 be af 76 0b bf 30 e5 a0 3e a4 ee 65 be
       -0.12996802 -0.5447797 0.31424856 -0.22454315
0001e0 df ef 28 bf 67 85 55 3d 99 b3 27 be 18 34 eb bc
       -0.65991014 0.052129176 -0.16377105 -0.028711364
0001f0 9b 40 ad bd 81 8b 5b 3e 89 cf 3d be 99 60 03 3e
       -0.08459588 0.21439935 -0.185362 0.12829818
000200 a0 0f 15 be b2 54 0a be a2 69 c8 be 47 7f 55 3e
       -0.14556742 -0.13508871 -0.3914309 0.20849334
000210 73 84 4f 3b 75 c3 07 bf 5b 8e 07 be f3 8d 39 3e
       0.003166464 -0.5303262 -0.13237898 0.18120556
000220 c5 10 a8 be c4 85 a9 bd 01 ea 87 3e b3 38 9f bd
       -0.32825294 -0.08277467 0.26545718 -0.077744864
000230 d7 2e ea be 4f 71 df bd b6 f8 86 3e ca b2 c0 bc
       -0.4573886 -0.10910284 0.26361626 -0.023522753
000240 e3 02 12 3e 93 9c f5 be c9 a4 94 3e f1 46 e4 3b
       0.14258914 -0.4797102 0.2903197 0.0069664647
000250 0a 72 91 bd 66 6b c9 be f4 b4 de 3b b7 26 9e bd
       -0.07101829 -0.3933975 0.0067964736 -0.07722228
000260 84 a4 bf 3d 8e 47 fb be 77 3d d9 3e 76 85 6b 3e
       0.09357551 -0.4907803 0.42429706 0.2300013
000270 3c 39 83 be 0d 42 7e be 3a ed 0b bf 96 c6 47 3c
       -0.25629604 -0.24829884 -0.54658854 0.012193343
000280 ff ef 7d 3d 02 a9 bf be 51 0b 1e bf 1d 79 de bd
       0.061996456 -0.3743363 -0.6173602 -0.10862944
000290 76 cf 85 bc 5f 7d 9c be f3 d7 9c 3e 27 7b 02 bc
       -0.016334277 -0.305644 0.30633506 -0.007963932
0002a0 62 22 58 3d 65 c8 35 3e 39 fb 48 be 41 dd 8a be
       0.052767165 0.17752226 -0.19627084 -0.27121928
0002b0 b1 42 36 3d d2 33 c6 3d 4d 39 2e 3e bc 65 2c be
       0.044497196 0.09677853 0.17014046 -0.16835684
0002c0 30 d1 65 be d3 94 db be 15 91 f4 3c d8 ce 25 3c
       -0.2244308 -0.4288698 0.029854337 0.010120116
0002d0 e0 31 de 3d 49 ec 4c bf df 9e 8a bd e4 4b 61 bd
       0.10849357 -0.8004804 -0.067685835 -0.055004016
0002e0 55 6f 6a bd 6c 01 8e bd 7e 51 bc 3c c7 7f 15 be
       -0.05723508 -0.06933865 0.022988077 -0.14599524
0002f0 3c 52 3c bf 08 cb bf 3d 15 1c a9 3e f8 6f 28 be
       -0.7356298 0.09364897 0.33029237 -0.16448963
000300 0f e1 5c be b8 b3 23 bf 78 c5 b4 bf f6 07 e0 bd
       -0.21570228 -0.63946104 -1.4122763 -0.109390184
000310 5a 10 37 bd 1f 3a 1a bf f2 11 76 be ab 16 c2 3d
       -0.04469333 -0.60244936 -0.24030283 0.0947698
000320 fb 63 e2 bd 19 fb bf bd 97 6f d8 be f0 f1 7f 3c
       -0.11054226 -0.09374065 -0.42272636 0.015621647
000330 f2 38 36 bf 9b b1 f6 3d 97 e3 f2 be 2f 42 24 3e
       -0.7118064 0.12045594 -0.47439262 0.16040872
000340 40 da e0 be 3b 45 97 bd 5f a4 dd bd f8 4b 07 bf
       -0.43916512 -0.073862515 -0.10822367 -0.52850294
000350 9a 68 c2 bd 01 1c ad bd b3 0f 8a 3d f9 7d af be
       -0.094926074 -0.08452607 0.06741276 -0.34275797
000360 12 65 e1 be 00 a5 13 3e 55 88 23 3d e0 83 17 bd
       -0.44022423 0.14418411 0.03992494 -0.036991
000370 f0 b1 87 bd 77 52 80 3d bf da 0d bf bd c2 ad be
       -0.06625736 0.06265729 -0.55411905 -0.33937636
000380 73 0a 78 be 9c 70 cb bd 07 5c df be 45 09 35 bf
       -0.24222736 -0.09933588 -0.436249 -0.7071727
000390 4a 63 17 bf 8f 6d f3 3c 40 1d 52 be ef 0f 20 3e
       -0.5913588 0.029715328 -0.2051897 0.15631078
0003a0 50 2a 7e be a4 80 31 bd 8e 1e c3 be f3 76 e2 bd
       -0.24820828 -0.043335572 -0.3810925 -0.11057844
0003b0 38 74 60 3e 20 31 d7 be 17 85 ec be 1d 99 f5 3d
       0.21919334 -0.42029667 -0.4619529 0.11992095
0003c0 5f 40 a8 be 85 04 bc 3e 5b ce 5e bd 98 9e 10 bf
       -0.3286161 0.36722198 -0.054396015 -0.56491995
0003d0 7b 79 da be 17 62 ba be c8 c2 5f be 9f 36 e3 be
       -0.42670807 -0.36402962 -0.21851647 -0.4437761
0003e0 7f 19 28 bf 62 4a 96 3d d9 9c dc be 5d 9b bb 3e
       -0.65663904 0.07338406 -0.43088415 0.3664197
0003f0 d3 f5 01 be 79 f4 32 be be 6e a1 be 2f e7 c1 be
       -0.12691431 -0.17476071 -0.31529802 -0.37871692

fc1.bias f4 [64]
000000 88 9a 12 3e a7 36 e6 bd 77 30 33 be 06 12 16 be
       0.14316761 -0.11240893 -0.17498957 -0.14655313
000010 0c 58 5e 3e ef b7 b3 bd 83 db 96 be 59 e8 ef 3c
       0.21713275 -0.08775317 -0.2946435 0.029285597
000020 c9 b9 5e bd bc 3c aa be 92 d8 3f 3d 2d 4b 59 3e
       -0.054376397 -0.33249462 0.046837397 0.21220084
000030 75 5c 61 3e 80 f4 b5 3e 5c c8 03 be 8f 55 27 be
       0.22007926 0.355381 -0.128694 -0.16341232
000040 04 be af 3b 55 a0 68 3d 0c dc af 3b db 23 66 be
       0.005363228 0.05679353 0.005366808 -0.22474615
000050 5d 16 84 bc 15 34 04 be 1b a8 6d bd 68 bc 92 bd
       -0.016123945 -0.12910493 -0.058021646 -0.07164842
000060 c3 50 1b be fa fb 4c bd 01 87 f8 bd 38 aa 88 be
       -0.15167527 -0.05004499 -0.12135125 -0.26692367
000070 c0 50 11 3e 8b 8c f3 3d 1b b4 06 be 12 b7 b5 bd
       0.1419096 0.11892041 -0.13154642 -0.088728085
000080 72 a4 0b be 41 ba 74 3c 08 f6 35 be f5 f7 fd 3d
       -0.1363695 0.0149369845 -0.17769635 0.1240081
000090 a8 bb 35 bd d0 4e 5b 3c a8 98 61 3d f0 0c 56 be
       -0.044368416 0.01338549 0.055077225 -0.20903373
0000a0 6d f2 c1 bd 70 bd b3 bd 4f 4c 92 be f9 46 db 3d
       -0.09470067 -0.08776367 -0.28573844 0.10706896
0000b0 82 1b 7d 3e d5 3f 5c bd 2c 40 28 be 5b 96 d9 bd
       0.24717525 -0.053771812 -0.1643073 -0.10624381
0000c0 a3 ec 9c bd d5 c6 07 3e 90 28 89 be 1a 44 29 bb
       -0.07662322 0.13259442 -0.2678876 -0.0025827945
0000d0 04 1a 41 bd f4 d4 26 bd 42 1b df be 72 35 0d be
       -0.04714395 -0.04073043 -0.43575484 -0.13789919
0000e0 bb cd 00 3e 44 6d 0a be 75 fb c8 3c 9a f0 ae bd
       0.1257848 -0.13518244 0.024533967 -0.08541985
0000f0 2c ce d1 3b af 90 8c bd 17 d5 89 3c 04 8f fe bb
       0.0064027514 -0.06863534 0.016825242 -0.0077685136

fc2.weight f4 [64, 64]
000000 32 19 57 3e a7 4b 2d 3e 5e e9 08 be d9 01 0a be
       0.21005705 0.1692339 -0.13370273 -0.13477267
000010 37 a2 7d bd 20 f2 8d 3c 92 ef e5 bc 75 0c b3 3d
       -0.06192228 0.017327368 -0.028068338 0.0874261
000020 eb 21 8f 3d 5c a5 7f bd 6d b5 81 3e 3f b4 c3 be
       0.06988891 -0.06241356 0.2533373 -0.38223454
000030 28 da ed bd 5d ec ef 3b f6 94 fc bd 95 4a 21 be
       -0.11613876 0.007321878 -0.123330995 -0.15751107
000040 94 c4 2c be 44 bb 33 be 9e 7a 32 be d6 e9 96 3e
       -0.16871864 -0.17551905 -0.17429587 0.29475278
000050 48 3d 37 be 98 61 94 bd 37 f8 16 be 27 2f d5 be
       -0.1789447 -0.07245177 -0.14743124 -0.41637537
000060 ea fb 23 be 9c f8 af 3d c8 1a 47 be 0e c8 03 3e
       -0.16014066 0.0859234 -0.1944381 0.12869284
000070 7a e4 8d bc ee d1 b8 be 7a 6e 90 be 13 6b ff 3d
       -0.01732086 -0.36097664 -0.28209287 0.12471595
000080 86 36 38 3e c9 46 6e 3f de 12 91 3d 3f 13 23 bf
       0.17989549 0.9307676 0.07083677 -0.6370124
000090 84 df 2c bd 48 be 01 3e d9 0b 1c bd 0a 33 08 3e
       -0.04220535 0.12670243 -0.038097236 0.1330072
0000a0 6c 82 d2 be 40 f7 98 bd 98 41 89 3d 11 c4 80 bd
       -0.4111513 -0.07469034 0.06701964 -0.06287397
0000b0 5c 9d e1 3b 83 a7 05 be 56 f9 7d bd c8 e2 17 bf
       0.006885214 -0.13052182 -0.062005363 -0.59330416
0000c0 a2 a3 1a 3e 89 13 90 bc 9d c4 13 be 11 3d c0 bd
       0.15101483 -0.01758744 -0.14430471 -0.093866475
0000d0 12 2d 40 3d a7 fc 19 bf e4 61 39 3d e7 ee 30 bd
       0.046917982 -0.6015114 0.04525937 -0.043196585
0000e0 7e c9 98 be 43 39 d3 bc 72 54 9f 3c f0 d0 90 3e
       -0.29841226 -0.02578414 0.019449446 0.28284407
0000f0 89 0a 63 3d ca c3 27 3e 77 89 4c 3e d0 b4 2c 3b
       0.05542997 0.16383281 0.19974314 0.002635289
000100 ce df 5e be eb a3 94 3d 96 ef fb be b8 8f 8d bd
       -0.21765062 0.07257827 -0.49206227 -0.06912178
000110 7d 09 9c 3c 14 60 d3 3d 24 4a 91 3e a6 eb 10 be
       0.019047493 0.1032106 0.28376877 -0.14152393
000120 57 d1 1a 3e 4c af c4 3e 32 ec 17 3a 21 fd e3 3e
       0.1511892 0.3841499 0.0005795389 0.4452906
000130 95 5d ae be a2 2f 9e 3c 40 f3 32 be 7a bc ed 3d
       -0.34055772 0.019309822 -0.17475605 0.11608215
000140 35 a5 34 bd b3 7e 5d be a5 47 9a bc dc d9 b9 bd
       -0.044102866 -0.21630363 -0.01883299 -0.090747565
000150 60 80 b7 3e 6a 69 b1 3e 74 e1 e5 3d 2a 60 97 3d
       0.3584013 0.34650737 0.112246424 0.07391389
000160 fe bf 39 be a5 76 04 bd ce 42 11 3e c6 3c 3e be
       -0.18139645 -0.03233971 0.1418564 -0.1857787
000170 2e b9 0d 3d 7f 1c a0 3e d6 3c c0 3d 51 40 46 3e
       0.03460043 0.3127174 0.093866035 0.19360472
000180 fa 6c 79 be eb 7e 84 bd ee 9f 9d bb c4 31 ae bd
       -0.24357978 -0.0646952 -0.004810325 -0.08505586
000190 40 1e d6 bc 24 44 ba 3d 1a 54 1d be 2b 5b 99 be
       -0.026137471 0.09095028 -0.15364113 -0.29952368
0001a0 19 37 eb be 8f 7b 00 3e e5 a5 ce 3d 4c d0 37 bd
       -0.45940474 0.12547134 0.100902356 -0.04487638
0001b0 c8 7b 48 be 55 46 20 3a a8 57 5a bd 26 f6 8c be
       -0.19578469 0.0006113996 -0.05330625 -0.27531546
0001c0 48 3c f3 3d fd ae 60 3e 36 01 e1 bd 5e f0 88 bc
       0.11876732 0.21941753 -0.10986559 -0.016716179
0001d0 85 c6 10 3d 73 a4 2c be 68 b6 ec bd 8b e6 20 be
       0.035345573 -0.16859607 -0.11558229 -0.15712945
0001e0 b0 f4 1d 3e 12 a7 c5 be 84 19 e0 3e 85 1d 17 3e
       0.15425372 -0.38604027 0.43769467 0.14757355
0001f0 b8 c0 1e be 4f a3 92 3d d7 a5 3b 3e 47 7f b3 bd
       -0.15503204 0.07160055 0.18324982 -0.087645106
000200 02 a2 e1 3d c3 be 3f 3d 18 37 08 be ae a0 f6 bd
       0.11017229 0.046812784 -0.13302267 -0.12042366
000210 00 32 33 3e 20 8d a2 bd 8d 01 d6 3e b9 b4 1e 3e
       0.17499542 -0.07937074 0.41798058 0.15498628
000220 71 57 83 be 6d ea b0 bb 81 95 eb 3c db 25 9a be
       -0.2565265 -0.0053990395 0.028757812 -0.30107006
000230 0f 67 ad 3d 5e b8 15 3d b3 6d 83 be 74 32 39 3d
       0.084669225 0.03655278 -0.2566963 0.04521413
000240 a9 64 df 3c 2c 2c 71 3e 58 6a 38 3d 56 d1 ba 3e
       0.027269678 0.23552006 0.045023292 0.36487836
000250 86 10 b1 be 53 5b a2 3a 37 03 f8 bc 0f 51 a1 be
       -0.3458292 0.0012386836 -0.03027497 -0.31507155
000260 15 c2 d4 3d b5 d4 23 3e f2 e6 59 bd af 00 af bc
       0.10388581 0.1599911 -0.053198762 -0.02136263
000270 37 8c 97 bd 23 06 fa be a5 d4 58 3e f4 f7 0c 3e
       -0.07399791 -0.48832807 0.21174867 0.13766462
000280 99 7c b9 be cb a5 d3 3d 75 93 5a be e2 1b 52 be
       -0.36227873 0.10334357 -0.21345313 -0.20518449
000290 90 82 39 3b 78 6f bf 3c 9f f3 12 3e cc 7d 67 bc
       0.002830658 0.023368582 0.14350747 -0.014129113
0002a0 91 8b 80 3e 16 5d ad 3d d6 44 d8 3c f9 5e c9 3c
       0.2510648 0.0846502 0.026400011 0.02458142
0002b0 22 f9 e8 bd 8e 48 9a 3d 1c ae ca bd 45 a5 d7 bd
       -0.11375643 0.0753337 -0.0989649 -0.105295695
0002c0 dd 79 3d be 3a 79 1d bd e5 f0 12 be dc c2 40 be
       -0.18503518 -0.03844569 -0.14349706 -0.18824333
0002d0 57 cd 8f bd 4b 2a 13 3f dc 04 06 3d 4c 9a 19 bd
       -0.07021587 0.5748641 0.032719478 -0.037500665
0002e0 0c 17 1b be 33 71 4f be ea ec df be 47 2c 38 be
       -0.1514551 -0.20258026 -0.4373544 -0.1798564
0002f0 ae bc a2 3d 10 f8 cc 3d 73 2b 12 3e b4 91 3b be
       0.07946144 0.10008252 0.14274387 -0.183173
000300 f5 07 d1 3d 73 d1 d5 3c c6 97 49 3e 7b 95 15 be
       0.10206596 0.02610085 0.19686803 -0.14607804
000310 bd 49 42 3e 20 43 f4 be da 54 88 be cb 44 14 bf
       0.18973441 -0.47707462 -0.26627237 -0.5791747
000320 52 00 01 bf 55 1f 02 3f 27 8b c3 3d 04 8a 2d 3d
       -0.50391114 0.5082906 0.095480256 0.04236795
000330 03 79 d6 bd 6a d7 e1 bd 84 5e 32 3e 88 d6 34 3d
       -0.104723 -0.11027415 0.17418867 0.044149905
000340 42 42 59 3d 80 f4 86 3d b5 85 d7 bd 28 e6 f4 bd
       0.053041704 0.065896034 -0.105235495 -0.11957961
000350 b7 6b c4 3d 8b 75 c7 be be 6c bd bd 10 ac 80 be
       0.095908575 -0.38956866 -0.092492566 -0.25131273
000360 55 71 87 bd 61 ac 9f 3e 2c 32 b2 3d 4e 6e 4a 3e
       -0.06613413 0.31186202 0.08700976 0.1976864
000370 a2 9b a9 3d 8a 61 e9 be bc 94 65 be b6 a8 e7 bd
       0.08281638 -0.4558223 -0.22420019 -0.11311476
000380 ff e4 ab bd f4 3e b6 bd 62 96 9c 3e 24 b3 64 bd
       -0.08393287 -0.08898726 0.30583483 -0.055834904
000390 f6 dc 63 be fd 74 7a be 88 21 c6 3d 95 a7 74 be
       -0.22252259 -0.2445869 0.09674364 -0.23892052
0003a0 27 c6 ee 3c 21 8d 83 3d c4 cb e8 bc d6 3e 40 3c
       0.02914722 0.064234026 -0.028417476 0.011733731
0003b0 7d 86 ee bd 4e c0 cf be cf bd b1 3e 3b b1 2e be
       -0.11646745 -0.40576404 0.34715125 -0.17059796
0003c0 c2 9d 6b be e1 de 8c be 08 f7 9a be bb a5 d8 be
       -0.23009399 -0.27513793 -0.30266595 -0.42313942
0003d0 a9 d1 6e 3e a6 17 de bd 9f 4d 7d 3e a1 af 8d be
       0.23322167 -0.10844354 0.24736641 -0.27673057
0003e0 a8 2a 93 3e a7 17 e9 3a 44 c9 30 be 30 06 30 bf
       0.28743482 0.0017783538 -0.17264277 -0.6875944
0003f0 b3 0d 1d 3c 64 fc ca 3e 9e 5c fe 3e e5 84 90 3e
       0.009585786 0.39645684 0.49680036 0.2822639

fc2.bias f4 [64]
000000 47 e2 41 be 9f 32 83 3d 17 a9 5c 3e 6c e7 5c 3c
       -0.18933974 0.064061396 0.21548878 0.01348291
000010 c2 15 b9 3e 28 84 c9 be 08 19 6d 3d dd ac 3e 3d
       0.36149412 -0.3935864 0.0578852 0.046551574
000020 13 19 14 3f 16 98 40 3f 26 3f 0f be 5c 98 9d 3d
       0.5785076 0.75232065 -0.13988933 0.07695076
000030 6a b6 a7 3e ce a3 64 bd a3 27 ba bd f6 8c 29 3e
       0.32756358 -0.05582028 -0.09089591 0.16557679
000040 42 48 36 3e a0 66 09 be 03 2f 87 be 3f 11 a1 3e
       0.17801002 -0.13418055 -0.26403055 0.3145847
000050 66 7a 0f 3f 68 11 42 3f 96 24 f6 bd 86 24 4f be
       0.5604614 0.7580781 -0.12018697 -0.20228776
000060 fd dc 40 be f7 79 18 bd 6e e7 21 3d bf 55 d7 bd
       -0.188343 -0.03722569 0.03952735 -0.10514402
000070 26 5d 9d bc 19 19 0a be 6a 29 89 3d f0 70 f4 3d
       -0.019209456 -0.13486136 0.06697352 0.119356036
000080 a3 7f d4 3d df 3e 24 3e 9d bf 0e 3d 8b eb b2 bd
       0.10375907 0.16039608 0.034850705 -0.087363325
000090 1e 2d 89 3d 99 96 34 be 43 4a 01 be f0 ee 85 3d
       0.066980585 -0.17635573 -0.12625985 0.06539714
0000a0 25 d5 a7 bd 6a bb 58 3f 3b d0 33 3f 3c f4 c0 bc
       -0.08194951 0.8466097 0.7023961 -0.02355396
0000b0 99 8a b2 3d 4f c6 15 be 2f d0 25 3f 82 aa 42 bd
       0.08717842 -0.1462643 0.6477079 -0.04752589
0000c0 18 4f 3c 3e 4e e8 d5 3d 0e 52 73 bd 97 92 48 3f
       0.18389547 0.10444699 -0.059404425 0.7834868
0000d0 80 a0 46 3e 46 15 8a be d6 ad cf 3e 89 4d 78 be
       0.19397163 -0.26969355 0.40562314 -0.24248327
0000e0 79 c0 ac be 27 36 2e be fc d7 fa bc 60 8b ef 3c
       -0.33740595 -0.17012845 -0.030620568 0.029241264
0000f0 9b a1 be 3d 6f 7e 43 3e 6d 08 91 3d 82 e5 7b be
       0.093081675 0.190912 0.07081685 -0.24599269

fc3.weight f4 [4, 64]
000000 1b cf 35 3f b5 c5 87 3e 5f bc 73 3e 88 42 29 3e
       0.7101914 0.26518026 0.23802327 0.16529286
000010 b8 2b 4d 3e 49 9f 32 be 7e f2 8a 3e 57 f8 82 be
       0.20036209 -0.17443575 0.27138132 -0.25580093
000020 17 78 3d 3e ba cc 5e 3e 15 7b 08 be 21 cd fc bd
       0.18502842 0.21757784 -0.13328202 -0.12343813
000030 64 cc 71 3d 79 e7 f7 3e df 81 1a be 32 64 29 bd
       0.059032813 0.48418787 -0.15088604 -0.04135532
000040 73 44 9d 3e bf 5d c4 3d c7 42 bc be 31 a3 15 3e
       0.30716285 0.09588193 -0.36769697 0.14613034
000050 0b a8 23 3e 18 e1 90 3e d0 5c a0 3d 52 53 af bd
       0.15982072 0.28296733 0.078302026 -0.08560814
000060 2d 56 f3 3d e0 7b 7d be 8b 57 f7 bd 0d c3 04 be
       0.11881671 -0.24754286 -0.12077244 -0.12965031
000070 eb 54 6d 3e 14 76 31 be d7 75 51 bf 51 44 81 3d
       0.23176925 -0.173302 -0.81820434 0.063118584
000080 21 2a bc 3e 52 7a 93 3e 8a 0f 81 3d 94 21 52 3c
       0.36750892 0.2880426 0.06301792 0.012825388
000090 48 dc 8c 3e 4a c6 de 3b eb d7 2d be 17 14 54 3e
       0.2751181 0.0067985402 -0.16976897 0.20710789
0000a0 68 4c 0a bf 7b 45 77 3e 83 d2 4f 3e 51 3f 57 bf
       -0.54022837 0.24147598 0.20295148 -0.8408099
0000b0 fe 9f 86 3e ff 97 44 3d f1 5f 8d 3e e7 a3 01 3f
       0.2629394 0.047996517 0.2761226 0.5064072
0000c0 2a 8d 45 3e 1c ce 37 3e 21 d3 f2 3e 91 02 5d 3e
       0.19292131 0.17949718 0.47426704 0.2158301
0000d0 87 c1 d0 3d 95 30 36 be d7 ab 3c 3e 98 7d 44 bd
       0.101931624 -0.1779197 0.18424927 -0.047971338
0000e0 80 03 ea bd 14 f5 cf bd 9a 38 a1 3b b2 73 1b 3d
       -0.11426449 -0.10154167 0.0049200775 0.037952133
0000f0 e3 22 99 be 39 ef 40 3d f1 87 26 3e a6 7a 37 be
       -0.2990943 0.04710314 0.16262795 -0.1791788
000100 dc d8 20 3f bc 94 6e 3e 3c 4b 6a 3e 4a 7b 82 bd
       0.628309 0.23298925 0.22880262 -0.06371172
000110 ce cd 0d 3e a5 dc 98 be 6b 85 94 3e b1 84 f7 bd
       0.1384804 -0.29855838 0.2900804 -0.12085856
000120 a9 ff 3f 3e d8 2c 73 3e 2d 9e 0b be 1f 11 13 be
       0.1874987 0.23747575 -0.13634558 -0.14362
000130 8d ff f7 3c bc 85 7c 3e 10 53 90 3c c9 61 f9 3c
       0.030273223 0.2466039 0.017617732 0.030442135
000140 0a 3a b3 3e 70 26 11 3d 3f 4b 37 be 89 d4 8d 3d
       0.35005218 0.035437047 -0.17899798 0.069253035
000150 4c 84 4b 3e 3d 67 9e 3e 05 00 d5 3d e4 83 f5 bd
       0.19874686 0.3093814 0.10400394 -0.11988047
000160 33 62 57 3e 45 6f 7a bd 99 5b 1c bd 2b 63 02 bf
       0.21033554 -0.06114127 -0.03817329 -0.5093257
000170 ac df 77 3e 41 01 11 be 83 22 9c bc 13 48 00 3e
       0.24206418 -0.14160635 -0.019059425 0.12527494
000180 9f ba c3 3e 0d 2c 26 3f 29 99 c7 bd 02 3d 9f bd
       0.38228318 0.64910966 -0.0974601 -0.07775308
000190 65 76 86 3e 4a a4 c1 bd b4 9e 03 bd 19 da b9 3e
       0.26262203 -0.09455164 -0.032133773 0.36299208
0001a0 0b 64 ad be e0 ea 92 3e 63 21 31 3e 51 15 f0 bc
       -0.3386539 0.2869482 0.17297892 -0.02930704
0001b0 65 76 31 3e 70 bd d9 bd 16 4d 81 3e 8b a6 df 3e
       0.1733032 -0.106318355 0.25254124 0.4368175
0001c0 9e f5 90 3e f7 de da 3d b1 cd ee 3e e0 dc 23 3e
       0.2831239 0.106870584 0.46641305 0.16002226
0001d0 f5 60 d6 3d d6 01 16 bd 16 79 0a 3e f7 1a 5d 3e
       0.10467712 -0.036622845 0.13522753 0.21592318
0001e0 67 71 72 bd 67 82 17 3d d4 5c 6e bd aa f1 57 3e
       -0.05919018 0.036989596 -0.058193997 0.21088281
0001f0 9c 18 80 be 1b 8c 8a 3c 09 b3 c6 3c 44 d6 1c bd
       -0.25018775 0.01691251 0.024255292 -0.038290277
000200 f5 02 00 3f bb 5c c1 3e c3 38 09 3e 4c c6 9e 3e
       0.5000451 0.3776606 0.13400559 0.31010664
000210 c1 e6 84 3e 34 b2 0f be 1d be 78 3e 9d 7c aa be
       0.259573 -0.14032823 0.24291272 -0.33298197
000220 d4 54 37 3e 75 b9 4e 3e 1d d6 ef be b2 e8 45 3d
       0.17903453 0.20187934 -0.46843043 0.04831762
000230 a3 53 38 3e 34 9e c4 3e a5 16 b2 3d 2c 1e 4f 3e
       0.18000655 0.3840195 0.08695725 0.20226353
000240 1b a5 81 3e db d0 76 bd 1f 6c 28 be b2 db 2c bd
       0.25321278 -0.060257774 -0.16447495 -0.042201705
000250 6f 50 09 3e a3 18 ad 3e 21 f2 e7 3d 05 5f c3 3c
       0.13409589 0.3380786 0.11325479 0.02384902
000260 84 96 2b 3f a6 6b 94 be 9b 12 7f be 3b 5e 02 3d
       0.67026544 -0.2898838 -0.24909441 0.031828146
000270 9c ae bf 3e 17 6e 9c be 45 f9 74 be 65 37 a3 bc
       0.37437904 -0.30552742 -0.23923214 -0.019923875
000280 6b 83 29 3e 76 ee 9d 3d c8 44 2b bd 45 46 99 3d
       0.16554038 0.077114984 -0.04181364 0.07484106
000290 57 f1 24 be 8b 02 19 bf 1a 7f de bd 97 cd 0c 3d
       -0.16107689 -0.59769505 -0.108640864 0.034375753
0002a0 db d3 f7 3d e1 8d 88 3e 8a 50 68 3e d1 b0 fc bd
       0.12100955 0.26670745 0.22686973 -0.123384126
0002b0 51 9b 3e bc 1d 66 b3 bc 24 43 70 3e 40 b7 01 3f
       -0.01163371 -0.021899277 0.23463112 0.5067024
0002c0 2f 75 b8 3e c6 5a bc 3d 97 5c e6 3e 43 12 99 3e
       0.36026904 0.09197001 0.44992515 0.29896745
0002d0 85 c0 1b 3e 14 4b 1d 3e db 41 3c 3e 7c de af 3e
       0.15210159 0.15360671 0.18384497 0.3434943
0002e0 05 b8 6c be 8f 0b 86 3e 6d 66 67 3e 1c 84 fd 3c
       -0.23117073 0.26180694 0.22597666 0.030946784
0002f0 a5 50 d7 3e 0c 41 2c 3e 9a b3 b1 be f0 6a 00 be
       0.42053714 0.16821688 -0.34707338 -0.12540793
000300 dd dc 96 bb 3d 33 1b 3e ec 00 04 3e 74 01 a6 bc
       -0.0046039657 0.15156265 0.12890977 -0.020264365
000310 c0 ad 7b 3d 4e e0 77 be 6e 9a e5 3d b6 63 6c bd
       0.061444998 -0.24206659 0.11211096 -0.05771228
000320 b7 63 22 3e 46 6c 93 3e ca f8 a4 bd 3e 83 95 be
       0.1585835 0.28793544 -0.08055265 -0.29201692
000330 70 93 ee 3d 83 1f 44 3e 2b 45 49 3e 4b 17 00 3e
       0.11649215 0.19152646 0.19655292 0.12508886
000340 80 77 af 3e 7b a0 a0 3d 1c 21 2a 3e d0 61 41 3e
       0.3427086 0.07843109 0.16614193 0.18884969
000350 0b bd 05 3e 3c 1a b9 3e 38 91 a1 be 37 90 5b 3d
       0.13060395 0.36152828 -0.31556106 0.05360433
000360 b4 7b a6 3d b7 94 cc be 61 75 31 bf 6f d9 8c 3e
       0.08129063 -0.3995721 -0.6931973 0.2750964
000370 a9 60 1b 3f 48 c4 b8 3c 70 4e a8 be d1 ad 43 3e
       0.60694367 0.022554532 -0.32872343 0.19109274
000380 e1 c8 da 3e 5f fa 37 3f 11 fd 86 be 03 80 7e 3c
       0.42731383 0.7186641 -0.2636495 0.01553345
000390 1e 77 9e be a7 cb bc bd 72 fa 86 bd 04 b1 4b 3e
       -0.30950254 -0.09218531 -0.065907374 0.19891745
0003a0 a2 77 ee be 20 69 80 3e 59 31 5f 3e 9f 0a b0 be
       -0.46575648 0.25080204 0.21796168 -0.34383103
0003b0 a1 89 9b 3e 0f e6 05 bf ce 5d 61 3e 3a ed 94 3e
       0.3037844 -0.52304167 0.2200844 0.2908724
0003c0 18 a7 42 3e 9c c4 7c 3d 26 5e 0d 3f 55 cd 77 3e
       0.19009054 0.06171094 0.55221784 0.24199422
0003d0 55 49 5e bd 8b ae e5 bd be da 11 3e cd 56 3e 3f
       -0.054269154 -0.11214932 0.142436 0.743512
0003e0 2a 15 e4 be 5f cd 5d bd d3 6f 72 bc b7 3e 57 bd
       -0.44547397 -0.054150935 -0.014797169 -0.052550044
0003f0 28 03 0b bf 1c ce 8c 3e 55 cb 8f 3e 66 45 1e 3e
       -0.5430169 0.27501 0.28084818 0.15456161

fc3.bias f4 [4]
000000 c9 4c 1a 3f 8f 09 ed 3e 5d c5 cd 3e a6 a4 d3 3e
       0.60273415 0.46296355 0.4018964 0.41336554
